Entrenar/runs/30/FCNN_local/04-12_17:09:47/weights/best_model.pt (torch, 42914 bytes, 17 tensors)

convs.0.bias f4 [64]
000000 04 01 94 3b fc cd 0a ba 2d ec 13 3c 30 9b 7e bc
       0.0045167226 -0.0005294976 0.009028477 -0.015539929
000010 03 8a e9 bc 7a d5 e0 3a 1f 2f 30 bd 66 83 94 3b
       -0.028508192 0.0017153465 -0.04301369 0.0045322655
000020 9d e3 9b bb 50 41 a1 36 29 36 52 3b 25 f7 76 ba
       -0.004757358 4.8057773e-06 0.003207574 -0.00094209827
000030 5d 93 14 bd c8 31 df bc 4d 90 bc 39 9e b8 b9 bc
       -0.03627335 -0.027245417 0.00035965667 -0.02267104
000040 12 22 6d bc db 2c 45 bc f6 cb 7c 3c 66 ad a1 bc
       -0.014473455 -0.01203462 0.015429487 -0.019736003
000050 2e 1e bc bb 35 62 f1 ba 30 87 84 bc 3c ba 39 ba
       -0.0057409024 -0.0018416109 -0.016177744 -0.0007084941
000060 ae 85 66 bc a4 92 6e bd 64 a1 8e bc 9d e0 18 3a
       -0.014069958 -0.058245316 -0.017410941 0.000583181
000070 0a c4 6d bc 6e 06 e3 3b 59 a5 ae bb 39 0b 25 3b
       -0.014512071 0.0069282567 -0.0053297696 0.0025183691
000080 a7 05 81 bc 6c 15 54 3c b1 8a 54 bc 2f a0 2b 3b
       -0.015749766 0.0129445605 -0.01297252 0.0026188006
000090 f2 ab 72 bc dd 44 88 bc 6d 0f 81 bc 90 de f2 bc
       -0.014811503 -0.0166344 -0.015754426 -0.029647142
0000a0 e4 7e b9 bb 68 46 bd bb 63 75 c9 bb c0 65 3e bc
       -0.0056608785 -0.0057762153 -0.006148027 -0.011620939
0000b0 0f 19 29 3c 15 8e ed 3b 13 55 bc ba 4e 0f 4e bc
       0.010320916 0.0072496035 -0.0014368616 -0.012576891
0000c0 a0 7c c3 bc 17 b2 33 3c b3 de 15 bd f7 a0 6b 3b
       -0.023863137 0.010967753 -0.036589336 0.0035954097
0000d0 64 36 1a 3c 36 76 94 bb 51 4a 77 ba 9f cb b6 bb
       0.009412382 -0.0045306934 -0.0009433376 -0.0055784727
0000e0 b5 0f 15 3b 58 38 74 bc 05 82 0b ba 66 37 85 bc
       0.0022744958 -0.0149060115 -0.00053218036 -0.016261768
0000f0 0a 6a 42 bc 5c 4f 5c bc 1c e5 70 bc 4f 70 6f bc
       -0.011866102 -0.013446655 -0.014703061 -0.014614179

convs.0.lins.0.weight f4 [64, 2]
000000 38 62 fc 3e 89 57 f5 bd 86 8d 08 3f 65 fa 6e 3d
       0.49293685 -0.11979587 0.5334095 0.058344264
000010 a2 6c 12 bf b7 84 03 3f e0 f9 c5 bd 12 49 98 bd
       -0.5719701 0.5137438 -0.096668005 -0.07435812
000020 0e 09 1f bf 07 1b 42 bf f3 a8 4b 3e 63 ce 52 bd
       -0.6212319 -0.7582249 0.19888668 -0.051466357
000030 b5 c2 01 3f 12 bc 0a bf 79 65 fd 3e c2 dc 0e bf
       0.50687724 -0.5419322 0.4949148 -0.558056
000040 2c d3 0b bd 8e 7a db 3d 44 66 d3 3e 87 b9 14 3f
       -0.034136936 0.10716735 0.4128896 0.5809559
000050 20 c9 1e 3f 0c 39 4d bf 6f 89 e3 3d 2b c6 03 be
       0.6202564 -0.8016517 0.11110198 -0.12868564
000060 e8 6b 6f be 5f 12 19 bf b7 86 28 3f a7 e2 fb be
       -0.23381007 -0.5979366 0.6583056 -0.4919636
000070 57 86 22 3e 9e 7c 32 3e bd 74 b7 3e 52 2d ac be
       0.15871559 0.1743035 0.35831252 -0.33628327
000080 ed e6 f8 3e 98 fe 57 3e 16 0a 77 3e ff 49 26 bf
       0.48613682 0.21093214 0.24124941 -0.6495666
000090 f5 88 87 3e dc 4a 90 be 12 14 e6 be 90 43 19 3f
       0.26471677 -0.28182113 -0.44937187 0.5986872
0000a0 80 32 66 3e 39 35 8f be dc c8 a7 bd 95 9a 2a 3d
       0.22480202 -0.27970293 -0.08192608 0.041651327
0000b0 5a 3a b3 3e 88 99 8d be c5 d5 e7 be 81 f8 aa be
       0.35005456 -0.27656198 -0.4528028 -0.33392718
0000c0 23 be ca be 42 31 43 3e b6 28 1d 3f 12 d7 2c bf
       -0.39598188 0.19061759 0.61390245 -0.6751567
0000d0 a4 dc d6 3d 4f 9b 43 3e 98 15 f9 3d 03 1f 1b bd
       0.104913026 0.19102214 0.12162322 -0.037871372
0000e0 52 7a ab 3e c0 53 bb 3e 22 37 21 3e 81 e1 74 bc
       0.3349176 0.36587334 0.15743688 -0.014946342
0000f0 0c 22 6c bd c4 6f 93 3d 00 ec 9a ba b6 df 5b bd
       -0.057649657 0.07199052 -0.0011819601 -0.053680144
000100 d1 f8 0f 3f b3 7a 26 3f c8 1f 51 3b 1e ec db bc
       0.5623904 0.65030974 0.0031909812 -0.026845988
000110 8e 0b b8 3d 81 48 5a 3d 91 20 fe 3d c0 26 3e 3e
       0.08986579 0.0532918 0.12408555 0.1856947
000120 ac 40 06 bf 7f 75 c3 be 1f 00 02 3f 0e d4 c6 3e
       -0.5244243 -0.3817558 0.50781435 0.3883366
000130 1f a1 77 bd 3c b8 de be e6 41 13 bf 7d 69 2f bf
       -0.06045639 -0.43499935 -0.5752243 -0.6852034
000140 21 42 8a be d1 e3 17 3e eb f8 b5 3e ce cf 8b 3e
       -0.27003577 0.14832999 0.35541472 0.2730698
000150 55 bf 0f bf 7a 90 ee be 6c 26 2c be 2d 46 13 3f
       -0.56151325 -0.46594602 -0.16811532 0.57528955
000160 2e de c8 3d 3a 67 17 be 56 8c 84 3e bd fd 93 be
       0.098080024 -0.14785472 0.25888318 -0.28904524
000170 ad 31 d8 be 01 b7 e0 3e 5a 18 c2 bd 32 af e3 bc
       -0.422254 0.4388962 -0.09477301 -0.0277935
000180 77 00 59 bf be 47 1f 3f 12 c0 07 3f 04 c8 c7 3e
       -0.84766334 0.62218845 0.5302745 0.39019787
000190 11 e8 1a bf c6 59 3d bf a4 b4 3d bf 8e 0b 1c 3f
       -0.60510355 -0.7396511 -0.7410376 0.6095513
0001a0 eb c3 d1 3e 9b dc 0c 3f 6a 33 fa 3d d0 9d c5 3d
       0.40969786 0.5502412 0.12216838 0.09649241
0001b0 a7 ac e9 3d 57 32 fd be 3a 68 46 bf 6c 15 2e bf
       0.11409884 -0.4945247 -0.7750279 -0.6800144
0001c0 83 3a 79 3e 03 44 bf be c0 08 0f be 99 be ae be
       0.24338727 -0.37356576 -0.13968182 -0.3412979
0001d0 52 3d 83 be 6d 73 1e bf 66 1b ae be 3d 28 8a 3e
       -0.2563272 -0.61894876 -0.34005278 0.26983824
0001e0 32 3e 77 be 85 8c 87 3e 6f 6d b9 be d1 dc 03 bf
       -0.2414482 0.26474395 -0.36216304 -0.51508814
0001f0 41 ff 0e be 10 dd ae be ea fd d5 be 8a b7 12 bf
       -0.13964559 -0.34153032 -0.41795284 -0.5731131

convs.1.bias f4 [128]
000000 a2 53 6f bd ec a6 1d 3e 80 97 99 3d 89 f0 ca 3d
       -0.058429368 0.15395707 0.074995995 0.0990916
000010 79 3a e8 3d c9 2b 44 3d 5e 06 85 bd ba 27 3c 3e
       0.11339278 0.04789332 -0.06495355 0.1837453
000020 8c bc c3 bd 0e ac 6e bd ae c7 2b bd 25 24 06 3d
       -0.09557447 -0.058269553 -0.041938476 0.032749314
000030 de 8c 35 bd 2f 0b 7f bd 52 ea 46 3d 6e 92 5a bd
       -0.044323795 -0.062266525 0.04856331 -0.053362302
000040 21 63 b5 bd 3f 2b 1f bd 78 d8 1d bd 8f 90 5b 3d
       -0.08856798 -0.038859602 -0.03853652 0.05360466
000050 70 db a9 3d f5 7e 8c bd c3 f8 43 bd 47 7f 23 3e
       0.082938075 -0.06860153 -0.04784466 0.15966521
000060 a8 e8 95 3d 7e 62 c8 3b 98 35 4c bd 50 4e df bd
       0.07319766 0.006115257 -0.0498558 -0.10903609
000070 5e 0d d4 bc c2 34 18 3e 98 9e 5c 3d 4e d5 7b 3d
       -0.02588528 0.14863876 0.053862184 0.06148272
000080 75 1c a9 3d d5 53 5c bd 11 a6 a5 bd da 83 33 bd
       0.08257381 -0.053790886 -0.08088315 -0.043826915
000090 79 27 2d bd 01 d1 09 3e 7b e4 89 3d 85 82 1d bd
       -0.042273972 0.13458635 0.06733032 -0.03845455
0000a0 91 3f 42 bd 00 08 57 bd 50 1c a2 bd 18 10 00 3e
       -0.047423903 -0.052497864 -0.079155564 0.1250614
0000b0 6d 71 5b 3d 31 e3 73 bd e2 cc 83 3d ce 3d 57 bd
       0.053574968 -0.05954284 0.06435563 -0.052549176
0000c0 d2 7a d1 bd 3c da 40 bd 95 57 75 bd 7c be 5a 3d
       -0.10228504 -0.047083125 -0.059897978 0.053404316
0000d0 f4 6d e1 bc 91 c7 47 bd 84 df 53 bd cc a3 1d bd
       -0.02751825 -0.048774306 -0.051726833 -0.038486287
0000e0 7a c5 22 3e 82 e6 bb 3d 19 e0 f0 3d fd 3b 41 bd
       0.15895644 0.09174825 0.11761493 -0.04717635
0000f0 44 fe 37 bd 0f 17 62 bd 72 0b 7e bd a6 29 b1 bd
       -0.04492022 -0.05519777 -0.062022634 -0.08650522
000100 ec 8f 07 be 1a 4a 67 bd fc 9a 0a bd 42 86 70 bd
       -0.13238496 -0.056467153 -0.03383921 -0.05872179
000110 42 90 8c 3c 25 5a 30 3d 74 de 8c bd 4a 9c 75 3d
       0.017158631 0.04305472 -0.06878367 0.059963502
000120 91 94 ac bd df 8c 7f bd 61 d9 dd 3d 11 67 65 bd
       -0.08426774 -0.062390205 0.10832477 -0.056006495
000130 e3 f0 b5 bd 6e ee 43 bd 40 76 37 3d 29 0a 86 bd
       -0.08883836 -0.047834806 0.044790506 -0.06544907
000140 8e e5 92 bd c4 e4 b0 bd 25 da bb bd 0c bb c6 3d
       -0.0717269 -0.086373836 -0.09172467 0.09703645
000150 de d7 5a 3d 4f b5 ae 3d 6b 89 50 bd f5 53 cb bd
       0.053428523 0.085306756 -0.050912302 -0.09928123
000160 de b0 59 bd 7e 11 25 bd 47 db 4e bd ba ea a3 3d
       -0.05314719 -0.040299885 -0.050502088 0.08003755
000170 3c ad 3f 3d 0a 02 69 bd ea 3b d7 bd 32 bb ce 3d
       0.04679607 -0.05688671 -0.105094746 0.100942984
000180 b7 2c 82 bd de 93 3d bd ac 13 1d 3e 38 f2 ca bd
       -0.06356185 -0.046283595 0.15339535 -0.09909481
000190 73 30 2d bd 05 dd 92 bd 30 ac 27 bd 77 0d 79 bd
       -0.042282533 -0.071710624 -0.040935695 -0.060803857
0001a0 e6 c5 26 bd 8c 18 c1 bd b8 0a d6 3d e9 da 29 bd
       -0.040716074 -0.0942851 0.10451263 -0.041468535
0001b0 4a c0 7b bd 7d d6 90 bd f3 c8 18 3d c5 f1 36 bd
       -0.061462678 -0.070721604 0.037301015 -0.044664163
0001c0 d1 6b bb bc 8d 22 38 bd 9d 0d 99 bc c3 1f 8e bd
       -0.02287856 -0.044954825 -0.01868325 -0.06939652
0001d0 b1 eb a6 bd 42 81 5b 3d 00 25 b3 bd 66 92 f7 3d
       -0.08150423 0.053590067 -0.087472916 0.1208847
0001e0 14 32 25 3d fc b6 b0 bd e0 ee d2 bd 90 be 42 3d
       0.04033096 -0.086286515 -0.10299468 0.047545016
0001f0 0e da e3 3d 2d 61 e2 bc de 19 69 3d 16 e9 40 bd
       0.11125575 -0.027634228 0.056909434 -0.047097288

convs.1.lins.0.weight f4 [128, 64]
000000 26 92 6d bd 86 30 32 3d 14 f4 6c 3d 7d 3d 42 bb
       -0.058000706 0.043503307 0.05784996 -0.00296387
000010 cf 54 23 bd 4a 6f eb bd ab 20 a0 bd a8 79 9f bc
       -0.0398758 -0.11495836 -0.07818731 -0.01946719
000020 01 f6 de bd 3a ea 04 be a5 9b 19 3d 3d 32 74 bd
       -0.10886765 -0.12979975 0.03750195 -0.059618223
000030 14 98 9c 3c 8c c6 23 bd b8 57 31 bd 1d 06 e8 bc
       0.019115485 -0.03998427 -0.043296546 -0.028323228
000040 16 71 80 3d 8d 5c e8 bd bf 18 89 bd ba 72 f7 bc
       0.062715694 -0.11345778 -0.06694173 -0.030206073
000050 21 14 8f bc 43 42 63 bd f6 e2 b6 3d df 45 91 bc
       -0.017465653 -0.055483114 0.08930008 -0.017733512
000060 4f 76 29 bd 2b 6b 78 3d 5b b8 f4 bd 0f 97 89 bd
       -0.041372593 0.06064908 -0.119492255 -0.06718265
000070 99 d9 c8 3c 25 90 ea bb b7 96 af 3c 25 77 42 bd
       0.024517821 -0.0071582966 0.021434171 -0.047476906
000080 2e b3 a6 3d 4c 10 1c 3d 1f 70 7a be 3a 03 d1 bd
       0.081396446 0.03810148 -0.24456833 -0.102056935
000090 b6 c4 3b bc 39 39 02 be 08 d4 aa bd 44 77 d4 3c
       -0.011460474 -0.12717141 -0.08341223 0.025935777
0000a0 07 e4 5d bd a6 c9 dd 3c 9f d2 a3 bd eb d8 56 3d
       -0.054172542 0.027073693 -0.07999157 0.052452963
0000b0 d6 52 c0 bd 4d 15 9b bd ac e9 ef 3c 91 0e 9c bd
       -0.093908 -0.07572422 0.029286228 -0.07619966
0000c0 50 c4 a2 bc ea da 2a bd 47 7b c6 bd e5 79 72 bd
       -0.019869 -0.04171268 -0.09691482 -0.05919828
0000d0 d4 2f ae 3c 93 59 52 3d d6 dc bf 3d 65 23 a2 bc
       0.02126304 0.051354956 0.09368293 -0.019792268
0000e0 97 a0 a7 3d d1 73 00 bc 1b 9c d5 bb f7 60 6c bd
       0.08184927 -0.007840113 -0.0065188534 -0.05770966
0000f0 d7 a0 8e bd 03 90 93 3c 37 0e 6f bd cf 14 95 3d
       -0.069642715 0.018013006 -0.058363166 0.072793595
000100 49 bd c5 bd 06 3f d0 bd 84 36 73 bc 57 04 67 bd
       -0.09655244 -0.10168271 -0.0148445405 -0.056400623
000110 5b 7a cd 3d 8d 70 44 3e 9f 66 9b 3d 1f e8 d4 ba
       0.10033103 0.1918356 0.07587933 -0.0016243494
000120 aa 9c f0 3d d1 0c 23 3d 00 f0 4b bd 62 02 1c 3d
       0.11748631 0.039807145 -0.04978943 0.03808821
000130 bc f6 bb bd 48 b7 24 bd 01 c4 9b bc 0f 2c 59 bc
       -0.0917792 -0.040213853 -0.01901436 -0.013255133
000140 61 fc 40 3e 4b 0f e2 3d ee 04 1d be 22 60 84 bc
       0.18846275 0.11038073 -0.15333912 -0.016159121
000150 32 d5 17 3e 20 d4 49 3d 87 38 31 3e 97 98 c3 3c
       0.14827421 0.049274564 0.1730672 0.023876471
000160 82 24 8e bb de c7 39 3c 54 c9 42 3e 46 7b 99 bd
       -0.004337848 0.011339156 0.19022113 -0.07494216
000170 99 45 6b bd 7d 90 ff 3c 03 dc 95 3d 88 c5 19 3c
       -0.05743942 0.031196827 0.073173545 0.009385474
000180 5c e1 cb 3d ed 54 fc bd 20 0d 83 3e 46 f4 48 bd
       0.09955093 -0.12320886 0.2559595 -0.049061082
000190 b4 6f 9e bd 58 fc a6 3d 9d 97 e8 3d 45 27 7a 3c
       -0.077361494 0.081535995 0.11357043 0.015268152
0001a0 a4 59 e4 3d 11 7c de bb 0d 7a a5 3c f4 c6 92 bd
       0.1114991 -0.006789692 0.0201998 -0.071668535
0001b0 f6 8a 94 bd fc af c2 3c 65 97 aa bc 97 94 0f 3e
       -0.07253067 0.023765557 -0.020824144 0.14021526
0001c0 16 73 fc 3d 3f 09 b3 3b 6c 83 16 3e c7 f1 a3 3d
       0.123266384 0.0054637487 0.14698571 0.080051
0001d0 bc 7d 8d bd fd ac 26 3e 01 28 7a 3d af aa f0 bd
       -0.069087476 0.16276927 0.061073307 -0.11751305
0001e0 aa 49 ef bc 07 e2 e3 3d f6 40 a7 bd de a7 f8 bc
       -0.02920993 0.11127096 -0.08166687 -0.030353483
0001f0 c6 e2 a2 bc 73 65 49 bd 31 2e d6 3d 0c c9 b7 3d
       -0.019883525 -0.049169015 0.10458029 0.089738935
000200 a8 5f 85 bd 57 e4 0c be c7 f1 e1 bb 8a 8c 37 3d
       -0.065123856 -0.1375898 -0.006895277 0.044811763
000210 55 45 97 3b ea 1d 8c 3d 0a 6f 6e bd 30 04 9e 3c
       0.0046164193 0.06841643 -0.058211364 0.019289106
000220 ed 8e e7 3d 60 cf 21 3d d1 70 65 bc 55 b8 fa 3d
       0.11306558 0.03950441 -0.014003948 0.1224219
000230 fb 2d be bc ad a2 f1 bd f9 a3 0f 3e 5b 2c d0 3d
       -0.023215285 -0.11798606 0.14027394 0.1016471
000240 3d 08 76 3d c4 d9 d8 3d 7a 1f 94 3d 66 57 65 3c
       0.06006645 0.105884105 0.07232566 0.013997888
000250 1c b2 bd 3d 6f 7a a0 bd a8 f0 c0 3a b3 bf f6 bc
       0.09262487 -0.07835852 0.0014720159 -0.030120706
000260 76 c6 a1 bc 21 f7 cc bd 72 c9 23 3d 7e a0 6a 3d
       -0.019747954 -0.100080736 0.039987035 0.057281964
000270 d7 3c 4a bd 22 c5 ba bc 58 c1 32 bd a3 be 2d 3d
       -0.049374428 -0.022799078 -0.04364142 0.042418133
000280 34 c0 e1 bd 3e 99 41 bc 16 e7 90 3e 8b a7 8d 3d
       -0.11022988 -0.011816321 0.28301305 0.06916722
000290 ce 05 9f bd 2a 36 0c 3d 2a 7f 47 bd ee fc 11 3d
       -0.07764779 0.034231342 -0.048705257 0.035641603
0002a0 12 2a 2f be da e1 c0 bd d6 18 64 3d 27 4f 37 bd
       -0.17105892 -0.09418078 0.055687748 -0.04475322
0002b0 10 6b da 3d d0 45 04 3e c9 ce 5e 3d 31 a6 2d 3d
       0.10664952 0.12917256 0.054396424 0.04239482
0002c0 aa 5d 89 3d 59 d3 41 3d 88 97 86 bd 57 4c 7c 3d
       0.06707318 0.047320697 -0.06571871 0.06159624
0002d0 63 42 41 bb e2 a9 b2 3c 9e 85 bf bd 30 b2 01 3e
       -0.0029489032 0.021809522 -0.09351657 0.1266563
0002e0 be 44 97 3d aa 0e 33 3d ae a6 74 bd 83 62 df bd
       0.073861584 0.043715157 -0.05972927 -0.109074615
0002f0 34 26 0c 3d b6 78 42 bd 43 3c d1 bc ba c8 43 bd
       0.03421612 -0.0474784 -0.02554143 -0.04779885
000300 fc 08 e9 bc 00 df 54 3d f2 52 87 3c 46 fc 33 3d
       -0.028446667 0.051970482 0.016519044 0.04394176
000310 8e 8c ae bd e5 c9 23 bd 63 b1 6f bd 03 fd aa bd
       -0.085229024 -0.039987464 -0.05851878 -0.083490394
000320 3f f5 9d 3d 5f 28 be bd ca 9f db bc c0 32 f5 bc
       0.077127926 -0.09285044 -0.026809592 -0.029931426
000330 24 24 3c bc 7d 95 e9 3b d0 13 70 3d 0a f4 92 3d
       -0.011483226 0.007128416 0.058612645 0.07175453
000340 a1 7c 12 be 84 07 42 bd 42 f2 de 3b 43 22 fb bd
       -0.14305355 -0.04737045 0.0068037817 -0.12262394
000350 fe 65 0b 3e 95 b1 67 bd 53 52 c1 3d 20 8a 19 3e
       0.13613126 -0.05656584 0.0943953 0.14994097
000360 68 2e 64 bb 4e 30 d5 bc 20 19 0f 3e 73 dd 14 bd
       -0.00348177 -0.02602401 0.13974428 -0.036344003
000370 cc 4f a4 bc fd 17 fc 3d 01 5d 48 3e ff 13 17 3d
       -0.020057581 0.12309263 0.19566728 0.036884304
000380 e9 e1 0b bd 61 c7 a1 3c fe b5 81 3e b2 50 8e 3d
       -0.03415099 0.019748392 0.25334162 0.06948985
000390 3a 1d af bd df b9 24 bc a6 ec 61 bd 66 a1 c3 3d
       -0.085504964 -0.010054081 -0.055157326 0.09552269
0003a0 9a 9a 9e bd f3 59 9d 3d 71 34 bd bb 68 3f 9d bd
       -0.07744332 0.07683172 -0.005774074 -0.076781094
0003b0 67 24 c4 bd 29 a8 10 3e 3d 69 88 3b 68 cb fb bd
       -0.09577256 0.14126648 0.004162936 -0.12294656
0003c0 79 4f d6 3c 9e a3 17 3d 9e 33 3c bc f6 ad dd 3d
       0.026160942 0.037021272 -0.011486916 0.10824196
0003d0 ab 83 3b 3d f9 eb 51 3d 22 c0 bd 3d 04 48 af 3d
       0.045779865 0.05125043 0.09265162 0.08558658
0003e0 81 7a bc ba 6c 32 c1 3c 7a ff e5 3c 86 23 50 bd
       -0.0014379771 0.023583613 0.028075922 -0.050815128
0003f0 a5 9d 83 3d ca 1c 04 be 0c 65 e9 bc de fc 3b 3d
       0.06426553 -0.12901607 -0.028490566 0.04589545

convs.2.lins.0.weight f4 [1, 128]
000000 b3 6e 96 bd c2 23 17 3f e2 98 b9 3e 97 ac cf 3e
       -0.07345333 0.5903894 0.36249453 0.40561363
000010 79 71 05 3f 35 4a cc 3e e0 16 94 bd f7 85 00 3f
       0.5212627 0.39900365 -0.072309256 0.50204414
000020 8d 87 a7 bd 1d b0 ae bb bd ff 81 be a8 cf 9d 3e
       -0.08180151 -0.005331053 -0.25390425 0.30822492
000030 a5 7c d4 bd b6 f6 e7 bc 39 ad c9 3e ec 72 88 be
       -0.103753366 -0.028315883 0.3938997 -0.26650178
000040 15 f0 11 3d de 5f 02 be d4 58 2d bd 0c f8 d4 3e
       0.03562935 -0.12731883 -0.04232104 0.41595495
000050 bd 71 cd 3e 5e e4 bd 3c e4 35 45 be e7 19 21 3f
       0.40125838 0.023180183 -0.19258839 0.6293015
000060 71 f6 fa 3e cc 01 ba 3d 6e f5 35 bd f9 d0 1b bc
       0.49016145 0.09082374 -0.044423513 -0.009510272
000070 b4 39 40 be d8 f1 df 3e e6 5b d5 3e bd e9 d7 3e
       -0.18772012 0.437392 0.41671675 0.42170516
000080 19 e9 c4 3e c5 db 7b be 2c 76 c2 bb fe ef a5 3d
       0.3845909 -0.24595554 -0.0059344973 0.081024155
000090 4d 85 80 bd 1f 9b e8 3e fa 72 c8 3e 3d fd 17 bd
       -0.06275425 0.45430848 0.3915022 -0.03710674
0000a0 e1 2e e2 bb d5 26 01 be 0f 70 01 3d 51 9d 0b 3f
       -0.006902561 -0.1261247 0.031601008 0.5453692
0000b0 5c 5a d7 3e 4a 60 58 bc 92 af c1 3e 53 e9 ca bd
       0.42061126 -0.013206551 0.37829262 -0.09907784
0000c0 6b 24 c7 3c 58 63 09 bd 5c 13 f0 bd f0 d9 d4 3e
       0.024309358 -0.033542007 -0.117224425 0.41572523
0000d0 67 ad 3d be 6f ae c7 bd 2b 08 90 bd 18 8d df bc
       -0.18523179 -0.097500674 -0.07032808 -0.027288958
0000e0 93 7f 18 3f 9e 5a ce 3e b6 46 0f 3f 2c 1d 27 be
       0.5956966 0.4030351 0.5596727 -0.16319722
0000f0 e3 0f 8b be 21 cc 8b 3d 75 4d 01 bd ad 43 84 be
       -0.27160558 0.06826044 -0.03156801 -0.25832883
000100 0e 15 7c bd a7 6e 6b bb 8a 36 cf bd 0e 42 94 bc
       -0.061543517 -0.0035924108 -0.101178244 -0.018097904
000110 3a 19 b5 3e 10 1d b6 3e 99 dc 0c bc b5 23 c6 3e
       0.3537081 0.35569048 -0.008597516 0.38699117
000120 8a d6 fe bd ea d7 b0 bd db 2a 0a 3f 38 05 80 be
       -0.12443264 -0.08634932 0.5397164 -0.25003982
000130 f0 46 90 bd ed 92 11 bf 0a cd bf 3e d9 9c 97 bd
       -0.0704478 -0.56864816 0.3746112 -0.07402963
000140 bf 49 f9 bd 51 c4 82 3c 06 8e 79 be 20 86 de 3e
       -0.12172269 0.015962752 -0.24370584 0.43461704
000150 de 64 d4 3e cc 62 c9 3e 43 7b 84 bc 3a a7 39 bd
       0.41483206 0.3933319 -0.016172057 -0.045325495
000160 22 bc a7 bd a0 e3 c6 bd 33 f4 a4 bc e0 4e da 3e
       -0.0819018 -0.09711385 -0.020135975 0.42638302
000170 3e ae d3 3e 82 0c f7 3a 67 42 48 bc 36 a0 e5 3e
       0.41343874 0.0018848332 -0.012222863 0.44848794
000180 43 dd 55 bc 3a 55 a9 bd 1c 81 0f 3f 2a 86 30 bd
       -0.013053241 -0.08268209 0.5605638 -0.0430967
000190 3f 8c ee bd 1c 6f cc 3c 35 3a 85 bd 58 b0 e3 bd
       -0.116478436 0.024955325 -0.06505243 -0.11117619
0001a0 2a ea d8 bd dd fc 9f bd e6 45 d6 3e 32 bf 78 bc
       -0.10591538 -0.07811902 0.41850203 -0.015182303
0001b0 4a 77 b3 bd 3f 3f 65 be 58 a1 b3 3e 24 2d 6b bb
       -0.08762987 -0.22387408 0.35084033 -0.003588506
0001c0 ab b3 9e be 05 24 51 bd 68 6e 36 be df 4a 09 3d
       -0.3099645 -0.05105974 -0.17815554 0.03351867
0001d0 c4 f8 a0 3c dd a0 c1 3e 6e 36 00 3d ea ef 01 3f
       0.01964987 0.3781804 0.03130191 0.50756705
0001e0 ad 73 cb 3e 85 dd 10 bd 86 62 3b bd 96 75 bb 3e
       0.3973669 -0.035367507 -0.045748256 0.36613148
0001f0 41 a5 e5 3e fd 1c 9f be 6d cd b2 3e 24 c9 90 be
       0.4485264 -0.31076804 0.34922352 -0.28278458

batchnorm.0.module.weight f4 [30]
000000 1c 91 20 3f 35 cd 02 3f 00 00 80 3f 00 00 80 3f
       0.6272142 0.5109437 1.0 1.0
000010 00 00 80 3f 00 00 80 3f 00 00 80 3f 00 00 80 3f
       1.0 1.0 1.0 1.0
000020 00 00 80 3f 00 00 80 3f 00 00 80 3f 00 00 80 3f
       1.0 1.0 1.0 1.0
000030 6f bd 47 3f 00 00 80 3f 00 00 80 3f 00 00 80 3f
       0.7802343 1.0 1.0 1.0
000040 00 00 80 3f 00 00 80 3f 00 00 80 3f 00 00 80 3f
       1.0 1.0 1.0 1.0
000050 00 00 80 3f 80 44 78 3f 43 91 f5 3e 00 00 80 3f
       1.0 0.9697952 0.47962388 1.0
000060 00 00 80 3f 00 00 80 3f 4d 6d 5e 3f 00 00 80 3f
       1.0 1.0 0.8688553 1.0
000070 00 00 80 3f 00 00 80 3f
       1.0 1.0

batchnorm.0.module.bias f4 [30]
000000 8b f9 a9 be 81 cb ad 3e 00 00 00 00 00 00 00 00
       -0.331982 0.33944324 0.0 0.0
000010 00 00 00 00 00 00 00 00 00 00 00 00 00 00 00 00
       0.0 0.0 0.0 0.0
000020 00 00 00 00 00 00 00 00 00 00 00 00 00 00 00 00
       0.0 0.0 0.0 0.0
000030 7c 39 67 3e 00 00 00 00 00 00 00 00 00 00 00 00
       0.22580522 0.0 0.0 0.0
000040 00 00 00 00 00 00 00 00 00 00 00 00 00 00 00 00
       0.0 0.0 0.0 0.0
000050 00 00 00 00 5b 60 5b 3e f9 1c 97 3e 00 00 00 00
       0.0 0.21423475 0.29514292 0.0
000060 00 00 00 00 00 00 00 00 fb 54 55 be 00 00 00 00
       0.0 0.0 -0.20833199 0.0
000070 00 00 00 00 00 00 00 00
       0.0 0.0

batchnorm.0.module.running_mean f4 [30]
000000 15 99 0e bc a6 70 22 bc 00 22 cc bb 1d 47 4a bc
       -0.00870349 -0.009914553 -0.006229639 -0.012346056
000010 15 99 0e bc 15 99 0e bc 96 98 a4 bb 55 5b dc bb
       -0.00870349 -0.00870349 -0.0050230725 -0.006724755
000020 15 99 0e bc 16 b7 e6 bb 15 99 0e bc 34 24 7e bb
       -0.00870349 -0.0070408685 -0.00870349 -0.0038778903
000030 15 99 0e bc 40 73 80 bb 16 8e 51 bc 2d bd 3e bc
       -0.00870349 -0.003919989 -0.012790224 -0.011641783
000040 bc bd e2 bb 5c 16 07 bc 75 7a ed bb b6 b6 38 bc
       -0.0069195908 -0.008245077 -0.007247264 -0.01127403
000050 60 62 6d bc 15 99 0e bc 38 cc 64 bc d5 f6 38 bc
       -0.014488786 -0.00870349 -0.013964705 -0.011289318
000060 15 99 0e bc 0f d1 45 bc 15 99 0e bc 15 99 0e bc
       -0.00870349 -0.012073769 -0.00870349 -0.00870349
000070 cc 0c 44 bc 6f cf a4 bb
       -0.011965942 -0.005029611

batchnorm.0.module.running_var f4 [30]
000000 b8 53 49 39 73 48 b0 3e c1 16 af 3e 38 4f aa 3e
       0.00019200041 0.34430274 0.34197047 0.33263564
000010 b8 53 49 39 b8 53 49 39 72 e1 a9 3e a7 ee ab 3e
       0.00019200041 0.00019200041 0.33179814 0.33580515
000020 b8 53 49 39 89 2a b6 3e b8 53 49 39 c2 84 a6 3e
       0.00019200041 0.35579327 0.00019200041 0.3252316
000030 b8 53 49 39 e1 80 a8 3e a5 d0 ad 3e 31 81 b0 3e
       0.00019200041 0.32910827 0.33948246 0.34473565
000040 5a 7b 9e 3e 4b 7a a6 3e 64 ed ab 3e b9 23 a9 3e
       0.30953485 0.32515177 0.33579552 0.33035067
000050 61 a0 a7 3e b8 53 49 39 2f 4b a3 3e b3 d1 b3 3e
       0.32739547 0.00019200041 0.31893298 0.35120925
000060 b8 53 49 39 47 44 a7 3e b8 53 49 39 b8 53 49 39
       0.00019200041 0.3266928 0.00019200041 0.00019200041
000070 fd af a8 3e 3a 1a ad 3e
       0.32946768 0.33809072

batchnorm.1.module.weight f4 [30]
000000 3a 1e bc 3f e6 7b cc 3f 00 00 80 3f 00 00 80 3f
       1.4696724 1.5975311 1.0 1.0
000010 00 00 80 3f 00 00 80 3f 00 00 80 3f 00 00 80 3f
       1.0 1.0 1.0 1.0
000020 00 00 80 3f 00 00 80 3f 00 00 80 3f 00 00 80 3f
       1.0 1.0 1.0 1.0
000030 65 77 75 3f 00 00 80 3f 00 00 80 3f 00 00 80 3f
       0.95885307 1.0 1.0 1.0
000040 00 00 80 3f 00 00 80 3f 00 00 80 3f 00 00 80 3f
       1.0 1.0 1.0 1.0
000050 00 00 80 3f 9d fe 8d 3f af 9c 44 3f 00 00 80 3f
       1.0 1.1093327 0.7680158 1.0
000060 00 00 80 3f 00 00 80 3f 22 b8 b0 3f 00 00 80 3f
       1.0 1.0 1.3806193 1.0
000070 00 00 80 3f 00 00 80 3f
       1.0 1.0

batchnorm.1.module.bias f4 [30]
000000 6b 5e f1 3e 4f 98 16 3f 00 00 00 00 00 00 00 00
       0.47142348 0.58826154 0.0 0.0
000010 00 00 00 00 00 00 00 00 00 00 00 00 00 00 00 00
       0.0 0.0 0.0 0.0
000020 00 00 00 00 00 00 00 00 00 00 00 00 00 00 00 00
       0.0 0.0 0.0 0.0
000030 6a 4c 47 bd 00 00 00 00 00 00 00 00 00 00 00 00
       -0.04865686 0.0 0.0 0.0
000040 00 00 00 00 00 00 00 00 00 00 00 00 00 00 00 00
       0.0 0.0 0.0 0.0
000050 00 00 00 00 e9 a6 c4 3d 3c 3a 38 be 00 00 00 00
       0.0 0.09602148 -0.17990965 0.0
000060 00 00 00 00 00 00 00 00 f1 c5 c3 3e 00 00 00 00
       0.0 0.0 0.38236955 0.0
000070 00 00 00 00 00 00 00 00
       0.0 0.0

batchnorm.1.module.running_mean f4 [30]
000000 e8 e4 41 bd 96 ac 9e be c0 9c 36 be d6 0e 3a be
       -0.047337443 -0.30991048 -0.17833233 -0.18169722
000010 66 87 86 be 66 87 86 be 25 2b 36 be 8d bc 2a be
       -0.26275176 -0.26275176 -0.17789896 -0.16673489
000020 66 87 86 be 32 0f 37 be 66 87 86 be 5b cc 34 be
       -0.26275176 -0.1787689 -0.26275176 -0.1765608
000030 23 cf a1 be e7 b1 38 be 9d 8a 3a be 41 71 37 be
       -0.31603345 -0.18036614 -0.1821694 -0.17914297
000040 f5 da 38 be a9 b4 39 be 61 a9 34 be 57 21 3b be
       -0.18052275 -0.18135323 -0.17642738 -0.18274437
000050 37 a9 3c be d1 8b b7 be 02 62 8e be 4b 50 39 be
       -0.18423925 -0.3584886 -0.2780915 -0.18097036
000060 66 87 86 be 80 e3 37 be 2f 26 07 be 66 87 86 be
       -0.26275176 -0.17957878 -0.1319816 -0.26275176
000070 8c 57 38 be 31 61 38 be
       -0.18002146 -0.18005826

batchnorm.1.module.running_var f4 [30]
000000 66 13 22 3d 58 05 9d 3e 41 72 ff 3d 9e b1 02 3e
       0.03956928 0.3066814 0.12472964 0.12763068
000010 57 0b f4 3e 57 0b f4 3e 5d 76 fc 3d df 5c e6 3d
       0.47664902 0.47664902 0.123272635 0.112481825
000020 57 0b f4 3e 39 2d fe 3d 57 0b f4 3e b4 0e fe 3d
       0.47664902 0.12410969 0.47664902 0.12405148
000030 c5 ce 1a 3f ac 13 00 3e 18 04 01 3e 07 25 01 3e
       0.60471755 0.12507504 0.12599218 0.12611781
000040 92 ea 00 3e 44 5d 04 3e ab 41 f8 3d 2c 89 03 3e
       0.12589481 0.12926203 0.121219 0.12845296
000050 93 5d 04 3e 40 b8 4a 3f 5c b9 80 3e aa ea 00 3e
       0.1292632 0.79187393 0.25141418 0.12589517
000060 57 0b f4 3e 48 c9 ff 3d cb 33 2b 3e 57 0b f4 3e
       0.47664902 0.12489563 0.16718976 0.47664902
000070 91 3d fe 3d 88 51 04 3e
       0.124140866 0.12921727

batchnorm.2.module.weight f4 [30]
000000 00 00 80 3f 00 00 80 3f 00 00 80 3f 00 00 80 3f
       1.0 1.0 1.0 1.0
000010 00 00 80 3f 00 00 80 3f 00 00 80 3f 00 00 80 3f
       1.0 1.0 1.0 1.0
000020 00 00 80 3f 00 00 80 3f 00 00 80 3f 00 00 80 3f
       1.0 1.0 1.0 1.0
000030 00 00 80 3f 00 00 80 3f 00 00 80 3f 00 00 80 3f
       1.0 1.0 1.0 1.0
000040 00 00 80 3f 00 00 80 3f 00 00 80 3f 00 00 80 3f
       1.0 1.0 1.0 1.0
000050 00 00 80 3f 00 00 80 3f 00 00 80 3f 00 00 80 3f
       1.0 1.0 1.0 1.0
000060 00 00 80 3f 00 00 80 3f 00 00 80 3f 00 00 80 3f
       1.0 1.0 1.0 1.0
000070 00 00 80 3f 00 00 80 3f
       1.0 1.0

batchnorm.2.module.bias f4 [30]
000000 00 00 00 00 00 00 00 00 00 00 00 00 00 00 00 00
       0.0 0.0 0.0 0.0
000010 00 00 00 00 00 00 00 00 00 00 00 00 00 00 00 00
       0.0 0.0 0.0 0.0
000020 00 00 00 00 00 00 00 00 00 00 00 00 00 00 00 00
       0.0 0.0 0.0 0.0
000030 00 00 00 00 00 00 00 00 00 00 00 00 00 00 00 00
       0.0 0.0 0.0 0.0
000040 00 00 00 00 00 00 00 00 00 00 00 00 00 00 00 00
       0.0 0.0 0.0 0.0
000050 00 00 00 00 00 00 00 00 00 00 00 00 00 00 00 00
       0.0 0.0 0.0 0.0
000060 00 00 00 00 00 00 00 00 00 00 00 00 00 00 00 00
       0.0 0.0 0.0 0.0
000070 00 00 00 00 00 00 00 00
       0.0 0.0

batchnorm.2.module.running_mean f4 [30]
000000 00 00 00 00 00 00 00 00 00 00 00 00 00 00 00 00
       0.0 0.0 0.0 0.0
000010 00 00 00 00 00 00 00 00 00 00 00 00 00 00 00 00
       0.0 0.0 0.0 0.0
000020 00 00 00 00 00 00 00 00 00 00 00 00 00 00 00 00
       0.0 0.0 0.0 0.0
000030 00 00 00 00 00 00 00 00 00 00 00 00 00 00 00 00
       0.0 0.0 0.0 0.0
000040 00 00 00 00 00 00 00 00 00 00 00 00 00 00 00 00
       0.0 0.0 0.0 0.0
000050 00 00 00 00 00 00 00 00 00 00 00 00 00 00 00 00
       0.0 0.0 0.0 0.0
000060 00 00 00 00 00 00 00 00 00 00 00 00 00 00 00 00
       0.0 0.0 0.0 0.0
000070 00 00 00 00 00 00 00 00
       0.0 0.0

batchnorm.2.module.running_var f4 [30]
000000 00 00 80 3f 00 00 80 3f 00 00 80 3f 00 00 80 3f
       1.0 1.0 1.0 1.0
000010 00 00 80 3f 00 00 80 3f 00 00 80 3f 00 00 80 3f
       1.0 1.0 1.0 1.0
000020 00 00 80 3f 00 00 80 3f 00 00 80 3f 00 00 80 3f
       1.0 1.0 1.0 1.0
000030 00 00 80 3f 00 00 80 3f 00 00 80 3f 00 00 80 3f
       1.0 1.0 1.0 1.0
000040 00 00 80 3f 00 00 80 3f 00 00 80 3f 00 00 80 3f
       1.0 1.0 1.0 1.0
000050 00 00 80 3f 00 00 80 3f 00 00 80 3f 00 00 80 3f
       1.0 1.0 1.0 1.0
000060 00 00 80 3f 00 00 80 3f 00 00 80 3f 00 00 80 3f
       1.0 1.0 1.0 1.0
000070 00 00 80 3f 00 00 80 3f
       1.0 1.0
