Entrenar/runs/118/FCNN_local/04-12_17:24:45/weights/best_model.pt (torch, 47522 bytes, 17 tensors)

convs.0.bias f4 [64]
0	0x3aef1f44	0.0018243571
1	0xbaa450d1	-0.0012536292
2	0xbc57caaa	-0.0131708775
3	0xbddba918	-0.107256114
4	0xbd0518c0	-0.032494307
5	0x3c791cf1	0.015204654
6	0xbd12db1b	-0.035853487
7	0x3bbeb543	0.005819948
8	0x3c99092b	0.01868113
9	0xbc0d6ea1	-0.008632333
10	0xbc695b95	-0.014243026
11	0x3c158369	0.009125569
12	0xbcb3f81e	-0.021968897
13	0xbc97d3e4	-0.018533655
14	0x3ca5cc02	0.02023888
15	0xbdbb5f40	-0.09149027
16	0xbcc3c251	-0.023896368
17	0xbcc126b8	-0.023578033
18	0xbbb74e0d	-0.005594021
19	0xbce6c23e	-0.028168794
20	0x3cb98b53	0.022649443
21	0x3c878d9a	0.016547013
22	0xbd67d5d8	-0.05660042
23	0x3ad2a4c3	0.0016070831
24	0xbca45ac1	-0.020062806
25	0xbd013996	-0.03154906
26	0xbd8a57c2	-0.0675502
27	0x3ba2ca40	0.0049679577
28	0xbd29b16c	-0.04142897
29	0xbc084e84	-0.008319501
30	0x3c82a062	0.015945617
31	0xbbe660ee	-0.007030598
32	0xbcc9e2e4	-0.024644323
33	0xbc880520	-0.016604006
34	0x3cf961f6	0.03044222
35	0xbaddb774	-0.0016915635
36	0xbcc243a5	-0.023713896
37	0xbcc37f09	-0.023864286
38	0xbcce9260	-0.025216281
39	0xbd257bee	-0.04040139
40	0xbd85223a	-0.06500669
41	0xbd696a3a	-0.05698607
42	0xbcb5dadc	-0.022199087
43	0xbc67eb7a	-0.014155263
44	0xbc231b27	-0.009955204
45	0xbc254dd1	-0.010089354
46	0x3ce0ffd3	0.027465736
47	0xbd330eb2	-0.043715186
48	0xbccd5c09	-0.0250683
49	0xbc2282fe	-0.009918926
50	0xbcc45748	-0.0239674
51	0xbc7995b2	-0.015233444
52	0xbc8a1148	-0.016853943
53	0xbdaa4723	-0.083143495
54	0x3c0315ea	0.00800083
55	0xbbfc03c2	-0.0076908777
56	0xbbd39b66	-0.006457734
57	0xbd9f403f	-0.07775926
58	0xbc7c87ca	-0.015413234
59	0x3d96aed9	0.07357568
60	0xbcc26ef8	-0.023734555
61	0x3c051873	0.008123505
62	0xbd34d1f7	-0.04414555
63	0xbd3e14e9	-0.04640666

convs.0.lins.0.weight f4 [64, 2]
0	0x3f15b476	0.58478487
1	0xbdcaca96	-0.099019215
2	0x3eff37c1	0.49847224
3	0x3ee0138e	0.4376492
4	0xbf3ffd9c	-0.7499635
5	0x3f641aad	0.89103204
6	0x3c4583fc	0.012055393
7	0x391d7a9f	0.00015018367
8	0xbf297699	-0.6619659
9	0xbf17ea6b	-0.5934207
10	0x3b899e38	0.0041997693
11	0x3ac9438c	0.0015355214
12	0x3eeea7e1	0.46612456
13	0xbee4da0e	-0.44697613
14	0x3f2fbda6	0.68648756
15	0xbefec3eb	-0.4975885
16	0x3bbbeb06	0.005734804
17	0x3a687ca7	0.00088686723
18	0x3f2153ac	0.630183
19	0x3f2ce178	0.6753154
20	0x3f31dc77	0.6947703
21	0xbf2d5508	-0.6770787
22	0xb9de92de	-0.00042452564
23	0x3a2e576f	0.0006650602
24	0xbe4a503c	-0.1975717
25	0xbef0db08	-0.47042108
26	0x3f17e532	0.593341
27	0xbee696f6	-0.4503705
28	0x3db93978	0.090441644
29	0x3e5c5f9f	0.21520852
30	0x3ea5708b	0.32312426
31	0xbe88e4b6	-0.26736993
32	0x3ee704fb	0.45120987
33	0x3ebd311c	0.3695153
34	0x3e9d5c0a	0.30734283
35	0xbee4d8fa	-0.4469679
36	0x3e9fa316	0.31179112
37	0xbe1c3e29	-0.15258087
38	0xbed2c316	-0.41164464
39	0x3f144f9b	0.5793397
40	0x3c63a3f1	0.013894067
41	0xbd0ed1a4	-0.034867898
42	0xbd5b45af	-0.053533252
43	0x3bcc44b2	0.006233775
44	0x3de0b068	0.10971147
45	0xbce67e36	-0.028136354
46	0xbef81aca	-0.48457938
47	0xbe846bfc	-0.25863636
48	0xbee04511	-0.43802693
49	0x3ec0acfa	0.3763197
50	0x3f23f521	0.6404591
51	0xbf1064b1	-0.5640364
52	0x3d2d9c85	0.042385597
53	0x3e0d47a2	0.13796857
54	0xbb160485	-0.0022890877
55	0xba07e8e5	-0.00051845453
56	0x3eb65d87	0.3561823
57	0x3ebfc355	0.37453714
58	0xbc3bbb63	-0.011458251
59	0x3a9b914b	0.0011868862
60	0x3b8c0de4	0.004274117
61	0x3a5114b7	0.0007975804
62	0xbc633550	-0.013867691
63	0x3b8c31d3	0.0042784004
64	0x3f221675	0.63315517
65	0x3f36a6cf	0.7134828
66	0xbcde6376	-0.027147036
67	0x3b7f8349	0.0038988164
68	0x3c4e03eb	0.012574176
69	0x39ca52e4	0.000385902
70	0x3de70e8c	0.112820715
71	0x3e16c9ed	0.14725466
72	0xbf1506ce	-0.5821351
73	0xbed825b1	-0.42216256
74	0x3f0626c1	0.52402884
75	0x3f0b67e6	0.5445541
76	0xbe16ed7b	-0.14739029
77	0xbed0555c	-0.40690124
78	0xbf1515d6	-0.58236444
79	0xbf08f537	-0.5349917
80	0xbe2c7bab	-0.1684405
81	0x3e83b8ec	0.25727022
82	0x3eb01a99	0.34395292
83	0x3ec38564	0.38187706
84	0xbf1cc747	-0.61241573
85	0xbf0fa4d3	-0.56110877
86	0xbe1b23cc	-0.15150374
87	0x3f2a1061	0.6643124
88	0xbca80188	-0.020508543
89	0x3ae30883	0.0017321262
90	0x3e996d29	0.29966095
91	0xbe85c278	-0.2612493
92	0xbee5dff6	-0.4489743
93	0x3f04661d	0.5171831
94	0xbcdcee56	-0.026969116
95	0x3aa239a1	0.0012376794
96	0xbf2c7197	-0.67360824
97	0x3f58c7f7	0.8468012
98	0x3f1bc875	0.6085275
99	0x3f06e054	0.5268605
100	0xbf2783a7	-0.6543526
101	0xbf2c1aee	-0.6722859
102	0xbf1d6b77	-0.61492103
103	0x3f63fdc9	0.8905912
104	0x3f31c4bd	0.69440824
105	0x3f58d9aa	0.8470713
106	0xbd4e752b	-0.05040471
107	0x3ad9796f	0.0016591976
108	0x3bb05a4c	0.005381858
109	0xbef8850c	-0.48539007
110	0xbf456e12	-0.7712108
111	0xbf46c4f1	-0.7764426
112	0x3e8e2f74	0.2777058
113	0xbeb7fe8f	-0.359364
114	0xbe700850	-0.23440671
115	0xbe314727	-0.17312299
116	0xbeacd93f	-0.33759496
117	0xbed3fbff	-0.41403195
118	0xbebd89f0	-0.370193
119	0x3eb2e229	0.34938172
120	0xbe514343	-0.20435815
121	0x3ea288c4	0.3174497
122	0xbebb4658	-0.36577106
123	0xbf0586da	-0.5215889
124	0xbdf83f50	-0.12121451
125	0xbe09e690	-0.13466859
126	0xbec1f445	-0.37881675
127	0xbed9730c	-0.42470586

convs.1.bias f4 [128]
0	0xbd8f7779	-0.070052095
1	0x3dd46d36	0.10372393
2	0x3cc60941	0.024174334
3	0xbdc7ae69	-0.09750063
4	0x3ddcf5b6	0.10789053
5	0x3d940162	0.07226826
6	0xbb37c7fa	-0.002804278
7	0x3e0e84ee	0.13917896
8	0xbea3a55c	-0.31962097
9	0xbe182878	-0.14859188
10	0xbd891146	-0.06692748
11	0xbeab462c	-0.33451974
12	0x3d0fe2b1	0.0351283
13	0xbe000bd9	-0.1250452
14	0x3d1abd9d	0.037778486
15	0x3be3e1f2	0.006954425
16	0xbebff770	-0.37493467
17	0xbd7b9da7	-0.061429646
18	0xbd39fb40	-0.045405626
19	0x3d86ebbb	0.06587931
20	0x3cb2dc2c	0.021833502
21	0xbd868001	-0.065673836
22	0x3bb69fb2	0.0055732364
23	0x3decf9c9	0.1157108
24	0x3e0a3581	0.13496973
25	0x3e344c63	0.17607264
26	0xbd85b615	-0.0652887
27	0xbe08ca67	-0.1335846
28	0x3d91948b	0.071084104
29	0x3ce973ab	0.028497538
30	0x3de447f5	0.11146537
31	0x3da53431	0.08066595
32	0xbe4e59d7	-0.20151459
33	0x3e1c6f40	0.15276814
34	0xbdb7fb74	-0.08983508
35	0x3dee4769	0.11634714
36	0xbceca845	-0.02888883
37	0xbd229cb7	-0.039700236
38	0x3d6ff46d	0.058582712
39	0xbd3e6403	-0.046482097
40	0xbdabf3a4	-0.0839608
41	0xbc5f3dfa	-0.013625616
42	0x3dd214fa	0.10257907
43	0x3e0af7e3	0.13571124
44	0xbb55b45d	-0.0032608726
45	0x3e7ce4b6	0.24696621
46	0x3e200a07	0.15628825
47	0xbd82793f	-0.06370782
48	0xbdc3c286	-0.09558587
49	0xbd669af8	-0.056300133
50	0x3d820993	0.063494824
51	0x3bf42ee0	0.007451877
52	0xbe10b383	-0.14130978
53	0xbdc0dceb	-0.09417137
54	0xbca61e3a	-0.020278085
55	0xbd63a099	-0.05557308
56	0x3d94b536	0.07261126
57	0x3de4eae3	0.111776136
58	0x3d2d6493	0.042332243
59	0xbde502cd	-0.11182175
60	0x3d0f169c	0.03493367
61	0x3bca830c	0.006180173
62	0xbd3d5485	-0.046223182
63	0xbe71c6ed	-0.2361104
64	0xbdc1cd58	-0.09462994
65	0x3b880d04	0.004151942
66	0xbc7bd097	-0.015369556
67	0x3daa0172	0.08301057
68	0x3defe6ef	0.11713969
69	0x3e0c541e	0.13703963
70	0xbd7a71a1	-0.06114352
71	0xbc2ac64d	-0.010423255
72	0xbd3d5463	-0.046223056
73	0xbd9342c7	-0.07190471
74	0x3dab32ad	0.08359275
75	0xbe2aa30a	-0.16663757
76	0xbebbf708	-0.36711907
77	0x3ea3c2f5	0.31984678
78	0x3d04fc21	0.03246701
79	0xbd21bf81	-0.039489273
80	0xbbc8a114	-0.0061227176
81	0xbea4b69c	-0.3217057
82	0xbe950285	-0.29103485
83	0x3b8b7368	0.004255701
84	0xbc963156	-0.018334072
85	0xbc967f58	-0.01837127
86	0xbd9c5bd7	-0.076347046
87	0xbe83284f	-0.2561669
88	0xbd8935d7	-0.06699722
89	0xbd4b8c25	-0.0496942
90	0xbdcad857	-0.09904545
91	0xbbf5a6c3	-0.007496686
92	0xbb425025	-0.002964982
93	0xbd925431	-0.071449645
94	0xbd449b4a	-0.047999658
95	0x3c44777d	0.011991379
96	0xbda5df03	-0.08099177
97	0xbd8eaa30	-0.069660544
98	0x3d8b1df1	0.0679282
99	0xbe3c7d79	-0.18407239
100	0xbdc30cbe	-0.09523915
101	0xbd645b55	-0.055751164
102	0xbd7b0b92	-0.06129033
103	0xbd585ed4	-0.05282481
104	0xbd41445c	-0.047184333
105	0xbbbb8f08	-0.0057238378
106	0xbd9f79ff	-0.07786941
107	0xbce0a775	-0.0274236
108	0xbda8c96b	-0.082415424
109	0xbe9a1d77	-0.30100605
110	0x3c3cd111	0.011524455
111	0xbd896b6a	-0.06709941
112	0x3e8b7551	0.27237943
113	0x3b44aa16	0.0030008606
114	0x3e0005be	0.1250219
115	0x3ca5b89b	0.020229628
116	0xbdd84149	-0.10559327
117	0x3daa1a9a	0.08305855
118	0xbe77bf13	-0.24193983
119	0xbdd76267	-0.10516816
120	0x3bec6c16	0.0072150333
121	0x3df91308	0.12161833
122	0x3aa0515b	0.0012231277
123	0xbe1b1ea5	-0.15148409
124	0xbbb563df	-0.005535587
125	0x3de21a73	0.11040201
126	0xbd4cfaf2	-0.050044008
127	0x3e76ffc1	0.24121

convs.1.lins.0.weight f4 [128, 64]
0	0xbd8f181c	-0.069870204
1	0x3d49d09b	0.049271207
2	0x3d136302	0.035983093
3	0x3da370f7	0.07980531
4	0xbc7fdf19	-0.0156171555
5	0xbe1c11ad	-0.15241118
6	0xbd92518a	-0.071444586
7	0xbcffa38e	-0.031205919
8	0xbdef7f32	-0.116941825
9	0xbdf7e968	-0.121050656
10	0x3c22f01c	0.009944942
11	0xbdcae43f	-0.09906816
12	0x3c86d6b0	0.016459793
13	0xbc699909	-0.014257678
14	0xbd385b37	-0.045008864
15	0xbc10af25	-0.00883082
16	0x3dbaf2cc	0.09128341
17	0xbdf6bf5e	-0.12048219
18	0xbdbeca4f	-0.09315931
19	0xbd02de5a	-0.031950332
20	0xbdb18c91	-0.08669389
21	0xbd6ffbb0	-0.058589637
22	0x3e05f89d	0.1308312
23	0xbbebd7db	-0.007197363
24	0xbd1b2fca	-0.037887372
25	0x3d722e44	0.059126154
26	0xbdc3b82d	-0.09556613
27	0xbdcda11c	-0.10040495
28	0x3d533e8a	0.051573314
29	0xbce0d282	-0.027444128
30	0xbb5dbe3c	-0.0033835312
31	0xbd9e1a53	-0.07719865
32	0x3dd65abf	0.10466527
33	0x3cb589c9	0.022160428
34	0xbe8af1da	-0.27137643
35	0xbdcbf18d	-0.099581815
36	0x3b73a012	0.0037174267
37	0xbdc00f31	-0.093778975
38	0xbda87a3f	-0.082264416
39	0x3d7569c8	0.059915334
40	0xbd36a3ad	-0.044589687
41	0x3d624e6e	0.055250578
42	0xbd85cf27	-0.06533652
43	0x3d6280a4	0.055298463
44	0xbde5eb04	-0.11226466
45	0xbdcbd7c5	-0.09953264
46	0x3cdcc285	0.026948223
47	0xbd566c77	-0.052349534
48	0xbcd1f4a5	-0.02562935
49	0xbd278b95	-0.0409046
50	0xbd90e9f7	-0.07075875
51	0xbd9dd587	-0.07706743
52	0x3c9df861	0.019283475
53	0x3d85d2f6	0.06534378
54	0x3d457d2a	0.04821507
55	0x3aa74720	0.0012762286
56	0x3d3594b1	0.044331256
57	0x3d2cf2e5	0.04222383
58	0xbcfc602c	-0.030807577
59	0xbd5a8555	-0.05334981
60	0xbd83e90c	-0.064409345
61	0x3c669769	0.014074185
62	0xbbf003a6	-0.0073246537
63	0x3dab5720	0.08366227
64	0xbd56e139	-0.052460883
65	0xbd0e7429	-0.034778748
66	0xbd675ae4	-0.056483164
67	0xbcc5e141	-0.024155261
68	0x3d8901a8	0.06689769
69	0x3e88e747	0.2673895
70	0x3d2d08b9	0.042244647
71	0x3d40a3bc	0.04703115
72	0x3e44072e	0.19143364
73	0x3d9de4f8	0.07709688
74	0xbcb91b8a	-0.02259614
75	0x3e0fa0ce	0.14026186
76	0xbdde23f9	-0.10846705
77	0xbd186295	-0.03720339
78	0xbb40f4e3	-0.002944284
79	0xbd50d71b	-0.05098639
80	0x3e2f9c4a	0.17149463
81	0x3d4a2488	0.049351245
82	0xbe23767e	-0.1596317
83	0xbd56e488	-0.052464038
84	0x3e2e8098	0.17041242
85	0x3dfada44	0.12248662
86	0x3db3eab3	0.08785
87	0x3cb0c94b	0.021580359
88	0xbd1e384e	-0.038627915
89	0xbca3225e	-0.019913848
90	0x3d80ba4b	0.062855326
91	0x3cc5f2c6	0.024163615
92	0xbdca937b	-0.09891411
93	0x3d863dd7	0.06554764
94	0x3e32503e	0.17413422
95	0x3dc0c9cf	0.09413492
96	0x3d881093	0.06643786
97	0xbdb2e84c	-0.08735713
98	0x3e7eecf9	0.24895085
99	0xbd3cdee9	-0.04611102
100	0xbde957dc	-0.11393711
101	0x3d04b25d	0.032396663
102	0x3d9a05c3	0.0752063
103	0xbc689fc2	-0.0141982455
104	0x3de86d9a	0.1134903
105	0xbd0a0f65	-0.033706088
106	0x3ca4fe88	0.020140901
107	0xbd9242f0	-0.071416736
108	0xbd1f9ded	-0.03896897
109	0x3b2fbd4b	0.0026815708
110	0x3c400843	0.01172072
111	0x3e48bf2f	0.19604181
112	0x3d3c0bd0	0.045909703
113	0x3b3bda44	0.0028664032
114	0x3ddf1ef5	0.108945765
115	0x3d8bbabe	0.068227276
116	0xbd7bdf76	-0.061492406
117	0x3e221ac6	0.15830526
118	0x3dc474e8	0.095926106
119	0xbe07e32b	-0.13270251
120	0xbcf39d05	-0.029737959
121	0x3d39a5da	0.045324184
122	0xbd12eb95	-0.0358692
123	0xbcae4070	-0.02127096
124	0xbd584ae2	-0.05280579
125	0xbd5cf7af	-0.053947147
126	0x3cb73fde	0.022369321
127	0x3d5ccb49	0.053904805
128	0xbc83bb51	-0.01608053
129	0xbdc97dfe	-0.09838484
130	0xbc416cf8	-0.011805765
131	0x3e610d1e	0.2197766
132	0xbbaa05a7	-0.005188662
133	0x3d47b57e	0.04875707
134	0xbd278de2	-0.040906794
135	0x3d7262c1	0.05917621
136	0x3df0e83a	0.11763044
137	0x3d9beaae	0.07613121
138	0x3c1c4bfc	0.0095396
139	0x3e1ee4a5	0.15516908
140	0x3baf2832	0.005345368
141	0xbdba84f4	-0.0910739
142	0x3d58dcc2	0.052944906
143	0x3ddb5f8d	0.10711584
144	0x3d86e6f9	0.06587023
145	0x3dc784af	0.09742104
146	0x3cf4366b	0.029811105
147	0x3b65ce11	0.0035065452
148	0x3cf350ca	0.02970161
149	0xbd89bb5d	-0.0672519
150	0xbd73b694	-0.059500292
151	0xbd035ae4	-0.032069102
152	0xbc104d81	-0.008807541
153	0xbdb1457b	-0.086558305
154	0xbd5e3fdc	-0.05426012
155	0x3d8d5ab3	0.06902065
156	0xbd4e5fb3	-0.050384235
157	0xbc0e64f9	-0.008691066
158	0xbcfd5bd9	-0.030927585
159	0x3db25e93	0.08709445
160	0xbdaee8a4	-0.085404664
161	0x3cbfd798	0.023418233
162	0x3e7c5020	0.2463994
163	0xbc350800	-0.011049271
164	0xbd9c62f5	-0.07636062
165	0x3d11f744	0.0356362
166	0xbd280e71	-0.041029397
167	0x3d00add6	0.031415783
168	0xbe0c7ab3	-0.13718681
169	0xbdc1f5f0	-0.09470737
170	0x3d7670da	0.060166217
171	0xbb3c695e	-0.0028749327
172	0x3e035753	0.1282628
173	0x3da465e4	0.080272466
174	0x3d570366	0.052493475
175	0x3e496605	0.19667824
176	0x3d099557	0.033589687
177	0x3d5e32ec	0.05424778
178	0xbda0eedd	-0.078580596
179	0x3d32a89b	0.043617826
180	0x3ca08c93	0.019598281
181	0x3d5da355	0.054110844
182	0xbd778089	-0.060425315
183	0x3e0d58ee	0.13803455
184	0x3d9960c9	0.074891634
185	0x3cfa340a	0.030542392
186	0xbcab3de9	-0.020903545
187	0xbdf17bcd	-0.11791191
188	0x3ce66046	0.028122079
189	0xbce3bbc0	-0.027799487
190	0xbd7b662b	-0.06137673
191	0xbd434a1a	-0.04767809
192	0xbbaf2d01	-0.005345941
193	0x3d4cd443	0.050007116
194	0x3c834ce8	0.016027883
195	0x3e90d183	0.28284845
196	0xbdd5efba	-0.10446115
197	0xbd3a7b34	-0.045527652
198	0xbd368a02	-0.04456521
199	0xbd8eb58e	-0.069682226
200	0x3dc1bf0b	0.09460267
201	0xbdb08784	-0.086195976
202	0xbc94b6b9	-0.018153535
203	0x3d557c6c	0.05212061
204	0x3d0d8a9c	0.034556016
205	0x3c455c68	0.012045957
206	0xbd314948	-0.043282777
207	0x3db618dc	0.0889146
208	0xbe215d56	-0.15758261
209	0xbd8d2c35	-0.068931974
210	0xbd428613	-0.047491144
211	0xbdf1fb9b	-0.11815568
212	0x3d8641f2	0.06555547
213	0xbc49f982	-0.012327554
214	0x3cac1fcd	0.021011258
215	0x3e0d928d	0.13825436
216	0x3be3d55f	0.006952926
217	0xbcad812d	-0.02117976
218	0x3e2a16c5	0.16610248
219	0x3c7a64df	0.015282839
220	0xbc88e5f1	-0.016711207
221	0x3e43f605	0.19136818
222	0x3e631d9d	0.22179265
223	0x3dfeb3c6	0.12436633
224	0xbcb3e20f	-0.02195838
225	0x3dd0bb32	0.10191955
226	0x3e3d649f	0.18495415
227	0xbc04468a	-0.008073458
228	0xbdce1532	-0.100626364
229	0xbce95e7b	-0.028487435
230	0xbce91886	-0.028454076
231	0x3dad1586	0.08451371
232	0xbb63c3f5	-0.003475425
233	0x3dbb74e6	0.09153156
234	0xbc987f9f	-0.018615542
235	0x3cf82a7e	0.0302937
236	0xbc98b07a	-0.018638838
237	0x3d7a2d16	0.061078154
238	0x3c02da27	0.007986582
239	0x3d4a213d	0.049348105
240	0xbcdc1bde	-0.026868757
241	0x3cd47832	0.02593622
242	0xbd02a4f4	-0.031895593
243	0x3daa42c9	0.083135195
244	0x3d82a44b	0.06378993
245	0x3d946126	0.07245092
246	0x3e14f5e9	0.14546932
247	0x3db6662e	0.08906208
248	0xbc3d0d6e	-0.011538846
249	0x3c8d456a	0.017245013
250	0x3d8b4159	0.067995735
251	0xbd7b5ece	-0.06136971
252	0x3d9cfd85	0.076655425
253	0xbdd817a1	-0.10551382
254	0xbd31e9f7	-0.043436017
255	0x3d390192	0.045167513

convs.2.lins.0.weight f4 [1, 128]
0	0xbe1a8456	-0.15089545
1	0x3ff614d7	1.922511
2	0x3fbbefee	1.4682596
3	0x3fc06ae9	1.5032626
4	0x3fff4fde	1.9946249
5	0x3fb4903a	1.4106514
6	0xbe9d6a3a	-0.30745107
7	0x3fc78681	1.5587922
8	0xbe99cb1d	-0.30037776
9	0xbd6813af	-0.056659397
10	0xbf4985a5	-0.7871955
11	0x3fbbc229	1.4668628
12	0xbea422c6	-0.3205778
13	0xbdbacf73	-0.09121599
14	0x3fb64193	1.4238762
15	0xbf456dbc	-0.77120566
16	0x3c1addbd	0.009452281
17	0xbebf5034	-0.37365878
18	0xbdb1a6e4	-0.0867441
19	0x3fb6faa1	1.4295236
20	0x3fbe7e6c	1.4882331
21	0x3bbede9c	0.005824877
22	0xbf204672	-0.6260749
23	0x3ff93aba	1.9471047
24	0x3ff11cef	1.8836955
25	0xbe0f99e2	-0.14023545
26	0xbdf3c42d	-0.11902652
27	0xbe456b88	-0.19279301
28	0xbf38028f	-0.71878904
29	0x3fc49b67	1.5359925
30	0x3fb74221	1.4317056
31	0x3fb7ef09	1.4369823
32	0x3fc02b1b	1.5013155
33	0xbf2ad9bf	-0.66738504
34	0xbddc2e76	-0.10751049
35	0x3d7cca5b	0.06171642
36	0xbe82ed18	-0.25571513
37	0x3fc6c59d	1.5529057
38	0x3fbbaa11	1.4661275
39	0xbd9e0d62	-0.07717396
40	0xbcd7e7db	-0.026355674
41	0xbeeb7e03	-0.45994577
42	0xbc6c8949	-0.014437028
43	0x3ffa95f5	1.9577013
44	0x3fb74761	1.4318658
45	0xbe517af1	-0.20457055
46	0x3fbba0d0	1.4658451
47	0xbe569a78	-0.20957363
48	0xbc31ad3f	-0.010844528
49	0xbe29f63b	-0.16597836
50	0xbeee07fe	-0.46490473
51	0x3fb679a7	1.4255875
52	0xbf4ea8f1	-0.80726534
53	0xbe809c73	-0.2511936
54	0xbe29bb02	-0.16575244
55	0xbd7ef57b	-0.062245827
56	0x40020dc5	2.0320904
57	0x3fc05c81	1.502823
58	0x3fff6b28	1.9954576
59	0xbf3df2aa	-0.741984
60	0xbf427354	-0.75957227
61	0x3fec0cf4	1.8441453
62	0xbdc401c2	-0.09570648
63	0xbf4c61df	-0.7983684
64	0xbedbd4db	-0.42935833
65	0xbd874977	-0.06605809
66	0xbe9eb719	-0.30999067
67	0xbe1d4eed	-0.15362139
68	0x3fccf25c	1.6011462
69	0x3fb3fe3d	1.4061962
70	0xbd823b82	-0.063590065
71	0x3fbac78c	1.4592147
72	0xbefc1302	-0.49233252
73	0xbe73ef0c	-0.23821658
74	0x3ff55477	1.9166402
75	0xbf60d947	-0.8783154
76	0xbeb021c9	-0.34400776
77	0xbf3f39e4	-0.7469771
78	0x3fb54f09	1.4164745
79	0xbe81d348	-0.25356507
80	0xbefe7324	-0.4969722
81	0xbce56b75	-0.028005341
82	0xbf38ee75	-0.72238857
83	0x3fc69093	1.551287
84	0x3fb828f9	1.4387504
85	0x3fc39186	1.5278785
86	0xbdabecf8	-0.083948076
87	0xbe7f0c0c	-0.2490694
88	0xbe2c7f59	-0.16845454
89	0xbe8ef324	-0.27919877
90	0xbd9be0bc	-0.07611224
91	0x3fc0098f	1.5002917
92	0x3fb656f5	1.4245287
93	0xbd568736	-0.05237504
94	0xbdf12f4e	-0.11776601
95	0x3fbe556d	1.486982
96	0xbde2a657	-0.11066883
97	0xbe855166	-0.26038665
98	0x3ffab485	1.958634
99	0xbe2b7efb	-0.16747658
100	0xbeb524df	-0.35379693
101	0xbd19d3c0	-0.037555456
102	0xbe2f0119	-0.17090262
103	0xbeb6310f	-0.35584304
104	0xbece435d	-0.4028577
105	0xbea586bc	-0.32329357
106	0x3fc36232	1.5264342
107	0xbd1add28	-0.037808567
108	0xbe56b47f	-0.20967291
109	0xbf302085	-0.6879962
110	0x3fb29109	1.3950511
111	0xbd20fb0e	-0.039301924
112	0xbf4ca9f1	-0.7994681
113	0xbe6e6611	-0.23281123
114	0xbf2c31ec	-0.67263675
115	0xbb3535b7	-0.0027650425
116	0x3b1377f7	0.0022501925
117	0x3fb4266c	1.4074225
118	0x3c1cdf78	0.0095747635
119	0x3fcb04d1	1.5860845
120	0x3fb41c64	1.4071164
121	0xbe50654c	-0.20351142
122	0xbe95048c	-0.29105031
123	0x3fb7d573	1.4362015
124	0x3fc4605e	1.5341909
125	0xbf497048	-0.7868695
126	0x3fbbb6ab	1.4665121
127	0xbf4644d9	-0.77448803

batchnorm.0.module.weight f4 [118]
0	0x3f52807c	0.822273
1	0x3f800000	1.0
2	0x3f800000	1.0
3	0x3f2a2770	0.66466427
4	0x3f800000	1.0
5	0x3f2c4bb9	0.67303044
6	0x3f800000	1.0
7	0x3f23f090	0.64038944
8	0x3f800000	1.0
9	0x3f8b032b	1.0860342
10	0x3f800000	1.0
11	0x3f14ded6	0.5815252
12	0x3f800000	1.0
13	0x3f800000	1.0
14	0x3f4fce03	0.81173724
15	0x3f800000	1.0
16	0x3f800000	1.0
17	0x3f368346	0.7129406
18	0x3eb4cfe9	0.35314873
19	0x3f800000	1.0
20	0x3f800000	1.0
21	0x3f800000	1.0
22	0x3f800000	1.0
23	0x3f20ceeb	0.6281573
24	0x3f2f7d90	0.6855097
25	0x3f540d10	0.8283243
26	0x3f8e3348	1.11094
27	0x3f800000	1.0
28	0x3f800000	1.0
29	0x3f800000	1.0
30	0x3b5eb982	0.0033985083
31	0x3f5d11e4	0.86355424
32	0x3f800000	1.0
33	0x3f407f18	0.7519393
34	0x3f800000	1.0
35	0x3f133d8a	0.57515776
36	0x3f800000	1.0
37	0x3f800000	1.0
38	0x3f800000	1.0
39	0x3f487380	0.7830124
40	0x3f800000	1.0
41	0x3f9af43c	1.2105784
42	0x3f800000	1.0
43	0x3f800000	1.0
44	0x3f800000	1.0
45	0x3c5eb69b	0.013593341
46	0x3f800000	1.0
47	0x3f800000	1.0
48	0x3f1c3812	0.61023057
49	0x3f800000	1.0
50	0x3f800000	1.0
51	0x3f800000	1.0
52	0x3f800000	1.0
53	0x3ee365cd	0.44413605
54	0x3f642b24	0.8912833
55	0x3f14e2e5	0.58158714
56	0x3f800000	1.0
57	0x3f800000	1.0
58	0x3f3c82f1	0.736373
59	0x3f800000	1.0
60	0x3f1f3fe3	0.6220686
61	0x3f2693cb	0.65069264
62	0x3f800000	1.0
63	0x3f800000	1.0
64	0x3f7ebb95	0.9950498
65	0x3ea47413	0.32119808
66	0x3f800000	1.0
67	0x3f800000	1.0
68	0x3f923777	1.1423177
69	0x3f1e735b	0.6189477
70	0x3f800000	1.0
71	0x3f1c70e8	0.6110978
72	0x3f13a1e9	0.5766893
73	0x3f98fbfc	1.19519
74	0x3f800000	1.0
75	0x3f949e75	1.1610857
76	0x3f28af0f	0.6589212
77	0x3f800000	1.0
78	0x3f800000	1.0
79	0x3e4fcc3e	0.20292756
80	0x3f800000	1.0
81	0x3f800000	1.0
82	0x3f800000	1.0
83	0x3f800000	1.0
84	0x3f269e93	0.65085715
85	0x3f800000	1.0
86	0x3eab7e10	0.33494616
87	0x3f800000	1.0
88	0x3f86440e	1.0489519
89	0x3f28d85d	0.65955144
90	0x3f20e7f9	0.6285396
91	0x3f294869	0.66126114
92	0x3f800000	1.0
93	0x3f800000	1.0
94	0x3f800000	1.0
95	0x3f800000	1.0
96	0x3f800000	1.0
97	0x3f800000	1.0
98	0x3f20f475	0.6287301
99	0x3f10e63b	0.56601304
100	0x3f800000	1.0
101	0x3f800000	1.0
102	0x3ec48800	0.3838501
103	0x3f0747fe	0.52844226
104	0x3f4cb829	0.79968506
105	0x3f800000	1.0
106	0x3f580597	0.8438353
107	0x3f800000	1.0
108	0x3f800000	1.0
109	0x3f7ef741	0.9959603
110	0x3ec600b1	0.38672403
111	0x3f8da9b2	1.1067412
112	0x3f2065ae	0.6265515
113	0x3f800000	1.0
114	0x3f800000	1.0
115	0x3f20a841	0.62756735
116	0x3f800000	1.0
117	0x3f800000	1.0

batchnorm.0.module.bias f4 [118]
0	0xbcc51e73	-0.02406237
1	0x00000000	0.0
2	0x00000000	0.0
3	0xbed9f970	-0.42573118
4	0x00000000	0.0
5	0xbd5f1af8	-0.05446908
6	0x00000000	0.0
7	0xbed15ff1	-0.4089351
8	0x00000000	0.0
9	0xbd5518b7	-0.052025523
10	0x00000000	0.0
11	0x3d9ab456	0.075539276
12	0x00000000	0.0
13	0x00000000	0.0
14	0xbcc3283d	-0.023822898
15	0x00000000	0.0
16	0x00000000	0.0
17	0xbca00ca0	-0.01953727
18	0xbd27ecad	-0.040997196
19	0x00000000	0.0
20	0x00000000	0.0
21	0x00000000	0.0
22	0x00000000	0.0
23	0xbed13a85	-0.4086496
24	0xbf16058c	-0.58602214
25	0xbe30c8ea	-0.17264143
26	0xbd6284d3	-0.055302452
27	0x00000000	0.0
28	0x00000000	0.0
29	0x00000000	0.0
30	0xbab07f6a	-0.0013465707
31	0xbcc5414d	-0.02407899
32	0x00000000	0.0
33	0x3bccd90b	0.0062514595
34	0x00000000	0.0
35	0x3ce63456	0.028101128
36	0x00000000	0.0
37	0x00000000	0.0
38	0x00000000	0.0
39	0xbba16d52	-0.004926362
40	0x00000000	0.0
41	0xbd67ef4e	-0.056624703
42	0x00000000	0.0
43	0x00000000	0.0
44	0x00000000	0.0
45	0xbad71d03	-0.0016411844
46	0x00000000	0.0
47	0x00000000	0.0
48	0x3e1dfcfc	0.15428537
49	0x00000000	0.0
50	0x00000000	0.0
51	0x00000000	0.0
52	0x00000000	0.0
53	0x3d4b1187	0.049577262
54	0xbb85052b	-0.004059454
55	0xbc7a87dc	-0.01529118
56	0x00000000	0.0
57	0x00000000	0.0
58	0x3e02b5dc	0.12764686
59	0x00000000	0.0
60	0xbf1e8bd5	-0.61932117
61	0xbedcd858	-0.43133807
62	0x00000000	0.0
63	0x00000000	0.0
64	0xbddba678	-0.10725111
65	0x3eb14f6c	0.34630907
66	0x00000000	0.0
67	0x00000000	0.0
68	0x3d9b758d	0.075907804
69	0xbeb9e1a5	-0.36304966
70	0x00000000	0.0
71	0xbeccdce9	-0.4001229
72	0xbeacc95b	-0.33747372
73	0xbd3d5dda	-0.046232082
74	0x00000000	0.0
75	0xbd611993	-0.05495603
76	0xbed922df	-0.42409417
77	0x00000000	0.0
78	0x00000000	0.0
79	0x3f1bd431	0.60870653
80	0x00000000	0.0
81	0x00000000	0.0
82	0x00000000	0.0
83	0x00000000	0.0
84	0xbed9e17c	-0.42554843
85	0x00000000	0.0
86	0x3f069439	0.5256992
87	0x00000000	0.0
88	0x3e73e442	0.23817542
89	0xbed87604	-0.4227754
90	0xbed20f09	-0.41027096
91	0xbedc6dc8	-0.43052506
92	0x00000000	0.0
93	0x00000000	0.0
94	0x00000000	0.0
95	0x00000000	0.0
96	0x00000000	0.0
97	0x00000000	0.0
98	0xbed2fa85	-0.41206756
99	0x3e412005	0.1885987
100	0x00000000	0.0
101	0x00000000	0.0
102	0x3d4bae34	0.04972668
103	0xbe94500b	-0.28967318
104	0x3d0a98c8	0.03383711
105	0x00000000	0.0
106	0xbcff5f49	-0.031173365
107	0x00000000	0.0
108	0x00000000	0.0
109	0xbc207946	-0.009794539
110	0xbf0c1184	-0.54714227
111	0xbd553072	-0.052048154
112	0xbed219fc	-0.4103545
113	0x00000000	0.0
114	0x00000000	0.0
115	0xbed2ff3b	-0.4121035
116	0x00000000	0.0
117	0x00000000	0.0

batchnorm.0.module.running_mean f4 [118]
0	0xbc9275d1	-0.017878445
1	0xbc93478f	-0.017978458
2	0xbc93ea36	-0.018056016
3	0xbc942f85	-0.018089065
4	0xbc937ad6	-0.018002909
5	0xbc929182	-0.01789165
6	0xbc9328a7	-0.01796372
7	0xbc92611a	-0.017868567
8	0xbc937ad6	-0.018002909
9	0xbc937ad6	-0.018002909
10	0xbc937766	-0.01800127
11	0xbc941847	-0.018077983
12	0xbc937f51	-0.018005045
13	0xbc93fe18	-0.018065497
14	0xbc91f0c9	-0.01781501
15	0xbc92ff4f	-0.017944006
16	0xbc93be5f	-0.018035112
17	0xbc936f71	-0.017997475
18	0xbc94becd	-0.018157387
19	0xbc93a342	-0.018022183
20	0xbc93a63c	-0.018023603
21	0xbc93e0f4	-0.018051602
22	0xbc94146d	-0.018076146
23	0xbc931c20	-0.017957747
24	0xbc937ad6	-0.018002909
25	0xbc937ad6	-0.018002909
26	0xbc93f392	-0.01806048
27	0xbc93444b	-0.0179769
28	0xbc93a697	-0.018023772
29	0xbc937ad6	-0.018002909
30	0xbc920587	-0.017824901
31	0xbc92dba7	-0.017927004
32	0xbc93bf43	-0.018035537
33	0xbc9384c0	-0.018007636
34	0xbc930f06	-0.0179515
35	0xbc93e44a	-0.018053193
36	0xbc937ad6	-0.018002909
37	0xbc937ad6	-0.018002909
38	0xbc93298e	-0.01796415
39	0xbc92e1c5	-0.01792992
40	0xbc945a67	-0.018109513
41	0xbc944065	-0.018097112
42	0xbc9331ca	-0.017968077
43	0xbc929bfa	-0.017896641
44	0xbc934dce	-0.017981436
45	0xbc93a6ba	-0.018023837
46	0xbc934a68	-0.017979816
47	0xbc93d2b8	-0.018044814
48	0xbc937f5e	-0.01800507
49	0xbc92b32d	-0.017907703
50	0xbc933286	-0.017968427
51	0xbc93869c	-0.018008523
52	0xbc948614	-0.01813034
53	0xbc93b7d6	-0.018031996
54	0xbc930aba	-0.01794945
55	0xbc942d14	-0.018087901
56	0xbc934e68	-0.017981723
57	0xbc93e2d6	-0.0180525
58	0xbc938313	-0.018006837
59	0xbc92c8ee	-0.017918076
60	0xbc937ad6	-0.018002909
61	0xbc9372f9	-0.01799916
62	0xbc937ad6	-0.018002909
63	0xbc937ad6	-0.018002909
64	0xbc937ad6	-0.018002909
65	0xbc9374fa	-0.018000115
66	0xbc92e144	-0.01792968
67	0xbc937ad6	-0.018002909
68	0xbc937ad6	-0.018002909
69	0xbc93dc69	-0.018049436
70	0xbc937ad6	-0.018002909
71	0xbc929ffa	-0.017898548
72	0xbc93a6ed	-0.018023932
73	0xbc941c89	-0.018080013
74	0xbc934828	-0.017978743
75	0xbc94b043	-0.018150454
76	0xbc937bf7	-0.018003447
77	0xbc9362b1	-0.017991396
78	0xbc92f534	-0.017939188
79	0xbc92ee04	-0.01793576
80	0xbc937ad6	-0.018002909
81	0xbc9394e2	-0.018015329
82	0xbc93b225	-0.018029282
83	0xbc93457b	-0.017977467
84	0xbc936787	-0.017993702
85	0xbc9360f6	-0.01799057
86	0xbc937ad6	-0.018002909
87	0xbc9490ae	-0.018135395
88	0xbc937ad6	-0.018002909
89	0xbc92f3c9	-0.017938511
90	0xbc93c596	-0.018038552
91	0xbc9407b6	-0.018070083
92	0xbc9389de	-0.018010076
93	0xbc9464eb	-0.018114528
94	0xbc9402c4	-0.018067725
95	0xbc93343e	-0.017969247
96	0xbc93898b	-0.018009922
97	0xbc92fa7e	-0.01794171
98	0xbc93749b	-0.017999938
99	0xbc9293ed	-0.017892802
100	0xbc933f6c	-0.017974578
101	0xbc925308	-0.017861858
102	0xbc9374d3	-0.018000042
103	0xbc943643	-0.01809228
104	0xbc93d33b	-0.018045058
105	0xbc9328a5	-0.017963717
106	0xbc956796	-0.01823787
107	0xbc939b75	-0.018018464
108	0xbc9225b3	-0.017840242
109	0xbc93aa50	-0.018025547
110	0xbc937ad6	-0.018002909
111	0xbc93a34a	-0.018022198
112	0xbc9375a7	-0.018000437
113	0xbc929a42	-0.017895821
114	0xbc932057	-0.017959757
115	0xbc9431bd	-0.018090123
116	0xbc911e17	-0.017714543
117	0xbc938a72	-0.018010352

batchnorm.0.module.running_var f4 [118]
0	0x3eb98d5a	0.36240655
1	0x3ebbcc95	0.3667952
2	0x3eba1c22	0.3634959
3	0x3eb65be5	0.35616985
4	0x3a73b4cd	0.0009296656
5	0x3ebccd38	0.3687532
6	0x3eb53ce8	0.3539803
7	0x3e2d7dc1	0.16942503
8	0x3a73b4cd	0.0009296656
9	0x3a73b4cd	0.0009296656
10	0x3eb82e5f	0.35972878
11	0x3eb563b4	0.3542763
12	0x3eb664fc	0.3562392
13	0x3ebc5a78	0.36787772
14	0x3eb753f6	0.35806245
15	0x3eb70aac	0.3575033
16	0x3eb4d2a9	0.3531697
17	0x3eb80375	0.35940138
18	0x3eb8021e	0.35939115
19	0x3ebd1545	0.3693029
20	0x3eb86598	0.3601501
21	0x3eb72e75	0.3577763
22	0x3eba229d	0.36354533
23	0x3e32f366	0.17475662
24	0x3a73b4cd	0.0009296656
25	0x3a73b4cd	0.0009296656
26	0x3ebae822	0.36505228
27	0x3ebbe45c	0.36697662
28	0x3ebaacc5	0.36459938
29	0x3a73b4cd	0.0009296656
30	0x3eb2b281	0.34901813
31	0x3eb74bb2	0.35799938
32	0x3eb7c45d	0.35892
33	0x3eb72893	0.35773143
34	0x3eb75766	0.35808867
35	0x3eb8dad1	0.36104444
36	0x3a73b4cd	0.0009296656
37	0x3a73b4cd	0.0009296656
38	0x3ebe3eaf	0.371572
39	0x3eb6d56e	0.3570971
40	0x3ebaf8c5	0.3651792
41	0x3ebbe097	0.36694786
42	0x3ebd4a41	0.36970714
43	0x3eb5d0eb	0.35510954
44	0x3eb7ac25	0.35873523
45	0x3eb9aacb	0.36263117
46	0x3e2d8384	0.169447
47	0x3eb98b9f	0.36239335
48	0x3eb38f7a	0.350704
49	0x3ebc4272	0.36769444
50	0x3eb7b024	0.35876572
51	0x3ebb2a6b	0.365558
52	0x3eb8e7f5	0.3611447
53	0x3eb63e42	0.35594374
54	0x3ebee892	0.37286812
55	0x3eb7516c	0.35804307
56	0x3eb72b6b	0.35775313
57	0x3eb64ed1	0.35607007
58	0x3eb6c814	0.35699522
59	0x3ebe67d1	0.3718858
60	0x3a73b4cd	0.0009296656
61	0x3eb229a2	0.34797388
62	0x3a73b4cd	0.0009296656
63	0x3a73b4cd	0.0009296656
64	0x3a73b4cd	0.0009296656
65	0x3ebba241	0.36647227
66	0x3ebc5f19	0.36791304
67	0x3a73b4cd	0.0009296656
68	0x3a73b4cd	0.0009296656
69	0x3eb435c8	0.35197282
70	0x3a73b4cd	0.0009296656
71	0x3e343ec2	0.17602065
72	0x3e2d97b3	0.169524
73	0x3eb39baa	0.350797
74	0x3eb36e6f	0.35045192
75	0x3eba97f8	0.36444068
76	0x3eb8c424	0.36087143
77	0x3ebaf55f	0.36515328
78	0x3ebbd59d	0.36686411
79	0x3eb49df0	0.35276747
80	0x3a73b4cd	0.0009296656
81	0x3eb9ec9e	0.36313337
82	0x3ebaf252	0.36513
83	0x3eb927b2	0.36163098
84	0x3eb9e994	0.36311018
85	0x3eb70629	0.35746887
86	0x3a73b4cd	0.0009296656
87	0x3eb91e62	0.36155993
88	0x3a73b4cd	0.0009296656
89	0x3ebc333f	0.36757848
90	0x3e34a8f9	0.17642583
91	0x3eba2fec	0.36364686
92	0x3eb76849	0.3582175
93	0x3eb3d3c1	0.35122493
94	0x3ebcd147	0.36878416
95	0x3eb952b5	0.36195913
96	0x3ebb963d	0.3663806
97	0x3ebb42a4	0.3657428
98	0x3e2e978a	0.17049995
99	0x3eb9d722	0.36296946
100	0x3ebeca39	0.3726366
101	0x3eb76fa3	0.3582736
102	0x3ebb07db	0.3652943
103	0x3eb93187	0.361706
104	0x3eb7b462	0.3587981
105	0x3eb71456	0.35757703
106	0x3eb75229	0.3580487
107	0x3ebddc32	0.37082058
108	0x3ebbc152	0.3667093
109	0x3eb4d39b	0.35317692
110	0x3a73b4cd	0.0009296656
111	0x3eb58ffa	0.35461408
112	0x3e2ca905	0.16861351
113	0x3ebb8897	0.36627647
114	0x3eb58c5c	0.35458648
115	0x3e2dde22	0.16979268
116	0x3ebbcafb	0.366783
117	0x3ebb7c95	0.36618486

batchnorm.1.module.weight f4 [118]
0	0x3f89fe50	1.0780735
1	0x3f800000	1.0
2	0x3f800000	1.0
3	0x3f1cb889	0.6121908
4	0x3f800000	1.0
5	0x3f339876	0.7015451
6	0x3f800000	1.0
7	0x3f222a7d	0.6334608
8	0x3f800000	1.0
9	0x4030b834	2.7612429
10	0x3f800000	1.0
11	0x3fb16988	1.386033
12	0x3f800000	1.0
13	0x3f800000	1.0
14	0x3f75d437	0.9602694
15	0x3f800000	1.0
16	0x3f800000	1.0
17	0x3f53c955	0.82729083
18	0x3f6c6817	0.9234633
19	0x3f800000	1.0
20	0x3f800000	1.0
21	0x3f800000	1.0
22	0x3f800000	1.0
23	0x3f21c4a0	0.6319065
24	0x3fe102d3	1.7578987
25	0x400580c0	2.0859833
26	0x3f77b12c	0.9675472
27	0x3f800000	1.0
28	0x3f800000	1.0
29	0x3f800000	1.0
30	0x3f1f9801	0.62341315
31	0x3f6712d7	0.9026312
32	0x3f800000	1.0
33	0x3f2b4f16	0.6691755
34	0x3f800000	1.0
35	0x3f2eb75f	0.6824855
36	0x3f800000	1.0
37	0x3f800000	1.0
38	0x3f800000	1.0
39	0x3fa61430	1.2974911
40	0x3f800000	1.0
41	0x3fb79535	1.4342409
42	0x3f800000	1.0
43	0x3f800000	1.0
44	0x3f800000	1.0
45	0x3f4cb168	0.799582
46	0x3f800000	1.0
47	0x3f800000	1.0
48	0x4000379e	2.0033946
49	0x3f800000	1.0
50	0x3f800000	1.0
51	0x3f800000	1.0
52	0x3f800000	1.0
53	0x3f8b5746	1.0886009
54	0x3f8f9bf1	1.1219465
55	0x3f8c0094	1.0937676
56	0x3f800000	1.0
57	0x3f800000	1.0
58	0x3fe7943d	1.8092114
59	0x3f800000	1.0
60	0x3fc954e2	1.5729029
61	0x3f1ba47b	0.6079785
62	0x3f800000	1.0
63	0x3f800000	1.0
64	0x401ecac3	2.4811256
65	0x40227fbd	2.5390465
66	0x3f800000	1.0
67	0x3f800000	1.0
68	0x4042a3ec	3.041255
69	0x3f218221	0.63089186
70	0x3f800000	1.0
71	0x3f211a75	0.62930995
72	0x3f19efcd	0.6013153
73	0x3f8fac36	1.122443
74	0x3f800000	1.0
75	0x3f9d08be	1.2268293
76	0x3f1c801b	0.61132973
77	0x3f800000	1.0
78	0x3f800000	1.0
79	0x403d9076	2.9619422
80	0x3f800000	1.0
81	0x3f800000	1.0
82	0x3f800000	1.0
83	0x3f800000	1.0
84	0x3f1c3cbe	0.61030185
85	0x3f800000	1.0
86	0x3ed02e30	0.40660238
87	0x3f800000	1.0
88	0x4054e5a4	3.3265162
89	0x3f1cc9d1	0.6124545
90	0x3f2106b9	0.6290088
91	0x3f1c210b	0.6098792
92	0x3f800000	1.0
93	0x3f800000	1.0
94	0x3f800000	1.0
95	0x3f800000	1.0
96	0x3f800000	1.0
97	0x3f800000	1.0
98	0x3f216b25	0.63054115
99	0x40098e4e	2.1493106
100	0x3f800000	1.0
101	0x3f800000	1.0
102	0x3f6e8f76	0.93187654
103	0x3f26d478	0.6516795
104	0x3f2b0da0	0.66817665
105	0x3f800000	1.0
106	0x3f8ed650	1.1159153
107	0x3f800000	1.0
108	0x3f800000	1.0
109	0x3f42a364	0.76030564
110	0x3f80e2c1	1.00692
111	0x3fabd9a6	1.3425796
112	0x3f216ccc	0.63056636
113	0x3f800000	1.0
114	0x3f800000	1.0
115	0x3f212cda	0.62959063
116	0x3f800000	1.0
117	0x3f800000	1.0

batchnorm.1.module.bias f4 [118]
0	0x3d9d3d2a	0.07677682
1	0x00000000	0.0
2	0x00000000	0.0
3	0xbec662ee	-0.38747352
4	0x00000000	0.0
5	0xbe8ac2cd	-0.27101746
6	0x00000000	0.0
7	0xbeca45c2	-0.39506346
8	0x00000000	0.0
9	0x3fe8c6ce	1.818567
10	0x00000000	0.0
11	0x3eb2cfba	0.34924108
12	0x00000000	0.0
13	0x00000000	0.0
14	0x3cca64dd	0.024706298
15	0x00000000	0.0
16	0x00000000	0.0
17	0xbdb1571d	-0.08659194
18	0x3d7c5482	0.06160403
19	0x00000000	0.0
20	0x00000000	0.0
21	0x00000000	0.0
22	0x00000000	0.0
23	0xbecaca54	-0.3960749
24	0x3f362a56	0.7115835
25	0x3f88ceeb	1.0688146
26	0xbde219e1	-0.11040092
27	0x00000000	0.0
28	0x00000000	0.0
29	0x00000000	0.0
30	0xbe97a151	-0.29615262
31	0xbd85a814	-0.06526199
32	0x00000000	0.0
33	0xbe8d3e64	-0.27586663
34	0x00000000	0.0
35	0xbe6fef6e	-0.23431179
36	0x00000000	0.0
37	0x00000000	0.0
38	0x00000000	0.0
39	0x3ea5cf17	0.3238456
40	0x00000000	0.0
41	0x3ea755d3	0.32682666
42	0x00000000	0.0
43	0x00000000	0.0
44	0x00000000	0.0
45	0xbdbeadfd	-0.093105294
46	0x00000000	0.0
47	0x00000000	0.0
48	0x3f801c75	1.0008684
49	0x00000000	0.0
50	0x00000000	0.0
51	0x00000000	0.0
52	0x00000000	0.0
53	0x3d672ee5	0.056441206
54	0x3dbea27a	0.09308334
55	0x3e1fd0c9	0.15606989
56	0x00000000	0.0
57	0x00000000	0.0
58	0x3f536cb7	0.8258776
59	0x00000000	0.0
60	0x3f089946	0.53358877
61	0xbec87786	-0.3915369
62	0x00000000	0.0
63	0x00000000	0.0
64	0x3fc19ffd	1.512695
65	0x3fc52b42	1.5403826
66	0x00000000	0.0
67	0x00000000	0.0
68	0x40076c30	2.1159782
69	0xbec21c7d	-0.3791236
70	0x00000000	0.0
71	0xbec9c265	-0.39406124
72	0xbeb78f84	-0.3585168
73	0xbc91b6dd	-0.017787391
74	0x00000000	0.0
75	0x3dadbf66	0.08483772
76	0xbec6891b	-0.38776478
77	0x00000000	0.0
78	0x00000000	0.0
79	0x3ffb4ba3	1.9632457
80	0x00000000	0.0
81	0x00000000	0.0
82	0x00000000	0.0
83	0x00000000	0.0
84	0xbec74126	-0.38916892
85	0x00000000	0.0
86	0xbf18ad45	-0.5963939
87	0x00000000	0.0
88	0x401a5596	2.4114738
89	0xbec68f40	-0.38781166
90	0xbecb3909	-0.39691952
91	0xbec6d97f	-0.3883781
92	0x00000000	0.0
93	0x00000000	0.0
94	0x00000000	0.0
95	0x00000000	0.0
96	0x00000000	0.0
97	0x00000000	0.0
98	0xbecb6bcc	-0.3973068
99	0x3f92bb80	1.146347
100	0x00000000	0.0
101	0x00000000	0.0
102	0xbd50cc16	-0.05097588
103	0xbeb6b37f	-0.3568382
104	0xbe9a5837	-0.30145428
105	0x00000000	0.0
106	0x3e1f2028	0.1553961
107	0x00000000	0.0
108	0x00000000	0.0
109	0xbe480a26	-0.19535121
110	0x3c0c869b	0.008577014
111	0x3e895477	0.26822254
112	0xbecaa5ca	-0.39579612
113	0x00000000	0.0
114	0x00000000	0.0
115	0xbecb71c7	-0.39735243
116	0x00000000	0.0
117	0x00000000	0.0

batchnorm.1.module.running_mean f4 [118]
0	0xbdb0f377	-0.08640187
1	0xbde8d8c0	-0.11369467
2	0xbde95f74	-0.11395159
3	0xbd1d22b2	-0.038363166
4	0xbf2c5abf	-0.6732597
5	0xbd81ae68	-0.063320935
6	0xbdeacb3f	-0.11464547
7	0xbd2a260b	-0.041540187
8	0xbf2c5abf	-0.6732597
9	0xbf30d915	-0.6908124
10	0xbdeab06f	-0.11459433
11	0xbdf1d84e	-0.11808835
12	0xbde94fc8	-0.1139217
13	0xbde805c6	-0.11329226
14	0xbdb19a0e	-0.08671962
15	0xbdec2b71	-0.11531723
16	0xbde9fa6f	-0.114247195
17	0xbda1f5a2	-0.07908179
18	0xbd2b48e1	-0.04181755
19	0xbde90f1b	-0.11379834
20	0xbde95562	-0.113932386
21	0xbde871c3	-0.11349823
22	0xbde7e7d9	-0.11323518
23	0xbd25b1ac	-0.040452644
24	0xbe1717f0	-0.14755225
25	0xbee179f4	-0.44038355
26	0xbdc94d75	-0.09829227
27	0xbde9068f	-0.11378204
28	0xbde91177	-0.11380284
29	0xbf2c5abf	-0.6732597
30	0xbcbbbf26	-0.022918295
31	0xbdba3ee7	-0.09094029
32	0xbdea64c0	-0.11444998
33	0xbdc35817	-0.09538286
34	0xbdeb7ff8	-0.114990175
35	0xbdb8d9aa	-0.09025891
36	0xbf2c5abf	-0.6732597
37	0xbf2c5abf	-0.6732597
38	0xbdea5b81	-0.11443234
39	0xbdbcea53	-0.09224381
40	0xbde9c7da	-0.11415072
41	0xbdd7fab2	-0.10545863
42	0xbde8d247	-0.11368232
43	0xbdeb9aa5	-0.115041055
44	0xbde94539	-0.11390156
45	0xbcc07deb	-0.023497542
46	0xbe05733e	-0.13032243
47	0xbde88762	-0.11353947
48	0xbe2ac500	-0.16676712
49	0xbdea6afb	-0.11446186
50	0xbde983dc	-0.11402103
51	0xbdea5801	-0.11442567
52	0xbde85533	-0.113443755
53	0xbdba47b4	-0.090957075
54	0xbdcf9ad9	-0.10136957
55	0xbd8b56b5	-0.068036474
56	0xbde9edca	-0.11422308
57	0xbdea80ef	-0.114503734
58	0xbe264b96	-0.16239771
59	0xbde99adc	-0.1140649
60	0xbdd1ac2a	-0.10237916
61	0xbd19b098	-0.03752193
62	0xbf2c5abf	-0.6732597
63	0xbf2c5abf	-0.6732597
64	0xbf17aeec	-0.59251285
65	0xbe882659	-0.26591757
66	0xbde93982	-0.11387922
67	0xbf2c5abf	-0.6732597
68	0xbf5254a7	-0.8216042
69	0xbd1c1c22	-0.038112767
70	0xbf2c5abf	-0.6732597
71	0xbd246f6a	-0.040145315
72	0xbd24a4a8	-0.04019609
73	0xbddfc68d	-0.109265424
74	0xbdeb8c44	-0.11501363
75	0xbdd2212f	-0.102602355
76	0xbd1cca3a	-0.038278796
77	0xbde985ff	-0.11402511
78	0xbdeb62cc	-0.114934534
79	0xbedcf89a	-0.43158418
80	0xbf2c5abf	-0.6732597
81	0xbdea6562	-0.114451185
82	0xbde88483	-0.113533996
83	0xbde960d2	-0.1139542
84	0xbd1ac479	-0.037785027
85	0xbdea7a37	-0.11449092
86	0xbf13304e	-0.5749558
87	0xbdea7f69	-0.11450083
88	0xbf605f3e	-0.8764533
89	0xbd1c61c9	-0.038179193
90	0xbd237e10	-0.039915144
91	0xbd19f8c5	-0.03759076
92	0xbde8a514	-0.11359611
93	0xbde92ee2	-0.11385895
94	0xbde78259	-0.11304159
95	0xbde9456d	-0.11390195
96	0xbde986cb	-0.11402663
97	0xbdeb07c0	-0.114760876
98	0xbd245e01	-0.04012871
99	0xbe3c55ec	-0.18392152
100	0xbdea41c0	-0.11438322
101	0xbdec7faa	-0.115477875
102	0xbdaf26d7	-0.0855233
103	0xbd169d63	-0.03677119
104	0xbde71fda	-0.11285372
105	0xbde9d180	-0.11416912
106	0xbdac7b47	-0.08421951
107	0xbde927cf	-0.11384546
108	0xbdea06b6	-0.11427061
109	0xbdde52d8	-0.10855645
110	0xbd081151	-0.03321964
111	0xbdca3d4d	-0.098749734
112	0xbd24f5d6	-0.04027351
113	0xbdea667d	-0.11445329
114	0xbdea6e31	-0.114467986
115	0xbd21d312	-0.039507933
116	0xbdebea24	-0.11519268
117	0xbde8fb70	-0.11376083

batchnorm.1.module.running_var f4 [118]
0	0x3e46b863	0.19406275
1	0x3e8b4b69	0.2720597
2	0x3e8c79e5	0.27436748
3	0x3d91a7e9	0.071121044
4	0x3fb60ab8	1.4222021
5	0x3e0a2b15	0.13492997
6	0x3e8c1c96	0.2736556
7	0x3da4a295	0.080388226
8	0x3fb60ab8	1.4222021
9	0x3fc1b5d1	1.5133611
10	0x3e8d2728	0.27568936
11	0x3e118c4a	0.14213672
12	0x3e8b2392	0.27175575
13	0x3e8b1a3b	0.2716845
14	0x3e44dbce	0.19224474
15	0x3e8dae86	0.27672213
16	0x3e8c36fb	0.27385697
17	0x3e20b4d2	0.15693977
18	0x3d69201b	0.056915384
19	0x3e8b96d2	0.27263504
20	0x3e8bf792	0.2733732
21	0x3e8ade18	0.2712257
22	0x3e8b5edb	0.27220806
23	0x3d9ea30f	0.07745945
24	0x3dc73aae	0.09727989
25	0x3f252949	0.6451612
26	0x3e9ee53e	0.31034273
27	0x3e8c1da4	0.27366364
28	0x3e8ca773	0.27471504
29	0x3fb60ab8	1.4222021
30	0x3c7f27bb	0.015573437
31	0x3e58d5c1	0.2117529
32	0x3e8c76a9	0.2743428
33	0x3e346db3	0.17619972
34	0x3e8d3804	0.275818
35	0x3dfc94ff	0.12333106
36	0x3fb60ab8	1.4222021
37	0x3fb60ab8	1.4222021
38	0x3e8d793a	0.2763155
39	0x3e3c6046	0.183961
40	0x3e8c5752	0.2741037
41	0x3eb68a52	0.35652405
42	0x3e8bbf8b	0.27294573
43	0x3e8d80e6	0.27637404
44	0x3e8b71df	0.27235314
45	0x3c84e361	0.016221704
46	0x3ea3e48f	0.32010314
47	0x3e8b2056	0.27173108
48	0x3e43c82d	0.1911933
49	0x3e8cb071	0.27478364
50	0x3e8c5b37	0.2741334
51	0x3e8c2445	0.2737142
52	0x3e8c0529	0.27347687
53	0x3dc0b344	0.09409192
54	0x3e6697a5	0.22518785
55	0x3dedfe8d	0.11620817
56	0x3e8c7f55	0.27440897
57	0x3e8c5e06	0.27415484
58	0x3e6226dd	0.22085138
59	0x3e8c6346	0.2741949
60	0x3d72f7fb	0.059318524
61	0x3d8afbff	0.06786346
62	0x3fb60ab8	1.4222021
63	0x3fb60ab8	1.4222021
64	0x3f90d36c	1.1314521
65	0x3ea04324	0.31301224
66	0x3e8bf47e	0.2733497
67	0x3fb60ab8	1.4222021
68	0x4005fe30	2.0936394
69	0x3d8d0dbe	0.06887387
70	0x3fb60ab8	1.4222021
71	0x3d9906b8	0.074719846
72	0x3d97e005	0.07415775
73	0x3eb4feb2	0.35350567
74	0x3e8d5a88	0.27608132
75	0x3eab9a62	0.33516222
76	0x3d90c3a9	0.07068569
77	0x3e8c5952	0.27411896
78	0x3e8db006	0.27673358
79	0x3f525018	0.82153463
80	0x3fb60ab8	1.4222021
81	0x3e8cc6a0	0.2749529
82	0x3e8b91fb	0.27259812
83	0x3e8b6145	0.27222648
84	0x3d8cf79a	0.06883164
85	0x3e8c9e7e	0.2746467
86	0x3f9230ed	1.1421181
87	0x3e8d0ffd	0.2755126
88	0x4015fb0f	2.3434484
89	0x3d900fcf	0.07034265
90	0x3d9d95f7	0.07694619
91	0x3d8eadef	0.06966769
92	0x3e8b3a5b	0.2719296
93	0x3e8bb946	0.2728979
94	0x3e8b20bc	0.27173412
95	0x3e8b91af	0.27259585
96	0x3e8bec8c	0.27328908
97	0x3e8cb629	0.27482727
98	0x3d9e154e	0.07718907
99	0x3e4de081	0.20105173
100	0x3e8c9013	0.2745367
101	0x3e8db7f8	0.2767942
102	0x3da3b9a2	0.07994391
103	0x3d758dc0	0.059949636
104	0x3e4c9b6b	0.19981162
105	0x3e8c5d2d	0.27414837
106	0x3e4db73c	0.2008943
107	0x3e8baac5	0.27278724
108	0x3e8c05ed	0.2734827
109	0x3e89f1be	0.26942247
110	0x3cb5b0a9	0.022178965
111	0x3e9d0662	0.30668932
112	0x3d9e0a1b	0.07716771
113	0x3e8c9298	0.27455592
114	0x3e8bd7d9	0.27313116
115	0x3d9d2bb3	0.076743506
116	0x3e8cd9e5	0.2750999
117	0x3e8c07fa	0.27349836

batchnorm.2.module.weight f4 [118]
0	0x3f800000	1.0
1	0x3f800000	1.0
2	0x3f800000	1.0
3	0x3f800000	1.0
4	0x3f800000	1.0
5	0x3f800000	1.0
6	0x3f800000	1.0
7	0x3f800000	1.0
8	0x3f800000	1.0
9	0x3f800000	1.0
10	0x3f800000	1.0
11	0x3f800000	1.0
12	0x3f800000	1.0
13	0x3f800000	1.0
14	0x3f800000	1.0
15	0x3f800000	1.0
16	0x3f800000	1.0
17	0x3f800000	1.0
18	0x3f800000	1.0
19	0x3f800000	1.0
20	0x3f800000	1.0
21	0x3f800000	1.0
22	0x3f800000	1.0
23	0x3f800000	1.0
24	0x3f800000	1.0
25	0x3f800000	1.0
26	0x3f800000	1.0
27	0x3f800000	1.0
28	0x3f800000	1.0
29	0x3f800000	1.0
30	0x3f800000	1.0
31	0x3f800000	1.0
32	0x3f800000	1.0
33	0x3f800000	1.0
34	0x3f800000	1.0
35	0x3f800000	1.0
36	0x3f800000	1.0
37	0x3f800000	1.0
38	0x3f800000	1.0
39	0x3f800000	1.0
40	0x3f800000	1.0
41	0x3f800000	1.0
42	0x3f800000	1.0
43	0x3f800000	1.0
44	0x3f800000	1.0
45	0x3f800000	1.0
46	0x3f800000	1.0
47	0x3f800000	1.0
48	0x3f800000	1.0
49	0x3f800000	1.0
50	0x3f800000	1.0
51	0x3f800000	1.0
52	0x3f800000	1.0
53	0x3f800000	1.0
54	0x3f800000	1.0
55	0x3f800000	1.0
56	0x3f800000	1.0
57	0x3f800000	1.0
58	0x3f800000	1.0
59	0x3f800000	1.0
60	0x3f800000	1.0
61	0x3f800000	1.0
62	0x3f800000	1.0
63	0x3f800000	1.0
64	0x3f800000	1.0
65	0x3f800000	1.0
66	0x3f800000	1.0
67	0x3f800000	1.0
68	0x3f800000	1.0
69	0x3f800000	1.0
70	0x3f800000	1.0
71	0x3f800000	1.0
72	0x3f800000	1.0
73	0x3f800000	1.0
74	0x3f800000	1.0
75	0x3f800000	1.0
76	0x3f800000	1.0
77	0x3f800000	1.0
78	0x3f800000	1.0
79	0x3f800000	1.0
80	0x3f800000	1.0
81	0x3f800000	1.0
82	0x3f800000	1.0
83	0x3f800000	1.0
84	0x3f800000	1.0
85	0x3f800000	1.0
86	0x3f800000	1.0
87	0x3f800000	1.0
88	0x3f800000	1.0
89	0x3f800000	1.0
90	0x3f800000	1.0
91	0x3f800000	1.0
92	0x3f800000	1.0
93	0x3f800000	1.0
94	0x3f800000	1.0
95	0x3f800000	1.0
96	0x3f800000	1.0
97	0x3f800000	1.0
98	0x3f800000	1.0
99	0x3f800000	1.0
100	0x3f800000	1.0
101	0x3f800000	1.0
102	0x3f800000	1.0
103	0x3f800000	1.0
104	0x3f800000	1.0
105	0x3f800000	1.0
106	0x3f800000	1.0
107	0x3f800000	1.0
108	0x3f800000	1.0
109	0x3f800000	1.0
110	0x3f800000	1.0
111	0x3f800000	1.0
112	0x3f800000	1.0
113	0x3f800000	1.0
114	0x3f800000	1.0
115	0x3f800000	1.0
116	0x3f800000	1.0
117	0x3f800000	1.0

batchnorm.2.module.bias f4 [118]
0	0x00000000	0.0
1	0x00000000	0.0
2	0x00000000	0.0
3	0x00000000	0.0
4	0x00000000	0.0
5	0x00000000	0.0
6	0x00000000	0.0
7	0x00000000	0.0
8	0x00000000	0.0
9	0x00000000	0.0
10	0x00000000	0.0
11	0x00000000	0.0
12	0x00000000	0.0
13	0x00000000	0.0
14	0x00000000	0.0
15	0x00000000	0.0
16	0x00000000	0.0
17	0x00000000	0.0
18	0x00000000	0.0
19	0x00000000	0.0
20	0x00000000	0.0
21	0x00000000	0.0
22	0x00000000	0.0
23	0x00000000	0.0
24	0x00000000	0.0
25	0x00000000	0.0
26	0x00000000	0.0
27	0x00000000	0.0
28	0x00000000	0.0
29	0x00000000	0.0
30	0x00000000	0.0
31	0x00000000	0.0
32	0x00000000	0.0
33	0x00000000	0.0
34	0x00000000	0.0
35	0x00000000	0.0
36	0x00000000	0.0
37	0x00000000	0.0
38	0x00000000	0.0
39	0x00000000	0.0
40	0x00000000	0.0
41	0x00000000	0.0
42	0x00000000	0.0
43	0x00000000	0.0
44	0x00000000	0.0
45	0x00000000	0.0
46	0x00000000	0.0
47	0x00000000	0.0
48	0x00000000	0.0
49	0x00000000	0.0
50	0x00000000	0.0
51	0x00000000	0.0
52	0x00000000	0.0
53	0x00000000	0.0
54	0x00000000	0.0
55	0x00000000	0.0
56	0x00000000	0.0
57	0x00000000	0.0
58	0x00000000	0.0
59	0x00000000	0.0
60	0x00000000	0.0
61	0x00000000	0.0
62	0x00000000	0.0
63	0x00000000	0.0
64	0x00000000	0.0
65	0x00000000	0.0
66	0x00000000	0.0
67	0x00000000	0.0
68	0x00000000	0.0
69	0x00000000	0.0
70	0x00000000	0.0
71	0x00000000	0.0
72	0x00000000	0.0
73	0x00000000	0.0
74	0x00000000	0.0
75	0x00000000	0.0
76	0x00000000	0.0
77	0x00000000	0.0
78	0x00000000	0.0
79	0x00000000	0.0
80	0x00000000	0.0
81	0x00000000	0.0
82	0x00000000	0.0
83	0x00000000	0.0
84	0x00000000	0.0
85	0x00000000	0.0
86	0x00000000	0.0
87	0x00000000	0.0
88	0x00000000	0.0
89	0x00000000	0.0
90	0x00000000	0.0
91	0x00000000	0.0
92	0x00000000	0.0
93	0x00000000	0.0
94	0x00000000	0.0
95	0x00000000	0.0
96	0x00000000	0.0
97	0x00000000	0.0
98	0x00000000	0.0
99	0x00000000	0.0
100	0x00000000	0.0
101	0x00000000	0.0
102	0x00000000	0.0
103	0x00000000	0.0
104	0x00000000	0.0
105	0x00000000	0.0
106	0x00000000	0.0
107	0x00000000	0.0
108	0x00000000	0.0
109	0x00000000	0.0
110	0x00000000	0.0
111	0x00000000	0.0
112	0x00000000	0.0
113	0x00000000	0.0
114	0x00000000	0.0
115	0x00000000	0.0
116	0x00000000	0.0
117	0x00000000	0.0

batchnorm.2.module.running_mean f4 [118]
0	0x00000000	0.0
1	0x00000000	0.0
2	0x00000000	0.0
3	0x00000000	0.0
4	0x00000000	0.0
5	0x00000000	0.0
6	0x00000000	0.0
7	0x00000000	0.0
8	0x00000000	0.0
9	0x00000000	0.0
10	0x00000000	0.0
11	0x00000000	0.0
12	0x00000000	0.0
13	0x00000000	0.0
14	0x00000000	0.0
15	0x00000000	0.0
16	0x00000000	0.0
17	0x00000000	0.0
18	0x00000000	0.0
19	0x00000000	0.0
20	0x00000000	0.0
21	0x00000000	0.0
22	0x00000000	0.0
23	0x00000000	0.0
24	0x00000000	0.0
25	0x00000000	0.0
26	0x00000000	0.0
27	0x00000000	0.0
28	0x00000000	0.0
29	0x00000000	0.0
30	0x00000000	0.0
31	0x00000000	0.0
32	0x00000000	0.0
33	0x00000000	0.0
34	0x00000000	0.0
35	0x00000000	0.0
36	0x00000000	0.0
37	0x00000000	0.0
38	0x00000000	0.0
39	0x00000000	0.0
40	0x00000000	0.0
41	0x00000000	0.0
42	0x00000000	0.0
43	0x00000000	0.0
44	0x00000000	0.0
45	0x00000000	0.0
46	0x00000000	0.0
47	0x00000000	0.0
48	0x00000000	0.0
49	0x00000000	0.0
50	0x00000000	0.0
51	0x00000000	0.0
52	0x00000000	0.0
53	0x00000000	0.0
54	0x00000000	0.0
55	0x00000000	0.0
56	0x00000000	0.0
57	0x00000000	0.0
58	0x00000000	0.0
59	0x00000000	0.0
60	0x00000000	0.0
61	0x00000000	0.0
62	0x00000000	0.0
63	0x00000000	0.0
64	0x00000000	0.0
65	0x00000000	0.0
66	0x00000000	0.0
67	0x00000000	0.0
68	0x00000000	0.0
69	0x00000000	0.0
70	0x00000000	0.0
71	0x00000000	0.0
72	0x00000000	0.0
73	0x00000000	0.0
74	0x00000000	0.0
75	0x00000000	0.0
76	0x00000000	0.0
77	0x00000000	0.0
78	0x00000000	0.0
79	0x00000000	0.0
80	0x00000000	0.0
81	0x00000000	0.0
82	0x00000000	0.0
83	0x00000000	0.0
84	0x00000000	0.0
85	0x00000000	0.0
86	0x00000000	0.0
87	0x00000000	0.0
88	0x00000000	0.0
89	0x00000000	0.0
90	0x00000000	0.0
91	0x00000000	0.0
92	0x00000000	0.0
93	0x00000000	0.0
94	0x00000000	0.0
95	0x00000000	0.0
96	0x00000000	0.0
97	0x00000000	0.0
98	0x00000000	0.0
99	0x00000000	0.0
100	0x00000000	0.0
101	0x00000000	0.0
102	0x00000000	0.0
103	0x00000000	0.0
104	0x00000000	0.0
105	0x00000000	0.0
106	0x00000000	0.0
107	0x00000000	0.0
108	0x00000000	0.0
109	0x00000000	0.0
110	0x00000000	0.0
111	0x00000000	0.0
112	0x00000000	0.0
113	0x00000000	0.0
114	0x00000000	0.0
115	0x00000000	0.0
116	0x00000000	0.0
117	0x00000000	0.0

batchnorm.2.module.running_var f4 [118]
0	0x3f800000	1.0
1	0x3f800000	1.0
2	0x3f800000	1.0
3	0x3f800000	1.0
4	0x3f800000	1.0
5	0x3f800000	1.0
6	0x3f800000	1.0
7	0x3f800000	1.0
8	0x3f800000	1.0
9	0x3f800000	1.0
10	0x3f800000	1.0
11	0x3f800000	1.0
12	0x3f800000	1.0
13	0x3f800000	1.0
14	0x3f800000	1.0
15	0x3f800000	1.0
16	0x3f800000	1.0
17	0x3f800000	1.0
18	0x3f800000	1.0
19	0x3f800000	1.0
20	0x3f800000	1.0
21	0x3f800000	1.0
22	0x3f800000	1.0
23	0x3f800000	1.0
24	0x3f800000	1.0
25	0x3f800000	1.0
26	0x3f800000	1.0
27	0x3f800000	1.0
28	0x3f800000	1.0
29	0x3f800000	1.0
30	0x3f800000	1.0
31	0x3f800000	1.0
32	0x3f800000	1.0
33	0x3f800000	1.0
34	0x3f800000	1.0
35	0x3f800000	1.0
36	0x3f800000	1.0
37	0x3f800000	1.0
38	0x3f800000	1.0
39	0x3f800000	1.0
40	0x3f800000	1.0
41	0x3f800000	1.0
42	0x3f800000	1.0
43	0x3f800000	1.0
44	0x3f800000	1.0
45	0x3f800000	1.0
46	0x3f800000	1.0
47	0x3f800000	1.0
48	0x3f800000	1.0
49	0x3f800000	1.0
50	0x3f800000	1.0
51	0x3f800000	1.0
52	0x3f800000	1.0
53	0x3f800000	1.0
54	0x3f800000	1.0
55	0x3f800000	1.0
56	0x3f800000	1.0
57	0x3f800000	1.0
58	0x3f800000	1.0
59	0x3f800000	1.0
60	0x3f800000	1.0
61	0x3f800000	1.0
62	0x3f800000	1.0
63	0x3f800000	1.0
64	0x3f800000	1.0
65	0x3f800000	1.0
66	0x3f800000	1.0
67	0x3f800000	1.0
68	0x3f800000	1.0
69	0x3f800000	1.0
70	0x3f800000	1.0
71	0x3f800000	1.0
72	0x3f800000	1.0
73	0x3f800000	1.0
74	0x3f800000	1.0
75	0x3f800000	1.0
76	0x3f800000	1.0
77	0x3f800000	1.0
78	0x3f800000	1.0
79	0x3f800000	1.0
80	0x3f800000	1.0
81	0x3f800000	1.0
82	0x3f800000	1.0
83	0x3f800000	1.0
84	0x3f800000	1.0
85	0x3f800000	1.0
86	0x3f800000	1.0
87	0x3f800000	1.0
88	0x3f800000	1.0
89	0x3f800000	1.0
90	0x3f800000	1.0
91	0x3f800000	1.0
92	0x3f800000	1.0
93	0x3f800000	1.0
94	0x3f800000	1.0
95	0x3f800000	1.0
96	0x3f800000	1.0
97	0x3f800000	1.0
98	0x3f800000	1.0
99	0x3f800000	1.0
100	0x3f800000	1.0
101	0x3f800000	1.0
102	0x3f800000	1.0
103	0x3f800000	1.0
104	0x3f800000	1.0
105	0x3f800000	1.0
106	0x3f800000	1.0
107	0x3f800000	1.0
108	0x3f800000	1.0
109	0x3f800000	1.0
110	0x3f800000	1.0
111	0x3f800000	1.0
112	0x3f800000	1.0
113	0x3f800000	1.0
114	0x3f800000	1.0
115	0x3f800000	1.0
116	0x3f800000	1.0
117	0x3f800000	1.0
