Entrenar/runs/118/GNN_local/04-12_17:25:47/weights/best_model.pt (torch, 186914 bytes, 29 tensors)

convs.0.bias f4 [64]
000000 52 7f fe 3e cb 73 ff 3d 05 79 be bd b7 cc cb 3e
       0.49706513 0.12473258 -0.093004264 0.39804623
000010 88 e9 c7 3e 25 73 28 bf e9 05 d9 3e 1f e0 8f bd
       0.39045358 -0.65800697 0.42387322 -0.070251696
000020 28 8e b1 3e 10 0f e7 3e f5 fb 42 bf 20 11 14 bf
       0.3467877 0.4512868 -0.76165706 -0.5783863
000030 49 46 8e 3e 42 05 a1 be ae 28 ca be dd 94 7f 3c
       0.27787998 -0.31449324 -0.3948416 0.015599457
000040 03 ce c6 3e a6 93 75 bc 88 3f 7b be c5 22 4d be
       0.3882905 -0.014988815 -0.24535954 -0.20032795
000050 a8 e2 f8 3d f7 68 14 bf 42 19 6b bf 93 3d 31 3d
       0.12152606 -0.57972664 -0.91835415 0.043271612
000060 33 16 da bc d5 dd 1b be a2 ef 0d bf cc 5c 7c 3e
       -0.026621914 -0.15221341 -0.55443776 0.24644774
000070 a9 42 7f be 8a 31 b1 bd 75 5d e6 3e 62 35 63 bf
       -0.24927773 -0.08652027 0.44993177 -0.8875333
000080 87 10 be 3e 02 7a 55 3e a1 35 60 be 8d c4 e4 3d
       0.37121984 0.20847324 -0.21895458 0.111703016
000090 87 ae 84 3c 34 58 ff bd 61 d6 96 3e 2a 7e 47 3e
       0.016196502 -0.12467995 0.29460433 0.19481722
0000a0 aa 97 76 bf 72 e8 0f bf 8d e9 98 be 96 f6 f5 3e
       -0.9632517 -0.5621406 -0.29865685 0.48039693
0000b0 6f c5 93 be c8 97 96 bd 6f 8f 6f 3e 01 4f 4b bf
       -0.28861567 -0.07353169 0.2339456 -0.79417425
0000c0 bd 97 e5 bc fe a0 26 3f e3 b9 10 3f bf 42 06 be
       -0.028026456 0.65089405 0.5653364 -0.13111399
0000d0 0f fe f1 3e 04 b7 e7 3e 78 25 90 be f0 96 02 3f
       0.47264144 0.45256817 -0.28153586 0.5101156
0000e0 73 43 b6 3e 2b e4 44 3b 0c 38 30 3e ea e9 97 3e
       0.35598335 0.0030043225 0.1720888 0.2967065
0000f0 69 4d a1 be 61 8c b5 bc 14 11 8d 3b ab 86 10 bf
       -0.31504372 -0.022161664 0.0043050144 -0.56455487

convs.0.lins.0.weight f4 [64, 2]
000000 6d c0 78 bd f0 c0 14 be 49 92 60 3e 9b dc 49 3e
       -0.060730387 -0.14526725 0.21930803 0.1971306
000010 83 e6 44 be 1d 7d 2a be 83 12 b2 bd 50 43 ed 3c
       -0.19228558 -0.1664929 -0.08694937 0.028962761
000020 44 7f 79 bd 50 98 b1 bd 11 46 41 3f b5 50 04 bf
       -0.060912386 -0.086716294 0.7549754 -0.5168565
000030 66 05 ea 3d de e2 91 3d 39 54 24 3e dd 24 9f 3e
       0.11426811 0.071233496 0.16047753 0.31082812
000040 1e 1b 10 be 05 b6 97 bd 1f 50 7b be 43 12 1e 3e
       -0.14072844 -0.07407764 -0.24542283 0.15436654
000050 4d 38 12 bf 31 83 d6 3e 4f b4 0e bf 78 31 60 3e
       -0.5711716 0.41896966 -0.5574388 0.21893871
000060 fb 20 c2 bc 61 76 01 bd 5b f2 ac 3d f2 b6 ae 3b
       -0.023697367 -0.031607036 0.08444663 0.0053318674
000070 47 54 3f 3f 4e 82 5e bf 2d 97 5c 3d 17 a0 35 bd
       0.7473797 -0.8691758 0.05385511 -0.044342127
000080 aa f3 27 3e 16 24 81 3d b8 cc 21 be 15 29 65 3d
       0.16401544 0.06305711 -0.1580075 0.055947382
000090 c7 1c 42 bb 0d 04 9e 3c 06 f7 ee be 1a 70 9c be
       -0.0029619203 0.019289041 -0.4667284 -0.30554277
0000a0 ec a5 02 3e 6a f3 75 bd 36 b3 c5 bd a1 04 47 bd
       0.12758607 -0.06004659 -0.096533224 -0.0485884
0000b0 65 a2 df be ec 4e 6d 3f 5f ae 74 bd 33 7c 44 bd
       -0.43678585 0.9269855 -0.059736606 -0.047970008
0000c0 5f ba 10 bf 47 42 05 bf 6c 0e 03 3d d9 2b 6d 3e
       -0.5653438 -0.52054256 0.031996176 0.23161258
0000d0 95 e2 77 3e c7 ce 30 3f c7 6c 11 3d 2a a2 af 3d
       0.24207528 0.6906552 0.03550413 0.08575852
0000e0 99 2d 0c 3f 9d c1 fa 3e a2 25 1c 3c 2d 05 b7 3d
       0.54757077 0.4897584 0.009530457 0.08936534
0000f0 ef 0b a2 3d a9 35 3c bd fb b7 53 bd c6 77 b5 be
       0.079124324 -0.04594961 -0.05168913 -0.35442942
000100 3e 14 6b 3e c1 14 74 be aa 2f 83 3c ee 25 b1 3c
       0.2295694 -0.23836042 0.016013939 0.021624532
000110 3f 21 04 bf 85 8a 8b 3e 2a e4 3b 3c f4 26 d1 3c
       -0.5161323 0.2725412 0.011467973 0.02553127
000120 04 96 ca 3e ba fd 21 bf 52 52 31 3f 70 62 32 3f
       0.39567578 -0.6327778 0.69266236 0.69681454
000130 be a4 6e bd fa 28 a2 bd cd 59 b3 bd 68 fd d0 ba
       -0.05826258 -0.07917972 -0.087573625 -0.0015944662
000140 0c 40 ab bd 72 fa 50 3e cf 4d fa 3e f6 d7 0d 3f
       -0.08361825 0.20408037 0.48887488 0.55407655
000150 50 44 1b bd 84 25 6a 3c ab 30 b9 bd 11 18 2d be
       -0.037906945 0.014291171 -0.09042486 -0.16903712
000160 b3 46 4b bf 47 ec 42 bf 82 46 c0 3e c7 12 0a bf
       -0.79404753 -0.7614178 0.37553793 -0.539349
000170 54 ab b6 bd 2e 42 5c 3d bb 3b 4f 3f d1 e7 32 3f
       -0.08919397 0.05377405 0.80950516 0.69884974
000180 58 83 e0 be 79 dc d7 be 3e bd cd 3c eb 7a 50 3e
       -0.43850207 -0.42160395 0.025114652 0.2035939
000190 2b a0 65 3d 31 a5 db 3b 27 f9 db 3b 49 35 96 3e
       0.05606095 0.006703042 0.006713051 0.29337528
0001a0 67 4c 04 3d 0e 51 e5 bc d8 08 0c 3e a7 cf db bd
       0.032299425 -0.027992751 0.13675249 -0.10732966
0001b0 3c d2 ce be 48 7a bf 3e 92 72 26 3d 55 34 d2 3d
       -0.4039477 0.3739798 0.040636607 0.10263888
0001c0 f4 cf 03 be d2 79 5e 3d a5 a2 e0 3e c0 76 b2 be
       -0.12872297 0.054315396 0.43874088 -0.34856224
0001d0 de 9c e4 3c f7 90 f4 3b 15 1e d8 bd ab 49 3f 3d
       0.027906831 0.00746357 -0.10552613 0.046701115
0001e0 7b df 25 bd db 90 2a bd 1f 77 bc 3c db 1d e6 bc
       -0.04049633 -0.04164205 0.02300602 -0.028090408
0001f0 77 56 f8 be b2 fa f6 3e 94 a4 32 be 98 39 1a bf
       -0.48503467 0.4823814 -0.17445594 -0.6024413

convs.0.lins.1.weight f4 [64, 2]
000000 c0 02 9a be 9d dc c0 3e d2 3e 3a 3d d4 df 24 3e
       -0.30080223 0.37668315 0.045470066 0.16101009
000010 3e d0 a9 be d4 74 ab bd 0f 4a f8 bd e6 ff ad 3d
       -0.3316669 -0.083718926 -0.121235006 0.084960744
000020 4d 08 0b be d2 c7 55 3e 2f d2 c7 3d f1 43 b1 bc
       -0.13577385 0.20877007 0.09756886 -0.021638842
000030 8a ca a6 bd b5 17 d0 3a 3f 99 bc 3d ea 32 3d 3d
       -0.081441 0.0015876206 0.09208917 0.046191134
000040 36 1d 0e bd 16 9a dc be 54 c7 e9 3d 36 50 ea 3d
       -0.034695826 -0.43086308 0.11414972 0.1144108
000050 0f f3 c2 be 06 09 f4 3e cf 1e ba be dd 4f 07 3f
       -0.38076064 0.47663134 -0.3635163 0.52856237
000060 46 01 d5 3d 0d e3 4d be df 90 83 3e de 56 f2 be
       0.104006335 -0.20106144 0.25696465 -0.473319
000070 7b a6 38 bd 85 56 e7 3d 2b 4c 82 be 11 37 74 3e
       -0.045080643 0.11295799 -0.25448737 0.23849131
000080 78 e3 0d bd c9 47 75 3e 30 a2 5f be b7 47 ad 3e
       -0.03464076 0.23953165 -0.21839213 0.33843777
000090 1d c8 ab 3d 7c 08 64 be 1e 53 7c 3e a0 a0 57 3e
       0.08387778 -0.22268862 0.24641082 0.21057367
0000a0 f0 69 d0 3e 02 60 59 be 26 0f 14 bf 2d e6 cf bd
       0.40705824 -0.2122803 -0.57835615 -0.101513244
0000b0 10 77 69 3e 93 b2 b1 3e 06 3f 14 3e c3 b5 d6 bd
       0.22799325 0.34706554 0.14477167 -0.10483887
0000c0 f2 31 8e 3e 06 cd 45 3e ff 1b f8 3d 63 17 a6 3e
       0.2777248 0.19316491 0.12114715 0.32439718
0000d0 52 5e 8c be fe c9 71 3f 01 3a ec bd 8c 45 03 be
       -0.2741571 0.9444884 -0.11534501 -0.12819499
0000e0 69 34 68 be c0 9b 41 3e 57 58 cc 3e 12 56 bb be
       -0.22676243 0.1890707 0.39911148 -0.36589104
0000f0 55 40 3d 3e cf 91 6a be f7 8c 27 3f a7 d8 c4 3d
       0.18481572 -0.22907184 0.6544947 0.09611636
000100 3b 9a b8 be db db ab be 73 af 91 be 8b b3 48 3d
       -0.36055169 -0.33566174 -0.2845417 0.04899935
000110 7e 5d 1c bf d6 16 ed be 70 72 a9 bd 42 2e 13 be
       -0.6108016 -0.46306485 -0.0827378 -0.14373115
000120 24 bb 4b 3e 4a f7 28 bf 6a e3 99 be 58 8d cb be
       0.19895607 -0.66002333 -0.30056316 -0.39756274
000130 82 5c 20 3c 4e c7 5b be 37 97 3e 3e 1a d1 30 be
       0.009787681 -0.21462747 0.18612371 -0.17267266
000140 25 66 94 3e a1 63 39 3f 5d 9e af bd 67 2b 81 bd
       0.2898418 0.72417647 -0.08575127 -0.063071065
000150 89 24 0e be ea 9a 8b bd a2 8d 04 be dd 70 94 3e
       -0.13881125 -0.06816657 -0.12944654 0.28992358
000160 77 77 1a 3e 61 79 40 be d1 ff 36 3e 67 6b 40 3f
       0.15084635 -0.18796302 0.17871024 0.7516388
000170 54 45 18 3e 20 3a 2c be 54 ae a2 3e 01 05 17 bf
       0.14870197 -0.16819048 0.31773627 -0.5899201
000180 2f f8 e8 bd 10 a3 ce 3e 01 8f 82 3e 9d df a4 3e
       -0.11375462 0.40358782 0.25499728 0.32201853
000190 c1 7b fd bd 35 5a fd bd fa ab 26 be 90 a0 4c 3f
       -0.1237712 -0.12370721 -0.16276541 0.799325
0001a0 2c 67 6f 3d c7 59 bb bd c8 8f be 3c 03 f7 7b be
       0.058448 -0.09147983 0.02326192 -0.24605946
0001b0 a6 d8 10 3e 28 55 32 3e 4e d0 9a 3c c4 43 09 3d
       0.14145145 0.17415297 0.018898156 0.033511892
0001c0 7b 42 23 3e f6 68 ca bc df db 5c 3a 5a f8 07 3e
       0.15943329 -0.024708252 0.00084250973 0.13278332
0001d0 8c a0 06 3e 42 d5 80 3e a2 ee 9a 3d cf 05 ad 3d
       0.13147181 0.25162703 0.07565047 0.084483735
0001e0 cf bf b4 be 2c bf 9b bc 5a 11 87 3d d2 2b 04 3e
       -0.35302588 -0.019012056 0.065951064 0.12907341
0001f0 15 63 17 be 89 2e 1d 3c 48 a9 07 3f 2a 67 69 bd
       -0.1478389 0.009593614 0.5299268 -0.05698315

convs.0.lins.2.weight f4 [64, 2]
000000 d6 60 39 be 8b 4b de bc 82 93 b3 3c 85 30 4c be
       -0.18103346 -0.027135631 0.021920923 -0.19940384
000010 03 75 59 3f 7c 83 31 3f 15 9a 01 3f b2 8e 34 be
       0.8494417 0.69341254 0.50625736 -0.17632559
000020 40 08 31 3e bb 65 40 3e 96 4e ef be 69 9c 27 be
       0.17288303 0.18788807 -0.46739644 -0.1636826
000030 0c 1c b6 bd af ff ad be cc d6 bd be 6c 95 0e 3f
       -0.08892068 -0.33984134 -0.3707794 0.5569675
000040 96 5e 02 3f 36 0e be 3e 9f a8 fe 3e 58 b1 b0 be
       0.50925577 0.37120217 0.49738023 -0.34510303
000050 d5 34 bd bd c0 63 fe 3e cc f8 d0 bd d7 93 34 3d
       -0.092385925 0.49685478 -0.10203704 0.044086304
000060 37 fb ee be 2d b4 2d 3d 74 c7 fb be fe 27 17 bc
       -0.46676037 0.042408157 -0.49175608 -0.0092258435
000070 d1 74 05 3f 66 c5 b0 be d6 e9 06 3e fe 15 be 3e
       0.5213137 -0.34525603 0.13175139 0.37126154
000080 8f 5a ca be 5d 44 4e 3c eb 7f 22 3f 42 39 5d be
       -0.39522216 0.012589541 0.6347644 -0.21603873
000090 9f 65 cf be c2 44 6b be 71 bd 1f be 1a 38 ff be
       -0.40507218 -0.22975448 -0.1559961 -0.4984749
0000a0 60 45 e1 be 83 ad 9c 3e d8 a6 4b 3e da 4a 15 bf
       -0.4399824 0.3060113 0.19887865 -0.5831734
0000b0 58 30 96 be f6 6f 1d be 2d f4 ff bd 52 f3 43 bd
       -0.29333758 -0.15374741 -0.12497745 -0.04783947
0000c0 2a 54 da be 7a de 84 3d 77 34 8e be a2 44 03 bf
       -0.42642337 0.064877465 -0.27774402 -0.512766
0000d0 d8 2b 07 bf ac 81 d2 3e 5a 13 ae be b0 79 81 be
       -0.52801275 0.41114557 -0.3399914 -0.25288153
0000e0 d1 10 c6 3e 0a 60 bc 3e 68 fa c1 3e a6 c9 8e bf
       0.38684705 0.36792022 0.37886357 -1.1155288
0000f0 81 09 07 bf 7a 54 2c be 2c 4c 39 3f a7 64 99 bd
       -0.52748877 -0.168291 0.72381854 -0.07489901
000100 65 81 11 bf 4c 20 4f 3e c6 18 ce be 9b 3e c2 bc
       -0.56838065 0.20227164 -0.40253276 -0.023711493
000110 0c 2e 7c be 19 7b 3c 3f ca a6 2a 3d 5a eb b8 3b
       -0.2462694 0.7362533 0.04166297 0.0056432905
000120 4d 54 0e bd 08 1a 03 be 63 d6 93 3e f8 a0 c1 3e
       -0.034748364 -0.12802899 0.28874502 0.37818122
000130 61 01 d6 3c f6 53 d4 3d 0b fc 8c 3e c6 55 01 3c
       0.026123704 0.10367577 0.27536044 0.007893985
000140 10 7d e8 3d 3a 8f 08 3f 56 ba 31 3f 3a 0d 87 3f
       0.11351979 0.53343546 0.6942495 1.0550911
000150 fb 81 55 3e 87 24 b7 bd d2 99 82 3e fc 17 01 3f
       0.20850365 -0.08942514 0.2550798 0.5042722
000160 c1 9c fe be 7a 49 53 be b7 9e b4 bd 1e 6d 81 3e
       -0.4972897 -0.20633498 -0.08819335 0.25278562
000170 b9 f2 ae bd a2 ab ab bd 00 bf a4 3e de 33 bf 3e
       -0.085423894 -0.08382346 0.3217697 0.3734426
000180 3c 8c d2 bd 81 8c e1 be 52 01 a9 3e 23 2d 87 be
       -0.10280654 -0.44052508 0.3300882 -0.26401624
000190 9f 90 3c bd 9b ab 29 3e b0 01 14 3e 26 15 13 bf
       -0.04603636 0.16569369 0.14453769 -0.57454145
0001a0 f6 6b e4 3e 92 40 3e be 9f 41 ac be 3e 4f ce 3e
       0.44613618 -0.18579319 -0.33643815 0.40294832
0001b0 5e 59 8f be f0 f7 93 be ca 90 ed bd 7f f5 1c be
       -0.2799787 -0.289001 -0.11599882 -0.15328024
0001c0 9d f7 95 be 81 19 87 be 28 ad 67 3e fa c8 c4 be
       -0.29290476 -0.26386645 0.22624648 -0.38434583
0001d0 eb c0 76 be 5f cd 12 3e ef dd 1d 3e c0 fd ea 3c
       -0.2409703 0.14336155 0.15416692 0.02868545
0001e0 ea 45 c3 be 41 5b 1e 3e 29 11 b6 3e 91 8d d9 3d
       -0.38139278 0.15464498 0.35559967 0.10622705
0001f0 b4 e1 11 bf 28 37 7c be 43 53 9c be 6b d4 d5 be
       -0.5698502 -0.24630415 -0.30532274 -0.41763625

convs.0.lins.3.weight f4 [64, 2]
000000 3f 7d e0 3e fd e9 af be 1d c4 85 3e 5f 8a b2 be
       0.43845555 -0.34358206 0.26126185 -0.34871194
000010 d6 64 67 3e 04 1f 12 be 0f 7d 7d 3e ff b3 15 be
       0.2259706 -0.14269644 0.24754737 -0.14619444
000020 88 82 fb 3d 6a d1 ca be 4e 5f 2c 3e 24 e5 ec 3e
       0.12280756 -0.39612895 0.16833231 0.4626857
000030 10 f6 42 3e 6a 78 d0 bd 3e 6b 96 bd 52 18 ad bd
       0.19039178 -0.10179217 -0.073446736 -0.08451904
000040 90 06 65 be d1 af 29 3f b9 7f 34 be 00 18 45 bd
       -0.22365785 0.662839 -0.17626847 -0.04811859
000050 4b 3e 8a be 1c cb f3 be 7f e9 fe 3d ef 87 84 3e
       -0.2700065 -0.47615898 0.124468796 0.2588496
000060 37 4e 3f bd 89 29 1e 3d c9 6d 24 3f 01 8d 42 be
       -0.04670545 0.03861383 0.6423002 -0.18999101
000070 87 be 85 bc d8 fe 1b be 6b 6e fa 3e 29 95 2d be
       -0.016326202 -0.15233934 0.48912367 -0.16951431
000080 d6 b3 0b bd 0f 09 86 be 35 d3 9b 3c 8c 19 27 bf
       -0.03410705 -0.26178786 0.01902161 -0.65273356
000090 be 8a cb be 1d b9 b7 3e fb 36 54 3f fa 3b 17 3f
       -0.3975429 0.35883418 0.82896394 0.5907589
0000a0 cb 0c 16 bf 87 6f ee 3e 18 b6 24 bf 38 b4 81 3e
       -0.5861327 0.46569464 -0.64340353 0.25332808
0000b0 b8 fc 03 3f cc 31 25 3f ac 5d d7 3e 06 8a e6 3e
       0.51557493 0.6452911 0.42063653 0.4502718
0000c0 da 1e 6b bb a9 dc 91 3d c1 70 0d be 50 61 57 3e
       -0.0035876543 0.07122166 -0.13812543 0.21033216
0000d0 74 4b 00 bf b0 cd 0b 3e f9 3a ad be 73 88 2a 3d
       -0.5011513 0.13652682 -0.33834055 0.041634034
0000e0 9d 91 8a be ce 28 93 bc d8 f1 a1 be e5 4a 44 bf
       -0.2706422 -0.017963793 -0.31629825 -0.7667678
0000f0 35 06 fb bd 3b 80 e5 3e 86 43 66 3f cf 65 f5 3e
       -0.12257043 0.44824395 0.8994678 0.47929236
000100 5c bf 0b be 0d 37 2d bf 18 9e b9 3e a4 f6 51 3d
       -0.13647217 -0.67662126 0.36253428 0.051260605
000110 50 04 37 bf 6b ce 88 3d 8e 4d b7 3e f1 10 ff 3d
       -0.71490955 0.06679996 0.35801357 0.12454403
000120 17 c8 13 3c e1 93 f4 3e 44 b9 f6 3e ec a1 0e 3f
       0.009019873 0.47769073 0.4818822 0.55715823
000130 73 c6 24 be 61 47 89 3e a1 f5 92 be ac 56 cb 3e
       -0.16091327 0.2681227 -0.28703025 0.39714563
000140 56 7a d3 be c8 89 07 3f a3 a3 b7 bd 83 7b e0 3e
       -0.41304272 0.5294461 -0.08966758 0.43844232
000150 bd f4 1c 3e 00 34 d8 3d 46 63 30 bd 82 49 2a bf
       0.15327735 0.10556793 -0.043063425 -0.66518414
000160 02 16 65 be fb 29 52 3e f0 e3 cb be ff 7a 90 3e
       -0.22371677 0.20523827 -0.3982234 0.2821884
000170 f6 66 66 be 83 37 13 3f a2 80 22 3e 2e b6 27 3e
       -0.22500214 0.5750658 0.15869382 0.1637809
000180 0c e7 45 be 24 fc e8 be 8e 01 2a be 0a f6 4a be
       -0.19326419 -0.45504868 -0.16602156 -0.19820419
000190 49 d9 b1 3e ee f7 78 be 7c 7f a2 3e 2c a9 4d 3f
       0.34736088 -0.24313328 0.31737888 0.8033626
0001a0 b2 83 37 3e b4 93 bc 3d 6e 1b ed be 2d 22 1d 3f
       0.17921332 0.0920786 -0.4630999 0.61380273
0001b0 e7 4b 16 be 81 17 ae be 43 6c 8e 3e d3 22 f8 bd
       -0.14677392 -0.34002307 0.27816972 -0.12116017
0001c0 34 4d 32 be 04 b2 b7 3e e2 45 d4 bd 1a eb d5 be
       -0.17412263 0.35878003 -0.103648916 -0.4178093
0001d0 f5 68 41 be 57 25 b3 be 78 42 38 be f6 3e b2 be
       -0.18887694 -0.34989426 -0.17994106 -0.3481366
0001e0 eb 33 b6 3d 01 0c 03 bf ff 55 31 be cb 68 98 be
       0.08896621 -0.5119019 -0.17317961 -0.2976745
0001f0 3e ee b9 3e 5d ff a5 3a cc 9b ef be eb 99 95 3c
       0.36314577 0.0012664605 -0.4679855 0.01826187

convs.0.lins.4.weight f4 [64, 2]
000000 1f 2c 82 3e 73 1a 6a 3e e7 71 ac bd b0 49 02 3e
       0.25424287 0.22861652 -0.08420163 0.12723422
000010 a5 be 43 3f 9c e4 46 3f bb 47 1c bf ca 34 8b 3e
       0.76462775 0.7769258 -0.6104695 0.27188712
000020 45 db ba 3d 6c 1f fa 3d 7e 01 29 3f b4 17 a4 3e
       0.091238536 0.122130245 0.660179 0.32049334
000030 fa 00 e3 be 1c c3 fa 3e f8 02 9c be da 2a df bc
       -0.44336683 0.48976982 -0.30471015 -0.027242113
000040 2d de f0 be 54 f5 a1 be 6f 7c 61 be 69 c5 e1 bd
       -0.47044507 -0.31632483 -0.22020124 -0.11023981
000050 be 92 da bd ca c7 5b 3e 42 7c 18 3f 55 e4 16 3f
       -0.1067252 0.21462932 0.595646 0.5894216
000060 e7 e6 ee 3e 15 ea a3 3d 60 49 ef 3e 94 ce 5e bd
       0.4666054 0.08003632 0.46735668 -0.054396227
000070 6f a9 90 be 19 7b 43 3e a3 10 ff bd b6 0c c0 be
       -0.28254268 0.19089927 -0.12454345 -0.37509698
000080 27 23 aa 3d 9c 62 66 be 52 20 5f bd da 13 07 3c
       0.08307486 -0.22498554 -0.054474182 0.008244479
000090 26 cb 08 3e ad d1 b0 3e e6 85 5f be e9 2a bd 3e
       0.13358745 0.3453497 -0.21828422 0.369468
0000a0 27 3a fa 3e a9 8d fe be 05 bb 11 bf ba 8b 6f bf
       0.48872492 -0.49717453 -0.56925994 -0.9357258
0000b0 a0 8e ae bd 3d d7 5f be c7 1a 99 bc f4 01 8e bd
       -0.08523297 -0.2185945 -0.018689526 -0.06933966
0000c0 f0 b5 b2 bd ce eb 55 be 66 11 f9 bc cb ec 36 3f
       -0.08726108 -0.20890734 -0.030403804 0.7145507
0000d0 44 e9 86 be 31 86 95 be 66 74 84 3e 41 22 9f 3d
       -0.26349843 -0.29203942 0.25870055 0.07770205
0000e0 bf 87 ab 3e 7c 11 cc 3e fd ea ee 3e 39 65 4c bf
       0.33502004 0.3985709 0.46663657 -0.79841954
0000f0 85 80 d2 3e e2 8d c9 3e 9e 4b 2b be 82 6a 0b 3f
       0.41113678 0.3936606 -0.16728064 0.54459393
000100 63 15 8f 3e 94 99 bc 3d aa b8 d3 3e 69 91 ed bd
       0.27946004 0.0920898 0.41351825 -0.116000004
000110 5e a7 2c bf cb 79 8a 3e 2b f7 d3 bc 49 10 b4 bd
       -0.6744288 0.27046046 -0.025874695 -0.08792169
000120 d5 95 07 3e 7d 05 f0 be a2 5a 11 3f 09 96 33 3f
       0.1324075 -0.46879187 0.5677892 0.7015081
000130 65 bb 1d bd 65 b8 ec bd f3 24 8c 3b c2 33 4d 3d
       -0.03850879 -0.11558608 0.0042768656 0.05009819
000140 13 8c 22 3f b0 8c 9d 3e b3 6d 0b 3f 93 25 e5 3d
       0.63494986 0.307714 0.5446426 0.11188807
000150 9c 8f 38 be 3f b2 8c 3d d3 07 06 bd de a0 3a 3e
       -0.18023533 0.06869935 -0.032722306 0.18225428
000160 03 51 47 bd 36 51 27 bd 77 7b 04 3f 86 74 0b 3c
       -0.048661243 -0.040848933 0.5175089 0.008511668
000170 ac 38 8d bd f6 c9 13 3e d0 df a9 be 7b 7a 84 bd
       -0.06895575 0.1443251 -0.33178568 -0.06468674
000180 26 a5 95 be e9 69 32 3e 02 6d 88 be ed 30 ff be
       -0.2922756 0.17423214 -0.26645666 -0.49842015
000190 08 67 a1 bd a8 6a e2 bc 9f c6 79 3d 31 8b 4a 3f
       -0.0788098 -0.027638748 0.060980435 0.7911864
0001a0 ad fb e4 bd aa 8f c3 3e da f9 45 3e 82 7f e4 be
       -0.11180816 0.38195544 0.19333592 -0.4462853
0001b0 03 0b 6a 3e 59 59 c9 3e 02 65 cf be e6 40 8b be
       0.22855763 0.3932598 -0.4050675 -0.2719795
0001c0 46 53 1f 3f 01 92 bc 3e 4c 9f db bd 28 f4 19 3f
       0.6223644 0.36830142 -0.10723743 0.6013818
0001d0 4e f2 84 bc 5e 3e c5 be 47 c3 c1 bd 6d f2 97 bd
       -0.016228821 -0.38524145 -0.09461074 -0.07419286
0001e0 e0 9b 2e be ba 85 50 3d ba 02 ba be 84 52 ad 3c
       -0.17051649 0.05090878 -0.36330205 0.02115751
0001f0 ae 3a 16 3f 3b b3 7a 3e 70 6c fc 3e 0d 36 5b 3e
       0.5868329 0.24482433 0.4930148 0.21407337

convs.1.bias f4 [128]
000000 79 35 53 3d f2 03 6a bc e3 e8 5f be 9f 2d 49 3d
       0.051564667 -0.014283167 -0.21866183 0.049115773
000010 61 a0 17 be f3 6b 76 3d 00 e6 0b be 1f ed fc 3d
       -0.14807273 0.060161542 -0.13661957 0.12349915
000020 27 54 ef 3b e0 f6 c5 bc c3 3d 2c 3d 2e 8c be 3d
       0.007303733 -0.02416557 0.042051088 0.09304081
000030 f9 50 86 be 08 bf d7 ba d8 ea b8 3d e1 51 26 3d
       -0.26233652 -0.001646013 0.09029168 0.04060543
000040 6a 71 60 3d 78 2c 82 be df e3 8e 3d ab 80 07 bc
       0.05479566 -0.25424552 0.06977057 -0.008270423
000050 ac ce 71 3d cf 89 be bd fe 41 40 3d 45 a6 da 3d
       0.05903499 -0.09303629 0.046937935 0.10676245
000060 7d 3c 72 bc 89 c5 12 3e 31 42 44 3d a5 ca 64 3d
       -0.014784929 0.14333166 0.047914688 0.05585732
000070 0a 34 6e be cd 6a 1b bd bf 91 82 be 3e 51 64 3d
       -0.23262039 -0.03794365 -0.2550182 0.05574154
000080 71 89 83 be 00 94 ff bd 4f cb 92 3d f8 e7 a3 3d
       -0.25690797 -0.12479401 0.07167684 0.08003229
000090 2e 5d 8e be dc 4a 9c 3d 53 2a 89 3d 40 af 84 3d
       -0.27805465 0.07631466 0.06697526 0.06478739
0000a0 cd 7c cf 3c 61 0c a9 3d 93 9b 1f be 82 9b 00 3c
       0.025328064 0.08254314 -0.1558669 0.007849576
0000b0 76 c2 a8 3d 8f 5c a9 3d 86 8b 7f 3d 25 26 db bd
       0.082402155 0.08269607 0.06238892 -0.10700635
0000c0 73 67 89 3d 13 e0 a2 bd 4d ab ee bd f1 34 b5 3d
       0.067091845 -0.07952895 -0.11653767 0.088479884
0000d0 c4 a0 51 3d 39 80 83 be ee f5 de 3c 3d 68 8e 3d
       0.05117871 -0.25683764 0.027216878 0.069534756
0000e0 3b b0 f2 3b d5 eb b9 3d 70 43 bc 3d 36 44 e4 3c
       0.007406262 0.090781845 0.0919255 0.027864557
0000f0 88 4d 5b be 0e 44 8a 3d 23 d4 6c bd 17 30 8b 3c
       -0.21416295 0.06751262 -0.057819497 0.016990704
000100 40 a0 01 3d 61 50 3e bd 14 bf 51 3d a2 bf 5c be
       0.031646967 -0.046463374 0.051207617 -0.21557477
000110 70 1f 08 3e 75 c5 82 3d e4 fd 99 3b ab 8d 93 be
       0.13293242 0.06385318 0.0046994556 -0.28819022
000120 59 6f 87 be f5 0b 30 3d 14 b1 98 3d 7a 47 33 3e
       -0.2645214 0.042980153 0.0745565 0.17507735
000130 da 1a 3c be d2 04 5f bc a5 87 71 3d 0e 29 d5 3d
       -0.18369618 -0.013611989 0.05896725 0.10408221
000140 c3 71 61 be 7f 04 7d bc 91 ba 58 bd 2e 2a e5 3d
       -0.22016053 -0.0154429665 -0.0529123 0.11189686
000150 82 46 62 3d ab 13 58 be 73 d6 38 3d c2 00 2f 3d
       0.055243023 -0.21101253 0.04512639 0.042725332
000160 6d 96 84 3d b3 0d 07 3e 85 04 02 bc 86 59 2f bc
       0.06474004 0.1318882 -0.007935648 -0.010702496
000170 50 16 85 3d d6 26 c5 3d 77 2b f9 3d 00 bf 25 be
       0.064983964 0.09626548 0.121664934 -0.16186142
000180 a2 01 91 bd 09 93 d0 3d 45 b7 4a be 72 8d 57 be
       -0.070803896 0.10184295 -0.19796474 -0.21050051
000190 e1 1c 6e be 94 d7 52 3d c5 8f 1b 3d 4d d1 6c be
       -0.23253204 0.051475123 0.037978906 -0.23126717
0001a0 e9 bf 15 bb 30 ed f6 3d 0f 6b 38 be 9a 87 c0 bc
       -0.0022849983 0.12056959 -0.1800959 -0.02350216
0001b0 9f 6a 20 be 96 ff 7c bd 3a 3c fb bd ba f4 90 3d
       -0.15665673 -0.061767183 -0.12267347 0.07077928
0001c0 0b 31 99 3c 1c bd a0 bd 90 ca 49 3d fc 18 88 bd
       0.018700143 -0.0784857 0.049265444 -0.066453904
0001d0 9c 96 46 bc 8e bc a2 3d 4f a1 03 3e 4f be 3c 3e
       -0.012120869 0.0794612 0.12854503 0.18431972
0001e0 93 be 64 bc f2 6d 11 3d 36 31 8f bc 5c 4b 6d be
       -0.013961452 0.035505243 -0.01747952 -0.23173279
0001f0 bb 53 8e 3d 11 b8 20 3d a1 1f 87 3d 5b 27 e1 3d
       0.06949564 0.03923804 0.065978296 0.109938346

convs.1.lins.0.weight f4 [128, 64]
000000 40 49 f6 bd 5e 59 32 3b a8 b9 64 bd 16 8f cc bd
       -0.1202569 0.0027213912 -0.055841118 -0.09988229
000010 cf 6f bd bd 9a 71 82 3d b3 bf 0a be 44 4f 2d 3d
       -0.092498414 0.06369324 -0.1354969 0.04231192
000020 69 06 11 be 2d 76 f5 bc d0 46 e6 3c 75 f6 4a 3d
       -0.14162602 -0.029963577 0.028109938 0.049551446
000030 e6 b6 5e bd df 7d 49 bc 99 d3 5f 3d 77 89 c3 bd
       -0.054373644 -0.012298076 0.054645155 -0.09547704
000040 47 9f f8 bd 5b 3d b0 3c d0 e6 63 bd f4 5c 80 bd
       -0.12139755 0.021513632 -0.05564004 -0.062677294
000050 f8 63 93 3c ae 51 5f bd df cf 5a 3d 2a 9b 3e bd
       0.017992005 -0.054521255 0.053420898 -0.046534695
000060 f9 29 0b 3e 9e 3f e8 bd e8 df 29 3a 01 7f 51 be
       0.1359023 -0.11340259 0.0006480203 -0.20458604
000070 9a 99 9f 3d 04 7f 00 bd 7f 8b 43 be 0b 4d b1 ba
       0.07792969 -0.03137113 -0.19096182 -0.0013526989
000080 a0 d8 48 bd db 8a 4c 3b cc a3 20 3c 20 75 a3 bd
       -0.049034715 0.0031210694 0.009804677 -0.07981324
000090 51 36 7f bc 6d a5 8e 3c e8 13 89 bd 01 bd f9 bd
       -0.015576915 0.017412866 -0.0669325 -0.12194253
0000a0 13 72 9d 3a 5f 9f ac bc ab e7 4b 3d 09 1e 11 be
       0.0012012146 -0.021072088 0.049781483 -0.14171614
0000b0 19 b7 79 3d 5e ba 9d 3c 4f 56 78 bd 8b a0 61 3d
       0.06096563 0.019253906 -0.060629185 0.055084746
0000c0 e5 62 22 3c bc ba c5 bd d9 42 c6 3b a5 dc 14 bd
       0.009911274 -0.096547574 0.0060504493 -0.036343236
0000d0 48 b5 1a bb 2e 20 86 bd 62 fa 17 3d d5 66 18 be
       -0.0023606587 -0.065491065 0.037104018 -0.14882977
0000e0 45 78 a2 bd e2 ec db 3d a4 89 82 bd 80 d6 e7 bd
       -0.07933096 0.10738541 -0.06373909 -0.113202095
0000f0 72 60 45 3d 9a e8 a9 bc c1 bf e0 3d e6 28 71 bd
       0.04818768 -0.020740796 0.10974074 -0.058876894
000100 81 0a 8a bd ac 28 dc 3d 54 7c 30 3d b2 41 03 be
       -0.06740285 0.10749945 0.04308732 -0.1281803
000110 a2 fa 12 be 30 91 35 be 47 4b c1 bd 0f e2 f9 3d
       -0.14353421 -0.17731166 -0.09438186 0.122013204
000120 c7 3a 66 be 25 65 10 be 03 6c 22 bd a8 7f 71 bc
       -0.2248336 -0.14101084 -0.03965379 -0.014739908
000130 75 a6 46 be 5d 35 4a bc c9 e3 9a bd f8 fe b6 bd
       -0.19399436 -0.012341824 -0.07562978 -0.0893535
000140 9d 90 e9 bd ee 24 ef bc 2b 39 08 3d 3f 23 67 bd
       -0.11404536 -0.029192414 0.033257645 -0.056430098
000150 54 99 41 be e2 84 9c bd 81 6a de bb 4f 7c 6b bb
       -0.18906146 -0.07642533 -0.0067875986 -0.0035932248
000160 01 8e 79 3d a9 be 51 bd 87 76 93 bc d8 3d 2c be
       0.06092644 -0.05120722 -0.018000854 -0.16820467
000170 db aa bd bd 6d 75 b9 3d 9d b6 71 be 09 89 55 3e
       -0.09261104 0.090556 -0.23604818 0.20853056
000180 b2 7e b3 bc 97 eb 7b be 2d 73 24 bd 1b 04 13 be
       -0.021910999 -0.24601589 -0.040148903 -0.14357035
000190 04 91 1b 3e 58 4e ff 3d 57 38 7b be 6d 78 58 be
       0.15192038 0.12466115 -0.2453321 -0.21139689
0001a0 0b 07 6d 3d 2f d3 9f bd fa ea 66 bd 38 d7 ba bd
       0.057868045 -0.07803952 -0.056376435 -0.09123081
0001b0 d7 c8 58 bb 05 f8 9f 3d 64 61 6c 3d f4 09 b0 bd
       -0.0033078694 0.07810978 0.057710066 -0.085956484
0001c0 1c ae d6 3c 10 39 08 be 9d 80 45 be bf 2c ff 3c
       0.026206069 -0.13303018 -0.19287343 0.031149266
0001d0 99 39 cc bd bb bc a8 bd 4d c3 4d bd ec b1 8a bd
       -0.099719234 -0.082391225 -0.05023508 -0.06772217
0001e0 b1 55 f0 bd 03 b9 1e 3d fe 8d 91 be 20 92 90 bd
       -0.11735094 0.03875066 -0.28428644 -0.07059121
0001f0 92 c6 2b bd 6b 3b 78 be 3c 55 b1 3c f3 cc 41 be
       -0.04193742 -0.24241416 0.021647088 -0.18925838
000200 62 c3 37 3e 4e e9 fb 3d 31 24 5f 3e e5 5f 49 3d
       0.17945626 0.12300359 0.2179115 0.049163718
000210 33 0c 1e 3e 93 a9 2a be 24 97 c0 3e 5e 7a 6d 3e
       0.15434341 -0.1666625 0.3761531 0.2319121
000220 7b 5e 53 3e bd 02 30 3e 8d 3f 0d bd 32 28 e6 bc
       0.2064151 0.17188545 -0.034484435 -0.028095338
000230 0c 1e 8f 3e 9e d9 93 3d 1f 0c d9 bd d0 c9 89 3e
       0.2795261 0.072192416 -0.10598015 0.26911783
000240 92 03 e7 3d 77 89 02 3e 2f 3d 92 3e f6 50 95 3d
       0.11279978 0.12747751 0.28562304 0.07290833
000250 50 82 0d 3e f2 13 87 3e 6b c2 bd bd 8c e3 46 3e
       0.13819242 0.26382405 -0.09265598 0.1942274
000260 3e 72 50 3d 42 fc cc 3d e0 bc 87 3d eb bf 30 3e
       0.0508902 0.10009052 0.06627822 0.17260711
000270 0a 41 ac 3d bd de 53 3e ab 82 27 3e 6a 22 50 3c
       0.08410843 0.20690437 0.1635844 0.012703517
000280 9f ba 36 3e 32 f9 95 3e 05 13 ff 3d cc c3 79 3e
       0.17844628 0.29291683 0.124547996 0.24391097
000290 d1 a3 41 3e 49 e0 67 3d 62 02 8d 3e 67 a1 27 3e
       0.18910147 0.05661038 0.2754088 0.16370164
0002a0 cf e9 5b bd 4c c3 8c bc d0 ad 14 bd 22 f7 7a 3e
       -0.053689774 -0.017182969 -0.036298573 0.24508336
0002b0 0a 29 95 bd e4 f5 28 3e 64 b0 a8 3e 6e 19 d7 bd
       -0.07283218 0.1650005 0.32947075 -0.10502897
0002c0 3d 08 03 3e 6d fe 50 3e 0e 5d 19 3e cf 0f e4 3d
       0.12796111 0.20409556 0.14976904 0.11135828
0002d0 20 d1 2a 3e 00 53 5c 3e a0 c0 e0 bc 1a 08 5f 3e
       0.16681337 0.21516037 -0.0274356 0.21780434
0002e0 fc d4 68 3e 15 5a 48 3e 3c 70 4f 3e c5 66 a7 3e
       0.22737497 0.19565614 0.20257658 0.32695594
0002f0 81 dc 3d 3e 49 40 b8 3e 74 2a f7 3d 45 b5 3b be
       0.18541147 0.35986546 0.12068644 -0.18330868
000300 22 46 00 3d f9 2f 42 bd 90 e4 79 bc 21 53 83 3c
       0.031316884 -0.04740903 -0.015252247 0.01603085
000310 fe c4 ff bb 52 76 53 bc 67 bd f8 bd 49 20 4e bc
       -0.0078054657 -0.012906628 -0.12145501 -0.01258094
000320 24 30 2a be 89 8c 3c be e4 80 04 bd 56 38 cb 3d
       -0.16619927 -0.18412985 -0.032349482 0.099228546
000330 88 60 87 3c 94 a4 3a bd cd fb 05 3d a0 24 82 bd
       0.016525522 -0.04556711 0.03271084 -0.06354642
000340 14 14 e3 bd c7 32 52 bc 70 12 b9 bd 66 0e a1 3c
       -0.11087814 -0.012829489 -0.0903672 0.019660186
000350 0b c8 f8 bd 3d b6 30 3d d0 df da bc 3f 97 b4 bc
       -0.1214753 0.043142546 -0.02671805 -0.022044776
000360 00 43 c5 bc 8c e8 68 3d b2 e1 06 bb 27 d0 d1 3b
       -0.0240798 0.0568624 -0.0020581302 0.0064029875
000370 b1 29 16 be f8 63 70 bd b7 6a 07 be 7c 12 9a bc
       -0.14664342 -0.058689088 -0.13224302 -0.018807642
000380 f8 84 93 bd c7 a3 61 be de 0e cd 3c 38 0d b9 bc
       -0.07203096 -0.22035132 0.025031503 -0.022589311
000390 a5 4e d2 3c 54 8a 5d 3d d9 05 ec bc 83 03 44 be
       0.025672266 0.054086998 -0.028811382 -0.19141965
0003a0 57 cd 51 bb d1 58 ff bb d4 d8 0b bd 33 7b 38 be
       -0.0032013261 -0.00779257 -0.03414233 -0.18015747
0003b0 25 8e 78 bc a7 1d 89 bc 93 bd 87 bd b3 f1 39 ba
       -0.015170609 -0.016737772 -0.06627955 -0.0007093206
0003c0 f8 6c fc 3c 43 0f 0b bd 2b 16 8e 3d 19 8d d0 bd
       0.03081368 -0.0339501 0.06937822 -0.10183162
0003d0 70 62 48 3d be fa 34 bd 0c 84 69 3d 39 f5 8e bd
       0.048922002 -0.04418444 0.057010695 -0.06980366
0003e0 69 12 98 3c 4a c7 e5 bd 1a fe 75 3d 14 51 1f be
       0.018563466 -0.11219652 0.060056783 -0.15558273
0003f0 e9 98 6b 3d 9b d1 95 bd df f9 0b bd 37 d0 37 3d
       0.057518873 -0.0731537 -0.034173843 0.044876304

convs.1.lins.1.weight f4 [128, 64]
000000 60 0c b0 3d 1d 29 6e bd 14 c4 a2 3d 48 75 03 3e
       0.0859611 -0.058144677 0.07947555 0.12837708
000010 f9 84 d7 3c 64 82 0c 3a 7d 1b ee 3c e7 8c 86 bb
       0.026308523 0.0005360006 0.029065842 -0.0041061523
000020 b2 e5 bb 3b ba f7 4f 3d 8b 2a 15 be 23 2b 6e 3d
       0.005734169 0.05077336 -0.1456701 0.058146607
000030 ca 45 f5 3d c6 79 16 3e bf 9e 96 bd 0a a7 f6 3d
       0.11976202 0.1469489 -0.07354497 0.12043579
000040 95 78 5a bd ed 89 9d 3d 69 a2 12 3e 02 82 c7 39
       -0.053337652 0.07692323 0.14319767 0.000380531
000050 a8 74 b8 b8 2d 67 a7 ba 9d ec 2f bd ad b2 d2 3d
       -8.7955326e-05 -0.0012771838 -0.04295026 0.10287986
000060 10 b7 81 bc 3e 0b 92 3c 4c e6 40 bc 32 bc f8 3c
       -0.015834361 0.017827626 -0.011773657 0.030363176
000070 e4 0c 90 bc d9 3a cb 3d 10 58 1d 3e 1f d5 b8 3d
       -0.017584272 0.09923334 0.15365624 0.090250246
000080 53 cc 80 bc a3 25 45 3d 0b 5b 54 3d 81 f8 b0 3d
       -0.01572243 0.048131596 0.051844638 0.08641148
000090 7b f7 cd 3c 01 a7 eb 3c 5f e0 98 3b 78 18 b9 bd
       0.025142422 0.028766157 0.004665419 -0.0903787
0000a0 bb 4d 87 3c 53 34 1e bc 89 36 38 3e 97 90 9c 3b
       0.016516557 -0.00965603 0.17989554 0.0047779786
0000b0 d8 8c 1a bd 54 5c 3a bd 4c 56 fb 3d be 62 93 bd
       -0.037731975 -0.045498207 0.12272319 -0.07196568
0000c0 8c 9b b7 3c 9e 9f 01 3e 10 2b 04 3e d1 80 f1 3c
       0.022413038 0.12658545 0.12907052 0.02948037
0000d0 ad a1 a4 bd c5 b8 54 3d aa 22 f6 bc f2 2b d3 3c
       -0.0803865 0.051934022 -0.030045826 0.02577779
0000e0 a1 42 85 3c e9 20 c2 3d 8b 49 4d bc 51 1a 87 bb
       0.016267123 0.09478933 -0.012529741 -0.00412301
0000f0 f7 2f a7 3c c4 ec 59 3d 9a 3a 70 bd ed 96 fd bd
       0.020408614 0.053204313 -0.058649637 -0.123823024
000100 e0 7d a6 3d 05 c9 b9 3d 34 19 37 bd c0 53 19 3e
       0.081294775 0.090715446 -0.04470177 0.14973354
000110 51 51 40 3d b6 8f e1 bd 48 6e 3d 3e 79 3a 20 3e
       0.04695255 -0.11013739 0.184991 0.15647306
000120 ef 75 2f 3e 78 aa 1d 3e ea cb cc bd 10 5c 32 bc
       0.17134832 0.1539706 -0.09999831 -0.010886207
000130 9c 38 44 3d 10 f3 0b bd c3 0f 74 3d 21 67 a1 3d
       0.04790555 -0.03416735 0.059585344 0.078809984
000140 13 ae 09 3e ad e0 a5 bc 83 7d 85 be ba 47 ce 3c
       0.1344531 -0.020248735 -0.2607232 0.025180686
000150 c1 45 df 3d ab cb cb bc 4e 02 52 bd a1 8d 42 3d
       0.109019764 -0.02487739 -0.05127173 0.04749835
000160 75 8c 0a 3d 0d 2e e8 bd de 26 f8 bb 55 44 e7 3c
       0.033825357 -0.113369085 -0.0075729927 0.028230825
000170 56 fc ef 3c c0 f3 6b bd 4f 30 2f 3e e9 0e 93 3a
       0.029295128 -0.057605505 0.17108272 0.0011219654
000180 1e c4 2e 3e 54 dc d1 3d d6 76 ee 3d e3 57 f8 3d
       0.17067 0.102471024 0.1164376 0.12126138
000190 d3 52 53 3d 91 4e ec 3d df 1b f8 3d 56 3a f2 3d
       0.05159266 0.11538423 0.12114691 0.11827533
0001a0 7f 22 c1 bd 1a 6f de bd 3d 6f 86 be 94 c5 9c 3e
       -0.09430408 -0.10861035 -0.26256743 0.3061949
0001b0 73 1a f4 3d 24 95 43 3d 37 3e ed 3d 85 11 99 bd
       0.11919107 0.047749653 0.11584132 -0.07474045
0001c0 1c ec 51 bc 3c 14 24 3e f7 f2 93 3e 34 ea bd 3d
       -0.0128126405 0.16023344 0.28896305 0.09273186
0001d0 76 c4 ca 3d 5a 3e 45 3e 48 21 ba 3d a7 df 13 3e
       0.09900753 0.19262066 0.09088379 0.14440785
0001e0 c2 7c a1 3d 83 66 e6 3d df 84 24 3e 2a 77 df 3d
       0.07885124 0.11250021 0.16066311 0.109114006
0001f0 0c 81 b0 bd 39 f6 fc bd 4e 0a 91 3d 01 e1 fa bd
       -0.08618364 -0.12351651 0.070820436 -0.12249947
000200 b6 37 52 bd 15 68 1a be f7 9d 1b be 75 23 41 bd
       -0.05132266 -0.15078767 -0.15196978 -0.047152955
000210 6e 5f 8d bd e0 e9 4f bd 79 fe 14 be 2c a9 ab bc
       -0.069029674 -0.05076015 -0.14550199 -0.02095469
000220 e1 c2 18 be c2 47 1f be f8 2c be bd 7c d5 48 bd
       -0.1491809 -0.15554717 -0.09285921 -0.04903172
000230 fc ed 62 be d2 c4 2d be 54 53 29 bc 2b 3e 75 be
       -0.22161096 -0.16969612 -0.010334808 -0.23949496
000240 f3 cc c9 bd 77 45 e5 bd 3c 50 a6 be b1 bd a7 bd
       -0.09853544 -0.1119489 -0.3248309 -0.08190478
000250 f5 64 41 be f2 aa f9 bd 61 cb c4 3b 33 4c 34 be
       -0.18886168 -0.12190808 0.00600569 -0.17607193
000260 b1 fc 32 bd 31 77 b8 bd 02 3b 31 bd 7a 9e 79 bd
       -0.043698017 -0.09007109 -0.043269165 -0.06094215
000270 5a 3f c9 bc d5 a8 03 be f4 33 81 bc 7d ff da bd
       -0.024566341 -0.12857373 -0.015771843 -0.10693262
000280 e3 0a 20 be 57 db 55 be 87 c1 75 bb 82 18 8c be
       -0.15629153 -0.20884453 -0.0037499384 -0.27362448
000290 15 45 00 3c 43 5c 83 3b d8 01 62 be 48 57 be bd
       0.00782897 0.004008801 -0.22071016 -0.09293991
0002a0 0c 8f a3 bd e3 96 c3 3c 57 28 c6 be 80 46 b2 bd
       -0.079862684 0.02387566 -0.38702652 -0.08704853
0002b0 da 1e 1a bd 25 17 f0 bd d3 c4 92 be 27 74 83 bd
       -0.03762708 -0.117231645 -0.2866579 -0.06418639
0002c0 e6 04 15 bc b2 f2 46 bc d2 e7 8d bd 67 7a 08 be
       -0.009095406 -0.012142824 -0.06928982 -0.13327943
0002d0 63 48 a5 bd fe 81 f9 bc 1f cd 84 bd 6e 0d 21 bd
       -0.08070447 -0.030457493 -0.06484436 -0.03931945
0002e0 38 ce 1c be 9e 83 b9 bd 7b 5d 3e be 9a da 21 be
       -0.15313041 -0.09058307 -0.18590347 -0.15806046
0002f0 6e 1e 96 be f1 ed 2a be 47 a0 d4 bc 3b 33 2a 3d
       -0.2932009 -0.1669233 -0.025955332 0.041552763
000300 dc e8 47 3d cb 20 78 3d 99 de aa bc 3e 12 4c 3c
       0.048806056 0.06057815 -0.020858096 0.012455521
000310 e8 cc 62 3d 02 e2 f3 bc a4 27 8d 3c ec 98 aa bc
       0.055371195 -0.029770855 0.017230816 -0.020824872
000320 c6 39 a2 3c 6f ea a5 bd ee 97 6b bc f8 e7 91 3d
       0.01980294 -0.08101355 -0.014379485 0.07124323
000330 cf f3 7f 3c b4 39 b0 bd bf 44 86 bd b9 70 86 bd
       0.015622093 -0.08604756 -0.06556081 -0.06564469
000340 63 c3 fb 3d c4 ba 9d 3d 27 96 d7 3b 61 3e c2 bc
       0.122931264 0.07701638 0.006579179 -0.023711385
000350 73 30 95 3d f9 ca b6 bc 62 14 9e bc 52 ef 5b bc
       0.072846316 -0.022313582 -0.019296829 -0.013423758
000360 59 54 a5 3c 7c 58 c8 bc 49 b6 a3 3d 15 4e 96 3d
       0.020181822 -0.024456255 0.079937525 0.07339112
000370 15 e2 d3 bd 9e 39 be bc 28 1f 9d 3d 2f 0a a3 3c
       -0.10345856 -0.023220833 0.07671958 0.019902317
000380 55 bf bb 3c 22 10 5f bc b1 7f f3 bc 04 08 37 3d
       0.022918383 -0.013614686 -0.029723974 0.04468538
000390 09 61 c4 bb f6 77 0f bd 20 15 f0 3d ba 51 07 3d
       -0.005993013 -0.035026513 0.11722779 0.033036925
0003a0 4d e0 cf bb 85 47 1c bc 4d ad 90 3d b9 82 c5 bc
       -0.0063438774 -0.009538536 0.070643045 -0.024110185
0003b0 d7 b9 02 bd 19 65 5e bd 0d 88 93 bd 49 38 44 3d
       -0.031915512 -0.054295633 -0.07203684 0.04790524
0003c0 28 da 70 3d 30 d8 80 bd 71 e3 17 3c 38 57 6c 3d
       0.0588018 -0.062912345 0.009270535 0.057700366
0003d0 1a f5 b3 3c 78 1b 3f 3c 22 91 0a bd 5d 41 cf bc
       0.02196746 0.011664264 -0.033829816 -0.025299722
0003e0 2e 0b 8a bd 24 78 38 3d 45 ed fc 3d 21 9e 7a 3d
       -0.067404136 0.04503645 0.12349943 0.06118596
0003f0 b3 d1 ce ba 19 32 7d bd 76 ce ae 3c aa 58 3d 3d
       -0.0015779048 -0.061815355 0.021338683 0.046227135

convs.1.lins.2.weight f4 [128, 64]
000000 d5 67 63 3d 24 3f 80 bc 42 ca a7 bc 24 87 87 3d
       0.055518944 -0.015655108 -0.020482186 0.06617573
000010 dc 03 20 3c 37 78 9e bd e3 be 8f bc 81 13 a8 bd
       0.009766545 -0.07737773 -0.017547077 -0.08206845
000020 72 ea 81 3d 8f 12 98 bd 0d 75 5e bd 04 2f 86 3b
       0.06343545 -0.07425415 -0.054310847 0.00409496
000030 5c 46 14 bd 19 43 cd 3b ea 31 ea 3d 39 bd 5d 3c
       -0.036199912 0.006264102 0.114353016 0.013533884
000040 59 d2 67 3d 74 82 07 be 53 6a 97 bd 37 63 16 3b
       0.056597088 -0.13233358 -0.073933266 0.002294732
000050 42 c8 fa bd d0 07 08 3e b0 6c 8a 3c bb 6c 7f 3d
       -0.122452274 0.1328423 0.01689753 0.062359553
000060 c8 b5 76 bd bb 14 03 be 6d df ee 3d 9a a7 e0 bd
       -0.060231954 -0.12800877 0.11663709 -0.109694675
000070 19 28 c2 3d 0a 65 62 bd a4 ce 77 3d 44 49 41 bd
       0.09480304 -0.05527214 0.060499802 -0.047189012
000080 07 ec 2c 3d 4a 29 9a 3d 99 14 28 bd 24 ec 2c 3d
       0.04221728 0.075274065 -0.04103527 0.04221739
000090 2f 0a 57 bd 05 12 e0 bc 0e ba db 3c 4c f3 6a 3d
       -0.052499946 -0.027352342 0.026822116 0.057360932
0000a0 f2 7e 07 bd de 9f 32 3d cf 80 fe bd 12 d1 0b 3e
       -0.03308005 0.043609492 -0.12426912 0.13653973
0000b0 f9 0f 6d 3d e0 cb 00 bd 9c e3 21 3d 57 d0 fe bc
       0.05787656 -0.03144443 0.039523706 -0.031105204
0000c0 4b 3c 86 3d 1d d0 b4 3b 6b 8e 50 3d ec 50 45 bc
       0.06554469 0.005517973 0.05091707 -0.012043219
0000d0 95 69 e4 3c 29 16 d3 3d 6f 28 cc 3d 7c 85 1b 3e
       0.027882377 0.10306961 0.099686496 0.15187639
0000e0 2c 90 49 3d 8e bd 7e bd 17 88 a5 bd e7 af b1 3c
       0.04920976 -0.062192492 -0.08082598 0.021690322
0000f0 ce 07 d5 bd 37 5b 00 be 92 af c0 3c 35 2f c9 3d
       -0.10401879 -0.12534796 0.023521218 0.09823457
000100 3f c4 c4 bc d5 4b 62 bd 43 b9 fd bb 89 31 d9 bd
       -0.024019359 -0.0552481 -0.007743032 -0.10605151
000110 22 f1 5e bd 26 d5 42 bb ed 83 93 bd 48 d4 92 3d
       -0.05442918 -0.0029729097 -0.07202897 0.07169396
000120 98 cd a4 3c e4 14 18 bd 6c 9a a9 3d 37 2c 95 bd
       0.020117566 -0.037129298 0.08281407 -0.07283824
000130 6e 12 d1 bd 86 ec 5c 3b 4f fc 2c 3d 0d ea 64 bd
       -0.10208593 0.0033710315 0.042232808 -0.05588727
000140 3f 48 be bd b5 f7 bd 3c 82 e8 b4 bc 24 03 30 bd
       -0.092911236 0.023189405 -0.022083525 -0.042971745
000150 62 3c af bc f3 30 1c bd 52 11 12 3d bc ca 97 3d
       -0.021391097 -0.03813262 0.03566105 0.074117154
000160 6c 1b 50 3d b6 d4 46 bd f9 50 46 bd 76 4c 75 bd
       0.0508074 -0.0485427 -0.048417065 -0.059887372
000170 72 2d c8 bc cf 2e cf bd f0 39 1e bd 74 b7 c2 3a
       -0.024435733 -0.1011635 -0.038629472 0.0014855699
000180 50 5c 04 bd 88 09 1f bb d1 2d 55 bd 6e 44 21 3d
       -0.0323146 -0.0024267156 -0.052045647 0.0393719
000190 b5 44 97 bd 71 aa 6c bd 5a 16 18 bc 4a b9 35 be
       -0.07386152 -0.057779733 -0.009282673 -0.17746463
0001a0 a3 56 df bd 9e 72 19 3d 2c 75 ec 3c 4e 30 ed bc
       -0.109051965 0.037462823 0.028864466 -0.028953698
0001b0 28 ba c1 bb 3e 3e 24 3d de 10 dc bd 0c f5 95 3c
       -0.005912084 0.04009842 -0.10745405 0.018305324
0001c0 d3 23 99 3d aa f4 a5 bd 26 68 4f 3b 88 3f 12 3d
       0.07477536 -0.081033066 0.003164777 0.03570512
0001d0 f1 47 2b be 0e 17 26 3d 6b c0 cc bc cb c6 02 be
       -0.16726662 0.04054933 -0.024994096 -0.12771146
0001e0 bc 24 7f 3d f9 5d ed bc f2 1c 43 3d d2 d5 1f be
       0.062290892 -0.028975474 0.047635026 -0.1560891
0001f0 b3 40 04 3e 8c 1f 68 bd 3f 90 10 3e 4b ad 18 be
       0.12915306 -0.05667071 0.14117526 -0.14909856
000200 04 af 6b bc 81 40 5d 3d 91 52 a0 3c f5 79 95 bd
       -0.014384989 0.054016594 0.01957062 -0.07298652
000210 1b c0 83 bd d6 bb 55 bd 4b 09 a0 bd c0 5b 40 bd
       -0.064331256 -0.052181087 -0.078142725 -0.0469625
000220 c2 41 47 bd 06 b6 f2 bc 9a 31 ae 3d d4 d1 1c 3c
       -0.048646696 -0.029627811 0.085055545 0.009571511
000230 77 18 8a bc 54 76 c1 3c 28 42 7e bd 25 74 50 3e
       -0.016857369 0.023615994 -0.06207481 0.20356806
000240 1d e2 eb bd a2 a6 84 3d 23 f6 53 3e 0c ed 12 3d
       -0.11517737 0.06477095 0.20699362 0.035870597
000250 ec ca 05 3e a9 3e 58 bc 6d 4a e7 bd d1 fe 03 bd
       0.1306569 -0.013198533 -0.112934925 -0.032225434
000260 78 cc bc 3d 18 26 1e 3e 46 65 24 3d ec 49 56 3d
       0.09218687 0.15444219 0.040135644 0.05231659
000270 a6 3c bd bd 89 f8 a1 3c 6b e6 dd bc 42 ef 54 bc
       -0.092400834 0.019771831 -0.02708741 -0.012996497
000280 56 19 09 3d 09 42 1d 3e f9 a9 60 bd 02 7c c4 3d
       0.033471428 0.15357222 -0.0548496 0.09593965
000290 8d ae f7 bc aa f1 06 3e 27 88 85 3d f3 d0 04 3e
       -0.0302346 0.13178125 0.065201096 0.12970333
0002a0 fe c6 bc bc 86 38 14 3d 15 84 22 3e d3 d1 67 bd
       -0.023044106 0.036186717 0.15870698 -0.05659659
0002b0 3c 7e 52 bd 58 98 dc 3b 8d 9a fc 3c e7 f3 0a bd
       -0.051389918 0.006732028 0.030835414 -0.03392401
0002c0 22 43 af 3d 4c c6 9e 3d fe 08 3c bd 36 ac a1 bd
       0.085577264 0.07752666 -0.045907013 -0.07894175
0002d0 d4 2e 84 bb 83 f0 e5 3c 76 8e 14 3d be 66 78 bc
       -0.0040339027 0.028068786 0.036268674 -0.015161214
0002e0 41 fb ae bd 87 ac f9 3d da 12 ed 3d 50 52 07 bd
       -0.08544017 0.1219111 0.11575861 -0.033037484
0002f0 41 de f6 3b 2a ce 40 3e 92 d0 3f bd cb 08 28 3d
       0.007533819 0.18828645 -0.046829768 0.04102401
000300 71 c4 ce bd 3c 4e 01 bd 46 87 66 3d 9b ab fe bc
       -0.10096062 -0.03156875 0.05628135 -0.031087687
000310 1e 6a 30 bc 8c f6 eb bb db 03 28 bd 4e 46 e3 3c
       -0.010767488 -0.0072010215 -0.0410193 0.027743485
000320 19 4a 02 be 60 92 01 3c c2 8e 14 bd 3a d5 b9 bd
       -0.12723579 0.007908434 -0.036268957 -0.09073873
000330 63 f1 83 bc e7 b4 20 3d e3 cd 86 bb 5f bb dd bc
       -0.016106313 0.039235022 -0.004113899 -0.027066885
000340 1c 86 91 bd 15 0c 9f 3d 60 d6 f5 3b b3 c1 9b bd
       -0.071056575 0.07765976 0.007502362 -0.076053046
000350 47 09 2c 3d 32 69 01 3c 54 3c 65 bd 7a 07 34 bd
       0.042001035 0.007898616 -0.055965737 -0.043952443
000360 22 85 b6 3d 64 93 c5 3c ac 57 26 bd 2c d5 2e be
       0.08912112 0.024118133 -0.040610954 -0.17073506
000370 97 7b bb bd ee 54 ad 3d 41 0c 29 bd b4 b1 66 bd
       -0.09154432 0.08463465 -0.04127145 -0.056321815
000380 c5 08 a6 3c 33 cf 18 3c e6 83 15 3d 73 b6 97 bd
       0.020267854 0.009326744 0.03650274 -0.07407846
000390 55 c0 e5 3d ef 0a b4 3c 00 c0 3e 3c 06 5b 31 3d
       0.11218325 0.02197787 0.011642456 0.043299697
0003a0 b0 cc f7 3c d6 86 0a 3e 84 cb e8 bb b1 fa 11 bc
       0.03024897 0.13527998 -0.007104339 -0.008909867
0003b0 95 c3 61 3d 8c ff 4e bb cd bd 1f 3e 88 91 8d bd
       0.055118162 -0.0031585423 0.15599747 -0.069125235
0003c0 e3 66 f4 bd 71 8c 0a 3d d2 7e 86 bd 56 d6 f4 3d
       -0.119336866 0.03382534 -0.06567158 0.11954944
0003d0 ea 71 4e bd ee 2d 6a 3b b7 73 53 bb 7d 23 d1 bd
       -0.050401606 0.0035732943 -0.0032265016 -0.10211847
0003e0 3a 4b e7 bc a1 a3 a5 3d 33 fc ad 3d de 22 78 bd
       -0.028234113 0.0808785 0.08495369 -0.060580127
0003f0 5c 05 a9 3d 1a f4 83 3c 01 97 6e 3c 42 b7 53 bd
       0.08252975 0.016107608 0.014562369 -0.05168844
