Entrenar/runs/118/GNN_local/04-12_17:25:47/weights/best_model.pt (torch, 186914 bytes, 29 tensors)

convs.0.bias f4 [64]
0	0x3f07ac92	0.52997696
1	0x3e082f54	0.13299304
2	0xbe07118d	-0.13190289
3	0x3ecee1b8	0.40406585
4	0x3ecd7c4d	0.40133896
5	0xbf31ff6f	-0.69530386
6	0x3ecc7cfd	0.39939108
7	0xbdc75604	-0.09733203
8	0x3ec46e7f	0.38365552
9	0x3ef70c37	0.48251507
10	0xbf64ce07	-0.8937687
11	0xbf520ee6	-0.82053983
12	0x3e9a2b61	0.3011122
13	0xbea6aa02	-0.3255158
14	0xbed827c8	-0.4221785
15	0x3b3d43f6	0.002887962
16	0x3ec3f003	0.38269052
17	0xbd5e7504	-0.054310814
18	0xbe8260b4	-0.25464404
19	0xbe81dfd2	-0.25366074
20	0x3e07563e	0.13216493
21	0xbf3c030d	-0.73442155
22	0xbf801c24	-1.0008588
23	0x3d8794a9	0.066201515
24	0x3d353f94	0.044250086
25	0xbe2d1989	-0.16904272
26	0xbf1f37c8	-0.6219449
27	0x3e49bfe1	0.19702102
28	0xbe974802	-0.29547125
29	0xbd764baf	-0.06013077
30	0x3ef30371	0.47463563
31	0xbf67274a	-0.90294325
32	0x3ee21608	0.44157434
33	0x3e4779e4	0.19480091
34	0xbe52132f	-0.2051513
35	0x3dd2a56f	0.1028546
36	0x3d1f82d2	0.03894312
37	0xbdd163ea	-0.10224135
38	0x3e969555	0.29410806
39	0x3e45d906	0.19321069
40	0xbf8f51c6	-1.119683
41	0xbf1d397e	-0.6141585
42	0xbe968233	-0.2939621
43	0x3ef589d5	0.4795672
44	0xbea562ee	-0.3230204
45	0xbd758813	-0.059944224
46	0x3e443e41	0.19164373
47	0xbf58c33a	-0.8467289
48	0xbcf7aca8	-0.030233696
49	0x3f31fa9b	0.6952302
50	0x3f1cc17e	0.61232746
51	0xbe1e870e	-0.15481207
52	0x3ef9ecb8	0.48813415
53	0x3eea25fb	0.45732102
54	0xbe9ec0da	-0.3100651
55	0x3f0372ff	0.51347345
56	0x3ecaa772	0.39580876
57	0xbbe0f009	-0.006864552
58	0x3e286335	0.16444094
59	0x3e98e030	0.2985854
60	0xbea5a2b7	-0.32350704
61	0x3b22ad95	0.0024822701
62	0x3cb4b361	0.02205819
63	0xbf1b66de	-0.6070384

convs.0.lins.0.weight f4 [64, 2]
0	0xbdc1d7c4	-0.09464982
1	0xbdda762c	-0.10667071
2	0x3e431818	0.1905216
3	0x3e2bd056	0.16778693
4	0xbe755589	-0.2395841
5	0xbe2c315e	-0.16815707
6	0xbe0f84ae	-0.14015457
7	0x3cf8e2e5	0.03038163
8	0xbd80f616	-0.06296937
9	0xbd8c2288	-0.06842524
10	0x3f45865f	0.7715816
11	0xbefdee20	-0.49595737
12	0x3dcee305	0.10101894
13	0x3d900143	0.07031491
14	0x3e532b9d	0.20622106
15	0x3e821c2c	0.25412118
16	0xbdd7d7b3	-0.10539188
17	0xbd845b4d	-0.06462727
18	0xbe8108f9	-0.25202158
19	0x3dfe1d29	0.124079056
20	0xbf119e05	-0.56881744
21	0x3ed8230b	0.42214236
22	0xbf08df21	-0.5346547
23	0x3e298e63	0.16558222
24	0xbcf80321	-0.03027493
25	0xbc8bff52	-0.01708952
26	0x3cc9540d	0.024576211
27	0xbcacad61	-0.021078767
28	0x3f4761ef	0.7788381
29	0xbf4e3f02	-0.8056489
30	0x3d3ffeba	0.046873786
31	0x3b1a8655	0.0023578603
32	0x3e1dc6a0	0.154078
33	0x3d434343	0.047671568
34	0xbe6c0955	-0.23050435
35	0x3cfc235a	0.030778576
36	0x3cbc96f3	0.023021197
37	0x3d0e7dba	0.03478787
38	0xbeae0555	-0.33988443
39	0xbe8ad55e	-0.2711591
40	0x3e1c510a	0.15265289
41	0xbde41b13	-0.111379765
42	0xbe287779	-0.16451825
43	0xbd91bbe7	-0.07115918
44	0xbf035638	-0.51303434
45	0x3f60fe8c	0.8788841
46	0xbd94a828	-0.07258636
47	0xbd2d4a2c	-0.042307064
48	0xbee86325	-0.4538814
49	0xbee78819	-0.45221022
50	0xbd48e1ef	-0.049043592
51	0x3e3392bc	0.17536443
52	0x3e77bd61	0.24193336
53	0x3f25af6c	0.647208
54	0x3c8810ab	0.01660951
55	0x3db57f1e	0.08862136
56	0x3f04986c	0.5179508
57	0x3ecd14b4	0.40054858
58	0xbd0ad057	-0.033890095
59	0x3dff5737	0.12467807
60	0x3de6a14a	0.11261232
61	0xbd3fee24	-0.046857968
62	0xbd5c9e22	-0.053861745
63	0xbe90e9e4	-0.28303444
64	0x3e9ffdb9	0.31248263
65	0xbe6ba5bc	-0.23012441
66	0x3cf5b1b3	0.02999196
67	0x3bd8e259	0.0066187796
68	0xbeed9305	-0.4640123
69	0x3e3b29cc	0.18277663
70	0x3bffaf0a	0.0078028487
71	0x3b0bb1f1	0.0021315778
72	0x3ec17cac	0.3779043
73	0xbf179e12	-0.5922557
74	0x3f34f2fa	0.7068325
75	0x3f275b13	0.65373343
76	0xbd6e6adc	-0.058207378
77	0xbdd11ce5	-0.10210589
78	0xbcc2e494	-0.023790635
79	0x3cdbf4ce	0.02685013
80	0x3d3e4d26	0.046460293
81	0x3e2bd371	0.16779877
82	0x3efd8527	0.4951565
83	0x3eff220a	0.49830657
84	0xbd18fbac	-0.037349388
85	0x3c127de3	0.008941147
86	0xbdac3cc4	-0.084100276
87	0xbe10fadb	-0.14158194
88	0xbf4573da	-0.771299
89	0xbf4061a4	-0.7514899
90	0x3e9c929f	0.30580613
91	0xbee0d577	-0.4391286
92	0xbdfb22f6	-0.12262528
93	0x3d399e08	0.045316726
94	0x3f4fbed6	0.8115057
95	0x3f2b3854	0.66882825
96	0xbec86e5b	-0.39146695
97	0xbebc2e5b	-0.36754116
98	0xbc6af490	-0.014340535
99	0x3e3ffc13	0.18748502
100	0x3d6baf37	0.057540145
101	0x3c98ab79	0.018636452
102	0x3c67c5e9	0.014146307
103	0x3e8f4265	0.27980343
104	0x3b604e69	0.0034226424
105	0xbc14b4f8	-0.009076349
106	0x3e4e5003	0.2014771
107	0xbdb9b958	-0.09068555
108	0xbeae60ff	-0.34058377
109	0x3e94432a	0.28957492
110	0x3d922067	0.071350865
111	0x3dd14868	0.102188885
112	0xbdec36fd	-0.11533926
113	0x3d7fb5f1	0.062429372
114	0x3ecd958c	0.40153158
115	0xbe9f6738	-0.31133437
116	0x3be11a1d	0.006869568
117	0xbcc003bc	-0.02343928
118	0xbdd708e5	-0.10499743
119	0x3d0cff13	0.034422945
120	0x3be6950e	0.0070368117
121	0xbd847a87	-0.06468683
122	0x3b2ba5bb	0.0026191312
123	0xbba155b5	-0.004923547
124	0xbee0aeaa	-0.43883258
125	0x3edb9c96	0.42892903
126	0xbe5b2a95	-0.21402963
127	0xbf16f636	-0.5896944

convs.0.lins.1.weight f4 [64, 2]
0	0xbea3aad8	-0.3196628
1	0x3eb7bf4f	0.35888144
2	0x3d118b5e	0.0355333
3	0x3e1e3798	0.15450895
4	0xbea89f63	-0.32934102
5	0xbe13ada8	-0.14421713
6	0xbde62f10	-0.11239445
7	0x3d875547	0.06608062
8	0xbdd429fb	-0.1035957
9	0x3e53eb8c	0.20695323
10	0x3e9c6768	0.30547643
11	0xbc3ba8bd	-0.011453805
12	0xbd8e2019	-0.06939716
13	0x3ca2531a	0.019815017
14	0x3cd8d819	0.02647023
15	0xbbf3d9e3	-0.0074417456
16	0xbd5d866b	-0.05408327
17	0xbed1efc1	-0.4100323
18	0x3dfb6489	0.12275035
19	0x3dc68004	0.09692386
20	0xbebfc87f	-0.37457654
21	0x3e8a042d	0.2695631
22	0xbed7d4b0	-0.42154455
23	0x3f02668d	0.5093773
24	0x3dc10c55	0.0942618
25	0xbe383e31	-0.17992474
26	0x3e4d5957	0.20053612
27	0xbe968fb1	-0.29406503
28	0x3d10d478	0.035358876
29	0x3ddb9480	0.107216835
30	0xbe83dbba	-0.25753576
31	0x3e04cf1c	0.12969631
32	0xbc968b56	-0.018376987
33	0x3e70834d	0.23487587
34	0xbdd9b6af	-0.10630547
35	0x3ea6bdc7	0.32566664
36	0x3daf1824	0.08549526
37	0xbe29f845	-0.16598614
38	0x3ead934b	0.33901438
39	0x3e176c59	0.14787425
40	0x3ec65a90	0.3874097
41	0xbe5c56ad	-0.21517439
42	0xbf0a7e82	-0.54099286
43	0xbc59f07c	-0.013301965
44	0x3e9eeffa	0.31042463
45	0x3ea9ce6a	0.33165294
46	0x3d8510ff	0.064973824
47	0xbe19d668	-0.15023196
48	0x3e8ea4f3	0.2786022
49	0x3d8c4531	0.06849135
50	0x3e3e253e	0.18568894
51	0x3e708635	0.23488696
52	0xbe908e94	-0.28233778
53	0x3f76aed8	0.9636054
54	0xbdeeeef9	-0.11666674
55	0xbdc18de2	-0.0945089
56	0xbe75a896	-0.23990092
57	0x3db7ab9b	0.08968278
58	0x3ecc9eff	0.39965054
59	0xbe5462a9	-0.20740761
60	0x3e7dcad6	0.24784407
61	0xbe6a555f	-0.22884129
62	0x3f2d59b0	0.6771498
63	0x3dbbc4d6	0.09168403
64	0xbef1cd98	-0.47227168
65	0xbe3a2234	-0.1817711
66	0xbe8e0c2b	-0.27743658
67	0x3d0fb5b1	0.035085384
68	0xbf30081e	-0.68762386
69	0xbf018b87	-0.50603527
70	0xbda0518a	-0.07828052
71	0xbdd807d7	-0.1054837
72	0x3e6e3f3b	0.23266308
73	0xbf0d195b	-0.55116814
74	0xbe9e0b2b	-0.30867895
75	0xbebcfc89	-0.3691142
76	0xbb434e2c	-0.0029801233
77	0xbe4007e0	-0.18753004
78	0x3e4e552a	0.20149675
79	0xbe39f26d	-0.18158884
80	0x3eac0eb6	0.33604974
81	0x3f487d76	0.7831644
82	0x3b94f0ef	0.004545323
83	0xbd8c715a	-0.068575576
84	0xbe376e94	-0.17913276
85	0xbcf257af	-0.029582826
86	0xbdbe8fec	-0.09304795
87	0x3e8df0c1	0.27722743
88	0x3e14cc14	0.14530975
89	0xbe4ea7f6	-0.2018126
90	0x3e430e39	0.19048394
91	0x3f2e97bd	0.68200284
92	0x3e92f5c2	0.28703123
93	0xbdd4fce4	-0.103997976
94	0x3ed62759	0.41826895
95	0xbf136c1f	-0.57586855
96	0xbd4bbb3a	-0.0497391
97	0x3e9d01b0	0.3066535
98	0x3e57cda0	0.21074533
99	0x3e9f5a2d	0.31123486
100	0xbd30b37d	-0.043139923
101	0xbdf9e213	-0.12201323
102	0xbdb89215	-0.09012238
103	0x3f3928d3	0.7232792
104	0x3ddd9ef8	0.108213365
105	0xbdf192ae	-0.11795555
106	0xbd2cfda2	-0.04223407
107	0xbe8f9d66	-0.28049773
108	0x3e55dad1	0.20884253
109	0x3e11b154	0.14227802
110	0xbc43e7d1	-0.011957125
111	0x3d458c29	0.04822937
112	0x3def2e56	0.1167876
113	0xbcf48752	-0.029849682
114	0xbd5d82bf	-0.054079767
115	0x3d8cafca	0.068694666
116	0x3da7886c	0.08180317
117	0x3e66156f	0.22469114
118	0x3d8b7436	0.06809275
119	0x3dccfe68	0.10009462
120	0xbe945c8c	-0.28976858
121	0x3d21f28c	0.03953795
122	0x3d9fc2d0	0.078008294
123	0x3dff7ce4	0.12474993
124	0xbe4c22e8	-0.1993519
125	0x3ce18ab8	0.027531967
126	0x3f17644b	0.5913741
127	0xbd949c2d	-0.07256351

convs.0.lins.2.weight f4 [64, 2]
0	0xbe346308	-0.17615902
1	0xbd5ae57e	-0.053441517
2	0xbcd62481	-0.026140453
3	0xbe3b81ef	-0.18311284
4	0x3f4e7997	0.8065428
5	0x3f07a653	0.52988166
6	0x3ef49b66	0.4777481
7	0xbe47f23c	-0.19525999
8	0x3e5e7610	0.21724725
9	0x3e22202c	0.15832585
10	0xbee1b283	-0.44081506
11	0xbe559510	-0.20857644
12	0xbde69dd7	-0.11260574
13	0xbea510dd	-0.32239428
14	0xbe628768	-0.22121966
15	0x3efb2ed9	0.4905918
16	0x3efae8ae	0.49005646
17	0x3ead8814	0.33892882
18	0x3ef85057	0.48498794
19	0xbeab9aa2	-0.33516413
20	0xbd383a92	-0.044977732
21	0x3eec4aa9	0.4615071
22	0xbd529874	-0.051414922
23	0xbcab0573	-0.020876622
24	0xbee95dda	-0.45579416
25	0x3d2240ab	0.039612453
26	0xbeae27a5	-0.3401462
27	0x3cd7b335	0.02633057
28	0x3ec8fa33	0.39253387
29	0xbe21a1b7	-0.15784346
30	0x3e4ddaad	0.2010295
31	0x3e9637af	0.29339358
32	0xbeb9d2aa	-0.36293536
33	0x3ca55cc2	0.020185832
34	0x3f264695	0.6495145
35	0xbdbf2e1f	-0.09334969
36	0xbe8b42ea	-0.2719949
37	0xbe67f1da	-0.22650853
38	0xbdd791af	-0.10525834
39	0xbf08cd0c	-0.53437877
40	0xbedbab34	-0.42904055
41	0x3e9dc45d	0.30813876
42	0x3de71993	0.11284175
43	0xbefa3519	-0.48868635
44	0xbea6d077	-0.3258092
45	0xbe5157ac	-0.204436
46	0xbc709649	-0.014684268
47	0xbc7f7c8e	-0.015593661
48	0xbeb9e3a4	-0.3630649
49	0x3dd9aca2	0.1062863
50	0xbdcaed00	-0.099084854
51	0xbf0f12c6	-0.5588802
52	0xbf149aa4	-0.5804846
53	0x3eadef26	0.33971518
54	0xbec71dd0	-0.38889933
55	0xbe3a893e	-0.18216416
56	0x3ea4550c	0.32096136
57	0x3e6d7e5b	0.23192732
58	0x3eadea4a	0.3396781
59	0xbf5cb81e	-0.8621844
60	0xbf007ef1	-0.501937
61	0xbe310221	-0.17285968
62	0x3f6c4fff	0.92309564
63	0xbe2b58ef	-0.16733144
64	0xbf1e39a6	-0.61806715
65	0x3e5bb4b5	0.21455653
66	0xbeb6fe30	-0.35740805
67	0xbc426c44	-0.011866633
68	0xbe7c647b	-0.24647705
69	0x3f256449	0.6460615
70	0x3d8669bc	0.06563136
71	0x3c98a253	0.01863209
72	0xbd0e6cd7	-0.034771767
73	0xbd32eefd	-0.04368495
74	0x3e979306	0.29604357
75	0x3e990938	0.29889846
76	0xbcd50e49	-0.026007788
77	0x3daa82cb	0.08325728
78	0x3e6e3b62	0.2326484
79	0x3ca35160	0.019936264
80	0x3ec09223	0.37611493
81	0x3efdd4db	0.49576458
82	0x3f3e2b53	0.7428486
83	0x3f82d6b7	1.0221776
84	0x3e699274	0.22809774
85	0xbd7fff57	-0.06249937
86	0x3e61b75c	0.22042602
87	0x3eee730f	0.46572158
88	0xbf0775b3	-0.5291397
89	0xbe376abb	-0.17911808
90	0xbde9945d	-0.11405251
91	0x3e99bde7	0.30027696
92	0xbd80c644	-0.06287816
93	0xbd599bf9	-0.053127263
94	0x3eb10e86	0.34581393
95	0x3ec33dc3	0.38133058
96	0xbdba0009	-0.09082038
97	0xbec07d4f	-0.37595603
98	0x3ea9ac16	0.33139104
99	0xbe7de563	-0.24794535
100	0xbccdbec4	-0.025115378
101	0x3e3cfa3a	0.18454829
102	0x3e5ae2f3	0.21375637
103	0xbf29bf84	-0.66307855
104	0x3edf4309	0.4360583
105	0xbe3bb6b1	-0.1833141
106	0xbec7ab7b	-0.38998017
107	0x3ed74928	0.42048
108	0xbe88e48b	-0.26736864
109	0xbe9e4e0e	-0.30918926
110	0xbe10272c	-0.14077443
111	0xbe15b324	-0.14619118
112	0xbea3882d	-0.3193983
113	0xbe8a8f39	-0.27062395
114	0x3e69896e	0.22806332
115	0xbeb7826a	-0.35841686
116	0xbe477b1a	-0.19480553
117	0x3e53de75	0.2069033
118	0x3dbad9ed	0.09123597
119	0x3bc32529	0.0059553576
120	0xbea37775	-0.31927076
121	0x3e42e844	0.19033915
122	0x3ea6ee8b	0.3260387
123	0x3d4d48a6	0.05011811
124	0xbf0c27e0	-0.54748344
125	0xbe99dbd1	-0.3005052
126	0xbe7907f1	-0.24319436
127	0xbecbf02f	-0.39831683

convs.0.lins.3.weight f4 [64, 2]
0	0x3ed33d7f	0.41257855
1	0xbea6f561	-0.32609084
2	0x3edcc103	0.43116006
3	0xbe80bf02	-0.25145727
4	0x3e7b750b	0.24556367
5	0xbdfcf7d3	-0.12351956
6	0x3e6386bd	0.22219367
7	0xbe1c71d3	-0.15277795
8	0x3e07347e	0.13203618
9	0xbebc5368	-0.36782384
10	0x3e797fb4	0.24365121
11	0x3ec5fc76	0.38669175
12	0x3e081797	0.13290249
13	0xbda4722b	-0.08029588
14	0xbd6e3171	-0.05815262
15	0xbd824fc1	-0.06362868
16	0xbe882ed5	-0.2659823
17	0x3f22c99f	0.635889
18	0xbe10cd16	-0.14140734
19	0xbd88f74b	-0.066877924
20	0xbe4dc349	-0.20094027
21	0xbf1a6de7	-0.6032395
22	0x3dbc00df	0.09179854
23	0x3e7d5cc3	0.24742417
24	0xbd5f13e6	-0.054462336
25	0x3cf57943	0.029965049
26	0x3f22d64d	0.6360825
27	0xbde86d49	-0.113489695
28	0x3d8f1f8a	0.069884375
29	0xbe388b82	-0.18021968
30	0x3ef420ef	0.47681376
31	0xbe0b8090	-0.13623261
32	0xbd6bc0bb	-0.05755685
33	0xbe63f35a	-0.222608
34	0x3d6bd438	0.057575434
35	0xbf15e287	-0.5854878
36	0xbef31e1f	-0.47483918
37	0x3e9405c7	0.28910658
38	0x3f6e6392	0.9312068
39	0x3f0eccae	0.55781066
40	0xbf0b090e	-0.5431069
41	0x3eaf5225	0.3424236
42	0xbf231f8b	-0.63720006
43	0x3eab071a	0.33403856
44	0x3f0b0070	0.5429754
45	0x3f19d73b	0.6009404
46	0x3ec95bd1	0.39327863
47	0x3eb0bd8f	0.34519622
48	0x3c364370	0.011124477
49	0xbca6d5ce	-0.020365622
50	0xbe1669ec	-0.14688843
51	0x3e0ec21e	0.13941237
52	0xbf0c4668	-0.5479493
53	0x3e44a758	0.19204462
54	0xbea50be5	-0.32235637
55	0x3d7fb9d1	0.062433068
56	0xbe2b66c8	-0.16738427
57	0xbe1eb857	-0.15500008
58	0xbe87e56e	-0.26542228
59	0xbf29f939	-0.6639591
60	0xbdf10dc0	-0.11770201
61	0x3ee9d633	0.45671234
62	0x3f76c608	0.9639592
63	0x3ec9add7	0.39390442
64	0xbe544fa1	-0.20733501
65	0xbef679f6	-0.48139924
66	0x3eb51716	0.35369176
67	0x3cfe0e72	0.031012747
68	0xbf48e971	-0.78481203
69	0x3d99de70	0.0751313
70	0x3ec0f16a	0.37684184
71	0x3db8f6e6	0.09031467
72	0x3e097db9	0.13426866
73	0x3f13e290	0.5776758
74	0x3f1ac4b5	0.604564
75	0x3f0a112c	0.5393245
76	0xbe564822	-0.20925954
77	0x3e750796	0.23928675
78	0xbe473876	-0.19455132
79	0x3e9f30cd	0.3109192
80	0xbe7bd73e	-0.24593827
81	0x3f18510d	0.59498674
82	0x3da71d20	0.08159852
83	0x3ece6138	0.40308547
84	0x3e0d7129	0.13812698
85	0x3d20b19b	0.039231878
86	0xbd739361	-0.059466723
87	0xbf2584ed	-0.64655954
88	0xbe1e272a	-0.15444627
89	0x3e83e998	0.25764155
90	0xbea5c441	-0.32376292
91	0x3e834ace	0.2564301
92	0xbdf64ab3	-0.120259665
93	0x3f13368a	0.57505095
94	0x3e61ed23	0.22063117
95	0x3df8a236	0.12140314
96	0xbdbdc394	-0.09265819
97	0xbef0e3d7	-0.47048828
98	0xbe7fb207	-0.24970256
99	0xbe1a6e38	-0.15081108
100	0x3ec32bc8	0.3811934
101	0xbe6a5f13	-0.2288783
102	0x3f044373	0.5166542
103	0x3f400eaa	0.75022376
104	0x3e341f53	0.17590074
105	0x3dca0202	0.09863664
106	0xbf09341a	-0.53595126
107	0x3f1f39a6	0.6219734
108	0xbe476038	-0.19470298
109	0xbe8e5487	-0.27798864
110	0x3e538e97	0.20659862
111	0xbd85a05b	-0.06524726
112	0xbe2ca683	-0.16860394
113	0x3eb2048d	0.34769097
114	0x3da9d511	0.08292592
115	0xbec76efc	-0.38951862
116	0xbe6b512e	-0.22980186
117	0xbeaa0c73	-0.33212623
118	0xbe59157c	-0.21199602
119	0xbe9fdf7c	-0.31225193
120	0x3d8dda6b	0.069264255
121	0xbee3c84a	-0.44488746
122	0xbdcbc821	-0.09950281
123	0xbe68350c	-0.22676486
124	0x3ed00f05	0.4063646
125	0xbd35b86a	-0.044365324
126	0xbec5afe3	-0.38610753
127	0xbcbe7c2c	-0.02325257

convs.0.lins.4.weight f4 [64, 2]
0	0x3eb51753	0.35369357
1	0x3e44f224	0.19232994
2	0x3db31a79	0.08745284
3	0x3e1e9911	0.15488078
4	0x3f354994	0.70815396
5	0x3f1a40fe	0.6025542
6	0xbf235766	-0.63805234
7	0x3e77e157	0.24207054
8	0x3e155722	0.1458402
9	0x3d9a7b8b	0.07543095
10	0x3f2fb2f5	0.6863244
11	0x3e54e28b	0.20789544
12	0xbef92348	-0.4865973
13	0x3f004dbb	0.5011861
14	0xbe7bf248	-0.24604142
15	0xbdf37eed	-0.118894435
16	0xbf062f25	-0.52415687
17	0xbeb1fb9c	-0.34762275
18	0xbe1fb9d7	-0.15598236
19	0xbdc4e219	-0.09613437
20	0xbd30520f	-0.043047007
21	0x3e1ee0ce	0.15515444
22	0x3f22a9bb	0.6354024
23	0x3f0748ae	0.52845275
24	0x3ef88410	0.48538256
25	0x3d6ef7ad	0.05834167
26	0x3f16f5cd	0.5896881
27	0xbce666bf	-0.028125165
28	0xbedd93d4	-0.43276846
29	0x3eca4da7	0.3951237
30	0xbce3995b	-0.027783087
31	0xbec87fa1	-0.39159873
32	0x3d9ba645	0.07600073
33	0xbe5d34c7	-0.21602164
34	0xbdd9848a	-0.10620983
35	0x3dce1e8d	0.10064421
36	0x3e1872a1	0.14887477
37	0x3e9200bd	0.28516188
38	0xbe7b774b	-0.24557225
39	0x3ea4fc2c	0.32223642
40	0x3ecfa5da	0.40556222
41	0xbef8d50b	-0.4860004
42	0xbf39100d	-0.72290117
43	0xbf4e2c13	-0.80536
44	0xbdbd12f6	-0.09232132
45	0xbe8ab4b0	-0.2709098
46	0x3dcf9cac	0.10137305
47	0xbe04b52e	-0.1295974
48	0xbcc290df	-0.02375072
49	0xbe3a9737	-0.18221746
50	0xbd31f668	-0.043447882
51	0x3f21afb8	0.6315875
52	0xbebc7ed4	-0.36815512
53	0xbec272be	-0.37978166
54	0x3e22da67	0.15903626
55	0x3e53da56	0.20688757
56	0x3e8e384d	0.2777733
57	0x3e794977	0.24344431
58	0x3eafd5f3	0.34342918
59	0xbf063fc5	-0.52441055
60	0x3ee3c871	0.44488862
61	0x3ebcfc62	0.36911303
62	0x3db770ab	0.089570366
63	0x3ed65dd0	0.41868448
64	0x3e53222e	0.20618507
65	0x3ddc4127	0.10754614
66	0x3ee0da4a	0.4391654
67	0xbdbac48c	-0.091195196
68	0xbf34e457	-0.7066092
69	0x3e36b390	0.17841935
70	0xbc6e0b22	-0.014529021
71	0xbd5f7533	-0.05455513
72	0x3e6d85c2	0.23195556
73	0xbebb84c7	-0.3662474
74	0x3f17db21	0.5931874
75	0x3f1aa608	0.60409594
76	0xbe14a232	-0.14514998
77	0xbe196b39	-0.14982308
78	0xbdac25b9	-0.084056325
79	0x3d6251d4	0.05525382
80	0x3f66c130	0.9013853
81	0x3e8cdf90	0.27514315
82	0x3f18c36f	0.5967321
83	0x3da74b3a	0.08168645
84	0xbe18caa8	-0.14921057
85	0x3d4a2968	0.049355894
86	0xbd08bead	-0.033384968
87	0x3e112069	0.1417252
88	0xbde0a709	-0.109693594
89	0xbcad4d66	-0.02115507
90	0x3ef332ad	0.474996
91	0x3d0dd30c	0.034625098
92	0xbc3d3500	-0.011548281
93	0x3e0ca07a	0.13733092
94	0xbe8b1a4c	-0.271685
95	0xbd25c136	-0.040467463
96	0xbe8070f2	-0.2508617
97	0x3e73fa9d	0.2382607
98	0xbe52e56a	-0.20595327
99	0xbefa000f	-0.4882817
100	0xbc9b0339	-0.018922435
101	0xbce9f600	-0.028559685
102	0x3e1619d3	0.14658289
103	0x3f2d83e3	0.6777937
104	0xbdf3e574	-0.11908999
105	0x3eb8acd2	0.3606935
106	0x3e323faa	0.17407098
107	0xbed7dc89	-0.42160442
108	0x3e193108	0.1496011
109	0x3e9913da	0.29897958
110	0xbecdce92	-0.40196663
111	0xbe82be8a	-0.25535995
112	0x3f30ee2e	0.69113433
113	0x3eb036cf	0.34416816
114	0xbc4e71b3	-0.01260035
115	0x3f1b2560	0.60603905
116	0xbe110dd3	-0.1416543
117	0xbe80245c	-0.2502774
118	0xbe3a429f	-0.18189476
119	0xbda3c1f2	-0.079959765
120	0xbe59dc61	-0.21275474
121	0x3d916d47	0.07100921
122	0xbeb27108	-0.3485186
123	0x3b9e9f9f	0.0048408057
124	0x3f290d40	0.6603584
125	0x3e3459cd	0.17612381
126	0x3efaf7d7	0.49017212
127	0x3e6493c1	0.22321989

convs.1.bias f4 [128]
0	0x3d804968	0.06264001
1	0xbcbdba64	-0.023160167
2	0xbe8592f5	-0.26088682
3	0x3d42fcf5	0.04760452
4	0xbde6a76f	-0.11262404
5	0x3d53a012	0.051666327
6	0xbe25c514	-0.1618846
7	0x3e01941b	0.12654154
8	0x3a447f57	0.0007495782
9	0xbcf04f5e	-0.02933472
10	0x3cf4e6fc	0.029895298
11	0x3dde446e	0.10852896
12	0xbe9b5fd1	-0.3034654
13	0xbbace7be	-0.0052766493
14	0x3db9e703	0.09077265
15	0x3d2a1322	0.041522153
16	0x3d8a4b60	0.06752658
17	0xbe5cfefe	-0.21581647
18	0x3d859de4	0.06524256
19	0xbcf20b3e	-0.029546376
20	0x3d8972e8	0.0671137
21	0xbe128245	-0.14307506
22	0x3d357105	0.044297237
23	0x3dfffa58	0.12498921
24	0xbc995014	-0.018714942
25	0x3e1a264f	0.15053676
26	0x3d6f15e3	0.058370482
27	0x3d8c309b	0.06845208
28	0xbe8beca9	-0.27328995
29	0xbd49f265	-0.04930343
30	0xbe5a848a	-0.21339622
31	0x3d596b18	0.05308065
32	0xbe930d11	-0.28720906
33	0xbe1c9437	-0.15290914
34	0x3db08e87	0.08620935
35	0x3d9ad7b9	0.07560677
36	0xbea22432	-0.3166824
37	0x3d8fd169	0.07022364
38	0x3d96982d	0.07353244
39	0x3d8adf2b	0.06780847
40	0x3cc7f058	0.024406597
41	0x3db33ee7	0.08752232
42	0xbe24da20	-0.16098833
43	0x3a0fd89f	0.0005487296
44	0x3dbb7ccd	0.09154663
45	0x3daf7073	0.0856637
46	0x3d68349d	0.0566908
47	0xbdb2d991	-0.08732904
48	0x3da7ac33	0.08187141
49	0xbdc6817e	-0.096926674
50	0xbd8dec94	-0.06929889
51	0x3de1a86b	0.11018451
52	0x3d7c7829	0.06163803
53	0xbe98c9b3	-0.29841384
54	0x3c451e35	0.012031128
55	0x3d6467c1	0.05576301
56	0xbb0b3e5a	-0.0021246881
57	0x3dba4314	0.090948254
58	0x3dc6f9e7	0.09715634
59	0x3d2502e3	0.040285956
60	0xbe863273	-0.26210365
61	0x3d909310	0.070593
62	0xbd852736	-0.065016195
63	0x3c6e9a6c	0.014563184
64	0x3cefa462	0.029253189
65	0xbd629a5d	-0.055322994
66	0x3d39d347	0.045367505
67	0xbe3d22ad	-0.18470259
68	0x3e0df1a4	0.1386171
69	0x3cb100aa	0.021606762
70	0x39b0f36f	0.00033750708
71	0xbea7cbf4	-0.3277279
72	0xbe72142a	-0.23640504
73	0x3d211ae6	0.039332293
74	0x3d8e4fd3	0.06948819
75	0x3e3d4d9c	0.18486637
76	0xbe6895d9	-0.22713412
77	0xbc43f08d	-0.011959207
78	0x3d992880	0.07478428
79	0x3deef8ed	0.116685726
80	0xbe36026e	-0.17774364
81	0xbc6b1b9d	-0.014349845
82	0xbc634a59	-0.013872706
83	0x3df9d442	0.12198688
84	0x3d355ad2	0.044276066
85	0xbe5509be	-0.20804498
86	0x3d19f60c	0.037588164
87	0x3d17bad4	0.037043408
88	0x3d86e905	0.06587414
89	0x3e0e7a01	0.13913728
90	0xbc7e4921	-0.015520365
91	0xbc2817e2	-0.0102596
92	0x3d9c01af	0.076175086
93	0x3de6445d	0.11243508
94	0x3e0f810b	0.1401407
95	0xbe5a4ed4	-0.21319133
96	0xbc8bd3e9	-0.01706882
97	0x3deebb57	0.11656826
98	0xbe2aecb9	-0.16691865
99	0xbe297d07	-0.165516
100	0xbe4b6369	-0.1986214
101	0x3d769d62	0.060208686
102	0x3d14f7fa	0.0363693
103	0xbe572027	-0.21008359
104	0xbc4af3a1	-0.012387187
105	0x3e068602	0.13137057
106	0xbe5b8826	-0.21438655
107	0xbd23b29a	-0.03996525
108	0xbe14ef26	-0.14544353
109	0xbdd2dab5	-0.10295621
110	0xbe1f81f9	-0.15576924
111	0x3d8a6da2	0.06759192
112	0x3bb5f886	0.005553308
113	0xbdbcec9e	-0.09224819
114	0x3d4b6486	0.049656413
115	0xbd9f515f	-0.07779192
116	0xbc1a4470	-0.009415731
117	0x3da2474d	0.07923756
118	0x3e080b7c	0.13285631
119	0x3e46d382	0.19416621
120	0xbc560b44	-0.013064209
121	0x3cba1b15	0.022717992
122	0xbcc6a137	-0.024246795
123	0xbe8bcbde	-0.27303976
124	0x3d8485b1	0.06470812
125	0x3d2f927a	0.0428643
126	0x3d94e624	0.07270458
127	0x3e08bb28	0.13352644

convs.1.lins.0.weight f4 [128, 64]
0	0xbddbfc1e	-0.10741447
1	0xbd466962	-0.048440345
2	0xbd7569f8	-0.059915513
3	0xbdbda96b	-0.092608295
4	0xbdb20cce	-0.086938486
5	0x395690f8	0.00020462635
6	0xbe146e97	-0.14495312
7	0x390a5cf0	0.00013195327
8	0xbdf175a2	-0.11790015
9	0xbc41759b	-0.0118078245
10	0x3d9524a6	0.07282381
11	0x3d8d1fd7	0.068908386
12	0xbd83587a	-0.0641336
13	0xbd7892ce	-0.06068688
14	0x3c058b4e	0.008150889
15	0xbe00206e	-0.12512371
16	0xbe07304e	-0.1320202
17	0x3cf309f7	0.029667838
18	0xbd8e743b	-0.06955763
19	0xbdb22c39	-0.08699841
20	0xba8a2bb5	-0.001054159
21	0x3d013cc6	0.0315521
22	0x3cef5b91	0.029218467
23	0xbd9b9fbd	-0.07598827
24	0x3deedac3	0.11662819
25	0xbe0cd343	-0.13752465
26	0x3d12951c	0.035786733
27	0xbe443fdd	-0.19164987
28	0x3d20a66a	0.039221205
29	0xbd5a1a0a	-0.05324749
30	0xbe54d312	-0.20783642
31	0xbe003722	-0.12521031
32	0xbd4d1ba3	-0.050075185
33	0xbc1b51cb	-0.00947995
34	0x3d97a109	0.07403762
35	0xbdde1f4f	-0.108458154
36	0xbd5c1e7a	-0.053740002
37	0xbd2cb1e5	-0.04216184
38	0xbd722dc7	-0.059125688
39	0xbe02b295	-0.12763436
40	0xbd399047	-0.04530361
41	0xbdc68519	-0.09693355
42	0x3be4bfa5	0.0069808536
43	0xbe013a8b	-0.12619989
44	0x3d6767aa	0.056495346
45	0x3cce40c2	0.025177363
46	0xbd86199f	-0.065478556
47	0xbc0de762	-0.008661123
48	0xbb80e27a	-0.003933248
49	0xbdc0b7a2	-0.09410025
50	0xbb8d6a69	-0.0043156636
51	0xbca88348	-0.020570412
52	0xbc5c48a0	-0.0134450495
53	0xbd701890	-0.058617175
54	0x3d0e67ae	0.034766845
55	0xbe2298d5	-0.15878613
56	0xbd911e4f	-0.07085859
57	0x3d89dd77	0.06731694
58	0xbd9f25c2	-0.077708736
59	0xbdd5ca25	-0.10438947
60	0x3d129701	0.03578854
61	0xbd0ad94d	-0.03389864
62	0x3dbce1b6	0.092227384
63	0xbd497bc1	-0.049190287
64	0xbd82f7b2	-0.063949004
65	0x3e08099a	0.13284913
66	0x3d98fe8c	0.07470426
67	0xbe05792c	-0.13034505
68	0xbe0bed8b	-0.13664834
69	0xbde2f9a8	-0.110827744
70	0xbdc0e40d	-0.09418497
71	0x3dcda8c7	0.10041957
72	0xbe6a036e	-0.22852871
73	0xbe10c5d5	-0.14137967
74	0xba7d21bc	-0.0009656211
75	0x3cc0c788	0.023532644
76	0xbe323f7d	-0.17407031
77	0x3d7e21e8	0.062044054
78	0xbd9f4337	-0.07776492
79	0xbd3df801	-0.046379093
80	0xbde1ff50	-0.11035025
81	0x3cd67ef8	0.02618359
82	0xbb85c86a	-0.004082729
83	0xbc30b8de	-0.010786263
84	0xbe22e6f6	-0.15908417
85	0xbd64650e	-0.055760436
86	0x3c82ce17	0.015967412
87	0x3d630494	0.055424288
88	0x3db3e558	0.08783978
89	0xbd367de1	-0.04455364
90	0xbcd30cc6	-0.025762927
91	0xbe30dfa8	-0.17272818
92	0xbdbfd3a4	-0.09366539
93	0x3ddbf774	0.10740557
94	0xbe6416ae	-0.22274277
95	0x3e83a574	0.25712168
96	0xbcc259f4	-0.023724534
97	0xbe64e4c7	-0.22352897
98	0xbd171f5e	-0.03689515
99	0xbde2aee7	-0.11068516
100	0x3e319a0f	0.17343925
101	0x3e041ae4	0.12900883
102	0xbe76583e	-0.24057099
103	0xbe4434e1	-0.19160797
104	0x3d8afae3	0.06786134
105	0xbd7a4e36	-0.061109744
106	0xbd4c53a8	-0.04988447
107	0xbdba3553	-0.09092202
108	0x3c121e1b	0.0089183105
109	0x3d620628	0.055181652
110	0x3d9668b8	0.07344192
111	0xbd2a5927	-0.04158893
112	0x3c8c4221	0.017121376
113	0xbe0a633e	-0.1351442
114	0xbe3f0585	-0.1865445
115	0x3d012fec	0.031539842
116	0xbdb84256	-0.089970276
117	0xbdababc1	-0.08382369
118	0xbcb8df38	-0.022567376
119	0xbd87ae3b	-0.06625029
120	0xbdd48c1b	-0.103782855
121	0x3d343fac	0.044006035
122	0xbe90afb9	-0.28259066
123	0xbd87414d	-0.06604252
124	0xbd7957cb	-0.06087474
125	0xbe6f24f2	-0.23353937
126	0x3d39a51b	0.045323472
127	0xbdbc42c9	-0.09192426
128	0x3e31e1d1	0.17371298
129	0x3e02ad39	0.12761392
130	0x3e3f88b3	0.1870449
131	0x3d52285a	0.051308013
132	0x3e1a90cc	0.15094298
133	0xbe162326	-0.14661846
134	0x3ec148c7	0.37750837
135	0x3e63360e	0.22188589
136	0x3e58389e	0.21115348
137	0x3e2c5db0	0.16832614
138	0xbd01a0af	-0.03164738
139	0xbd0914d0	-0.033467114
140	0x3e8ce736	0.2752015
141	0x3afe97d7	0.0019423914
142	0xbdafab46	-0.0857759
143	0x3e94a668	0.29033208
144	0x3de69f06	0.112608
145	0x3e14ed4f	0.14543651
146	0x3eacdb9a	0.33761293
147	0x3d09490a	0.03351692
148	0x3e166537	0.14687048
149	0x3e8cf57b	0.27531037
150	0xbdb72d4f	-0.08944189
151	0x3e4b1b02	0.19834521
152	0x3d38215a	0.04495368
153	0x3dcc0f31	0.09963835
154	0x3da5b10f	0.08090412
155	0x3e35f1b9	0.17767991
156	0x3d985da7	0.07439738
157	0x3e277512	0.16353253
158	0x3e20d92a	0.15707842
159	0xbdc9d738	-0.09855503
160	0x3e2ac526	0.16676769
161	0x3e97b8d0	0.29633188
162	0x3db47b19	0.088125415
163	0x3e82eb4b	0.2557014
164	0x3e429992	0.19003895
165	0x3cd48ad1	0.0259451
166	0x3e8f3048	0.27966523
167	0x3e2fe00c	0.17175311
168	0xbdff2bed	-0.1245955
169	0xbd4e4971	-0.050363008
170	0x3ce581a0	0.028015912
171	0x3e764129	0.24048294
172	0xbdaf10f3	-0.08548155
173	0x3e2a7ab7	0.16648374
174	0x3ead544f	0.33853385
175	0xbe045356	-0.12922415
176	0x3e02bd48	0.12767518
177	0x3e49a902	0.19693378
178	0x3e0e3b86	0.13889894
179	0x3dab82fc	0.08374593
180	0x3e24fdb4	0.16112405
181	0x3e5c2fb5	0.21502574
182	0xbd2d78d9	-0.042351577
183	0x3e5b054a	0.21388736
184	0x3e63c239	0.22242059
185	0x3e53fd30	0.20702052
186	0x3e58bec2	0.21166518
187	0x3ea858ed	0.32880345
188	0x3e62eb2f	0.22160028
189	0x3ecb56bf	0.3971462
190	0x3ddcd784	0.10783294
191	0xbe57c488	-0.21071064
192	0x3ca831c9	0.020531552
193	0xbd6b5749	-0.05745629
194	0x3cd94ada	0.02652495
195	0x3cc2c68d	0.023776317
196	0xbc9ae931	-0.018910022
197	0xbb375622	-0.0027974923
198	0xbdf88ce2	-0.12136246
199	0x3bd81c26	0.0065951524
200	0xbe24cddb	-0.16094153
201	0xbe39a3b6	-0.18128857
202	0xbc1ca4f9	-0.009560817
203	0x3dab4537	0.08362811
204	0xba2c946f	-0.00065833976
205	0xbd5a7980	-0.053338528
206	0xb88d759e	-6.745312e-05
207	0xbd72261a	-0.059118368
208	0xbdfecd67	-0.12441521
209	0x3c7456e3	0.0149132935
210	0xbdebc685	-0.11512474
211	0x3d3237aa	0.043510117
212	0xbe0abb28	-0.13547957
213	0x3d021d1e	0.03176605
214	0xbc3466d8	-0.011010848
215	0xbca18723	-0.019717759
216	0xbbcf42fc	-0.006325124
217	0x3d4daae5	0.050211806
218	0xbc38d4ad	-0.011281175
219	0xbbdeb2db	-0.0067962236
220	0xbe2455bb	-0.16048329
221	0xbd69a922	-0.057046063
222	0xbe1afd2d	-0.15135641
223	0xbc76e2f5	-0.015068759
224	0xbdcfd40c	-0.101478666
225	0xbe73d7a6	-0.23812732
226	0x3cdbcf14	0.026832141
227	0xbcef3f36	-0.029204946
228	0x3c3c75ab	0.011502664
229	0xbb367662	-0.0027841558
230	0xbd0e8ddd	-0.03480326
231	0xbe3ea9d5	-0.18619473
232	0x3c82b138	0.015953645
233	0xbc30f6c5	-0.010801022
234	0xbdf2f576	-0.11863224
235	0xbe412684	-0.18862349
236	0x3c2be19e	0.010490803
237	0xbd70c3b7	-0.0587804
238	0xbd73666b	-0.059423845
239	0xbc2e849f	-0.0106517365
240	0x3d34472d	0.04401319
241	0xbd3356c5	-0.04378392
242	0x3d704253	0.058657
243	0xbdf188ee	-0.117936954
244	0x3d13b7f2	0.036064096
245	0xbd855e6a	-0.06512149
246	0x3dbdcdd0	0.09267771
247	0xbd8f8f2e	-0.07009731
248	0x3b84a124	0.00404753
249	0xbde76a37	-0.11299556
250	0x3d6e399c	0.05816041
251	0xbe20793c	-0.15671247
252	0x3c375884	0.011190537
253	0xbd0a4a94	-0.03376253
254	0xbd283bb7	-0.041072574
255	0x3d19e2aa	0.03756968

convs.1.lins.1.weight f4 [128, 64]
0	0x3db5bf71	0.08874405
1	0xbd0bfd59	-0.034177158
2	0x3dacd0d9	0.08438272
3	0x3dfcbd71	0.123408206
4	0x3cd43aac	0.025906883
5	0x3da7919e	0.08182071
6	0x3d0996f7	0.033591237
7	0x3d09ada6	0.03361287
8	0xbc2b55a4	-0.01045743
9	0x3d391a1d	0.04519092
10	0xbdd5baa8	-0.104359925
11	0x3d4a8ae3	0.04944886
12	0x3e06f49a	0.13179246
13	0x3e226042	0.15857032
14	0xbd3d055d	-0.046147693
15	0x3df88d4d	0.12136326
16	0xbd42e020	-0.047577024
17	0x3d48fe61	0.04907072
18	0x3e1a424f	0.15064357
19	0x3d2db890	0.04241234
20	0x3c9790e7	0.018501712
21	0xbd44a3ce	-0.04800778
22	0x3c6d13b0	0.014470026
23	0x3dffb5eb	0.1248587
24	0x3bb2c342	0.0054554055
25	0x3d15ed0c	0.03660302
26	0xbd12b3eb	-0.035816114
27	0x3ca54172	0.020172808
28	0xbbdef6bf	-0.006804317
29	0x3da85c94	0.08220783
30	0x3e2d5683	0.16927533
31	0x3db2fc49	0.08739526
32	0xbcd98d91	-0.026556762
33	0x3d593681	0.053030495
34	0x3d2a5641	0.041586164
35	0x3dc2b7c1	0.095077045
36	0x3d00802a	0.031372227
37	0x3d2b1509	0.041768108
38	0xba068fe3	-0.0005133135
39	0xbdb7c189	-0.08972461
40	0x3c192bd5	0.009348829
41	0x3c759223	0.014988455
42	0x3e3e0698	0.18557203
43	0x3a3b8863	0.0007153807
44	0xbd049343	-0.032367002
45	0xbd4be07a	-0.049774624
46	0x3e081433	0.13288955
47	0xbd005a51	-0.031336132
48	0x3c95ab32	0.018270109
49	0x3e0242ff	0.1272087
50	0x3e0cf7c5	0.13766392
51	0x3ba91ace	0.005160666
52	0xbd99a0e2	-0.07501389
53	0x3d4773e4	0.048694506
54	0x3b90b618	0.0044162385
55	0x3d05f4b0	0.032704055
56	0x3cc56be7	0.024099303
57	0x3dce5af8	0.10075945
58	0xbc06b639	-0.008222156
59	0xbc114eca	-0.008868882
60	0x3cd1becc	0.025603674
61	0x3d3875e5	0.045034308
62	0xbd2cb6eb	-0.04216663
63	0xbd9f0014	-0.07763687
64	0x3da4e5ad	0.0805162
65	0x3dbe4a05	0.09291462
66	0xbd6c2efb	-0.05766199
67	0x3e1908ed	0.14944811
68	0x3d3f8fca	0.046767987
69	0xbe08cf99	-0.13360442
70	0x3e428855	0.18997319
71	0x3e201bc9	0.15635599
72	0x3e32e8bf	0.17471598
73	0x3e1a05c2	0.15041259
74	0xbdced510	-0.10099232
75	0xbc6cdb9e	-0.014456658
76	0x3d4d735e	0.05015885
77	0xbd314b10	-0.043284476
78	0x3d28579f	0.041099187
79	0x3dba915a	0.09109755
80	0x3e12004c	0.14257926
81	0xbc5b1e57	-0.013373933
82	0xbe69a076	-0.22815117
83	0x3c0bc162	0.008529993
84	0x3deac64a	0.11463602
85	0xb9c3c610	-0.00037340866
86	0xbd88d503	-0.06681254
87	0x3d24a142	0.04019285
88	0x3c9a1e24	0.0188132
89	0xbde2b228	-0.11069137
90	0xbc4b1697	-0.012395523
91	0x3d2ef17f	0.042710777
92	0x3c7e4173	0.015518534
93	0xbd9ba86f	-0.076004855
94	0x3e3119fc	0.17295069
95	0xbcf21255	-0.029549757
96	0x3e39c6e3	0.18142276
97	0x3de77de7	0.11303311
98	0x3df130ab	0.11776861
99	0x3dfff58e	0.12498008
100	0x3cfe9b7e	0.031080004
101	0x3dbe3ced	0.092889644
102	0x3e00eb54	0.1258977
103	0x3df68671	0.120373614
104	0xbd9f319c	-0.07773134
105	0xbe06a91d	-0.13150449
106	0xbe7c5929	-0.24643387
107	0x3e9bf1a4	0.30457795
108	0x3dc6ce07	0.09707265
109	0x3d0ddbcc	0.034633443
110	0x3def39b9	0.116809316
111	0xbdb39fe0	-0.08770728
112	0xbc2b1d6a	-0.010444025
113	0x3e229296	0.1587623
114	0x3e92afd9	0.28649786
115	0x3d8daf7a	0.06918235
116	0x3dc3b711	0.095564015
117	0x3e4fffa9	0.2031237
118	0x3da62e99	0.081143565
119	0x3e150b21	0.14555027
120	0x3da26992	0.07930292
121	0x3dce3dd3	0.10070386
122	0x3e2e1240	0.1699915
123	0x3de344a4	0.110970765
124	0xbd3b2348	-0.045687944
125	0xbdf0fc4a	-0.1176687
126	0x3d71aeb2	0.059004493
127	0xbdf4f98e	-0.11961661
128	0xbd7260ff	-0.059174534
129	0xbe16d3a7	-0.14729176
130	0xbe243a66	-0.16037902
131	0xbd668b42	-0.05628515
132	0xbd9c78e0	-0.076402426
133	0xbd0862f6	-0.0332975
134	0xbe1b7505	-0.15181358
135	0xbcacaa10	-0.021077186
136	0xbe2598cd	-0.1617157
137	0xbe2af1b7	-0.1669377
138	0xbdb258a9	-0.08708317
139	0xbd5d3082	-0.05400134
140	0xbe68f787	-0.22750674
141	0xbe280427	-0.16407834
142	0xbb7fb3d3	-0.0039017096
143	0xbe808161	-0.25098708
144	0xbdd68d30	-0.10476148
145	0xbe110cb5	-0.14165004
146	0xbeac9b87	-0.33712408
147	0xbd8bc414	-0.06824508
148	0xbe488154	-0.19580585
149	0xbdd45884	-0.103684455
150	0x3ca5972d	0.020213688
151	0xbe3db15e	-0.18524691
152	0xbd0a4e52	-0.0337661
153	0xbdc45fc0	-0.09588575
154	0xbc929918	-0.017895266
155	0xbd966dc3	-0.07345154
156	0xbc89057d	-0.01672625
157	0xbe04a7e3	-0.12954669
158	0xbc9819bf	-0.018566964
159	0xbd8f433c	-0.06995246
160	0xbe256b57	-0.16154228
161	0xbe5c5a25	-0.21518762
162	0xbb8fec1b	-0.0043921596
163	0xbe8e3e39	-0.27781847
164	0x3cd4681f	0.025928555
165	0x3c94db6f	0.01817104
166	0xbe6d1bb8	-0.23155105
167	0xbdcea6ad	-0.10090385
168	0xbd372ff7	-0.044723477
169	0x3d02fc3a	0.031978823
170	0xbef10005	-0.47070327
171	0xbdc5ed98	-0.09664458
172	0xbcc0c645	-0.023532042
173	0xbdd5df08	-0.104429305
174	0xbe998a21	-0.29988196
175	0xbd208670	-0.03919071
176	0xbc56dba7	-0.013113893
177	0xbc965818	-0.018352553
178	0xbd9565e9	-0.072948284
179	0xbe046e91	-0.12932803
180	0xbdaa7556	-0.08323161
181	0xbd1df99b	-0.03856812
182	0xbd80fa8a	-0.062977865
183	0xbd3b936f	-0.0457949
184	0xbe24da1e	-0.1609883
185	0xbdaa345f	-0.0831077
186	0xbe4bcf81	-0.19903375
187	0xbe2dd0e7	-0.16974221
188	0xbe8f290a	-0.27960998
189	0xbe3e5194	-0.18585807
190	0xbcc1a4e8	-0.023638204
191	0x3d4578a5	0.04821076
192	0x3d15b1e8	0.036546618
193	0x3d5a2bcd	0.053264428
194	0xbcaab37f	-0.020837544
195	0x3ba294a9	0.0049615693
196	0x3d326154	0.04354985
197	0xbd258871	-0.040413324
198	0x3bfdfe63	0.0077512725
199	0xbca6afe9	-0.020347552
200	0x3c8d99ec	0.01728531
201	0xbdb25465	-0.08707503
202	0xbc4e8018	-0.012603782
203	0x3d81e702	0.06342889
204	0x3ace6c0a	0.0015748751
205	0xbdce5366	-0.10074501
206	0xbd8a2e9d	-0.06747172
207	0xbda0cdc2	-0.07851745
208	0x3de4e69a	0.11176796
209	0x3d8e02b0	0.06934106
210	0x3c762fbf	0.015026032
211	0xbcbad5a6	-0.022806954
212	0x3d82526c	0.06363377
213	0xbc3c6cd7	-0.011500559
214	0xbc79296c	-0.01520763
215	0xbd119e7d	-0.035551537
216	0x3cd61755	0.026134172
217	0xbcae4eb6	-0.021277767
218	0x3db0e531	0.08637465
219	0x3d7c0f41	0.061537985
220	0xbdbf3a08	-0.093372405
221	0xbd23a49f	-0.039951917
222	0x3d843be4	0.06456736
223	0x3c0febd3	0.008784252
224	0x3c8a3c40	0.016874433
225	0xbd03f43e	-0.03221535
226	0xbcb7ac9b	-0.022421172
227	0x3d0163c4	0.031589285
228	0xbc796a17	-0.015223048
229	0xbd1f98a9	-0.038963947
230	0x3ddea841	0.10871936
231	0x3cdc77bb	0.02691256
232	0xbbe3c98b	-0.006951516
233	0xbc954521	-0.01822144
234	0x3d620d2b	0.05518834
235	0xbcfea3f7	-0.031084044
236	0xbc2ab86f	-0.010419949
237	0xbd4ba07f	-0.049713608
238	0xbda5f72d	-0.08103786
239	0x3d7d8a6b	0.061899584
240	0x3d8560f2	0.065126315
241	0xbd97c3cf	-0.074103944
242	0xbb60d7ea	-0.0034308382
243	0x3d733dbe	0.059385054
244	0x3bf27486	0.0073991446
245	0x3b85427d	0.004066764
246	0xbce4a136	-0.027908903
247	0xbd127dfc	-0.03576468
248	0xbd9f029e	-0.07764171
249	0x3d584630	0.05280131
250	0x3de448fe	0.11146735
251	0x3d549fb3	0.051910114
252	0xbb947cda	-0.004531485
253	0xbd830c7f	-0.06398868
254	0x3cdcacc0	0.026937842
255	0x3d357895	0.04430445

convs.1.lins.2.weight f4 [128, 64]
0	0x3d5f0a71	0.054453317
1	0xbcda9b4a	-0.026685376
2	0xbc13b564	-0.009015415
3	0x3d67af26	0.05656352
4	0x3be2a13f	0.0069161947
5	0xbd7290ff	-0.05922031
6	0xbd122afa	-0.035685517
7	0xbdd52f10	-0.10409367
8	0x3d491ab9	0.04909775
9	0xbda2908b	-0.07937726
10	0xbd80bf3f	-0.06286477
11	0x3bcee0e8	0.006313432
12	0xbd3171b0	-0.04332131
13	0x3c00808b	0.007843147
14	0x3df53b5c	0.119742125
15	0x3c00c927	0.007860458
16	0x3d2a04b8	0.041508406
17	0xbe0342ac	-0.12818402
18	0xbda55468	-0.0807274
19	0x3c0ae605	0.0084776925
20	0xbe09f4de	-0.13472316
21	0x3e00f1a9	0.12592186
22	0x3ccc2443	0.024919635
23	0x3d83acb7	0.06429427
24	0xbd9022de	-0.070379004
25	0xbe10e3ac	-0.1414935
26	0x3db3b38f	0.087744825
27	0xbe012cb9	-0.12614717
28	0x3dc8b411	0.0979997
29	0xbd60fb35	-0.05492707
30	0x3d498c8e	0.04920631
31	0xbd8d2778	-0.06892294
32	0x3cf30c5c	0.02966898
33	0x3d8b46c3	0.06800606
34	0xbd94340e	-0.07236491
35	0x3d177436	0.03697606
36	0xbd7bf464	-0.061512366
37	0xbd0c56ce	-0.03426247
38	0x3c4f7ff1	0.012664781
39	0x3d448569	0.047978792
40	0xbc82aafd	-0.015950674
41	0x3d3ec39d	0.04657327
42	0xbdec33d2	-0.115333214
43	0x3e06a181	0.13147546
44	0x3d3832a0	0.044970155
45	0xbce8a5d9	-0.028399395
46	0x3cca71cb	0.024712464
47	0xbcc5795e	-0.024105724
48	0x3d4acd3f	0.049512144
49	0xbb90c4b1	-0.0044179787
50	0x3d2ea70b	0.042639773
51	0xbbe19548	-0.006884251
52	0x3cba893f	0.022770522
53	0x3dafa956	0.0857722
54	0x3dc46463	0.0958946
55	0x3e0d5d5f	0.1380515
56	0x3d3b902e	0.045791797
57	0xbd9a60d3	-0.07537999
58	0xbdcb4ce4	-0.09926775
59	0x3c25e20a	0.010124693
60	0xbdfb1dcb	-0.12261542
61	0xbe0e68dd	-0.1390719
62	0x3c8e92d7	0.017404003
63	0x3e013179	0.12616529
64	0xbcf86046	-0.030319344
65	0xbd872c35	-0.06600229
66	0xbc8750c1	-0.016517999
67	0xbde9da55	-0.11418597
68	0xbd84d52d	-0.064859726
69	0x3c8536df	0.016261516
70	0xbd965eef	-0.07342326
71	0x3d9804bb	0.07422777
72	0x3c8d8f12	0.017280135
73	0xbd51a1d8	-0.051179737
74	0x3df36eb8	0.11886352
75	0xbd8ee16f	-0.06976592
76	0xbdd22a26	-0.102619454
77	0xba5a8039	-0.00083351467
78	0x3d3b1698	0.045675844
79	0xbd41fc90	-0.047360003
80	0xbdc0d533	-0.094156645
81	0x3cb8fb1e	0.02258068
82	0xbb43d72a	-0.0029882886
83	0xbd31123f	-0.04323029
84	0xbcb9a6a4	-0.022662468
85	0x3cbf2494	0.023332871
86	0x3d49223d	0.049104918
87	0x3d973d87	0.07384782
88	0x3d83fb11	0.064443715
89	0xbd4b36d7	-0.049612846
90	0xbc8f9d18	-0.017530963
91	0xbd465f95	-0.048430998
92	0xbc3f80f1	-0.011688457
93	0xbde12c9c	-0.10994837
94	0xbd460f12	-0.048354216
95	0x3aad67bc	0.0013229768
96	0xbc7377be	-0.014860092
97	0x3b97fd05	0.0046383166
98	0xbc11de24	-0.00890306
99	0x3d22d1ae	0.039750747
100	0xbd9ef6bb	-0.07761904
101	0xbd86ff60	-0.06591678
102	0xbc19081d	-0.009340313
103	0xbe3f37b8	-0.18673599
104	0xbdf7ba41	-0.12096072
105	0x3d282a47	0.041055944
106	0x3d459796	0.048240267
107	0xbd17bfa7	-0.03704801
108	0x3ca09673	0.01960299
109	0x3cf29dee	0.029616322
110	0xbded0dfb	-0.11574932
111	0x3d0fa9c1	0.035074
112	0x3db142ae	0.08655296
113	0xbdcf7b95	-0.10130993
114	0xbc291753	-0.010320502
115	0x3c974fc8	0.01847066
116	0xbe424376	-0.18971047
117	0x3d2e416f	0.04254287
118	0xbcc36cb7	-0.02385555
119	0xbe096f70	-0.13421416
120	0x3d5e6e24	0.054304257
121	0xbd04a037	-0.032379355
122	0x3d4bb798	0.049735636
123	0xbe23eaa5	-0.16007479
124	0x3e2ffe2b	0.17186801
125	0xbd6dce33	-0.058057975
126	0x3e18aea1	0.14910366
127	0xbde67c24	-0.11254147
128	0xbc4cb125	-0.012493406
129	0x3d95cc3e	0.07314347
130	0x3cc638ff	0.0241971
131	0xbd8e01a8	-0.0693391
132	0xbd75c5da	-0.06000314
133	0xbd583f5a	-0.05279479
134	0xbd9d84c8	-0.07691342
135	0xbd2094e8	-0.039204508
136	0xbd469fe3	-0.048492324
137	0xbceff3ca	-0.029291052
138	0x3d9ce74f	0.07661306
139	0xbae67727	-0.0017583118
140	0xbc5364a4	-0.012902413
141	0x3c9ac369	0.018892007
142	0xbd66a678	-0.0563111
143	0x3e6f180a	0.23349014
144	0xbdea4963	-0.11439779
145	0x3da89159	0.08230848
146	0x3e5c518b	0.21515481
147	0x3ce9b5b3	0.028529024
148	0x3e0f04b8	0.13966644
149	0xbd0afc13	-0.033931803
150	0xbde49101	-0.1116047
151	0xbc390474	-0.011292566
152	0x3db5eb9b	0.08882829
153	0x3e23b874	0.15988332
154	0x3d02ada2	0.03190387
155	0x3d4f120f	0.05055433
156	0xbdb77409	-0.08957679
157	0x3c5f69d9	0.013636076
158	0xbcd59f5c	-0.026076965
159	0xbcedc3a7	-0.029023958
160	0x3cc4a1be	0.024002906
161	0x3e272434	0.16322404
162	0xbdba4641	-0.09095431
163	0x3df0d753	0.1175982
164	0xbcc6975a	-0.024242092
165	0x3e094f6b	0.13409202
166	0x3d8a9f40	0.06768656
167	0x3e0ff8c3	0.14059739
168	0xbc9ee4fa	-0.019396294
169	0x3d1d395f	0.03838479
170	0x3e3c356e	0.18379757
171	0xbd68a05d	-0.05679356
172	0xbd83b609	-0.06431205
173	0x3c5ce766	0.013482904
174	0x3d1e922c	0.03871362
175	0xbd0d7a40	-0.034540415
176	0x3da17018	0.07882708
177	0x3d9b8f3c	0.07595679
178	0xbd383a31	-0.04497737
179	0xbd9cf692	-0.07664217
180	0x3b10e76a	0.002211059
181	0x3cc1a520	0.023638308
182	0x3cf11d95	0.029433051
183	0xbc7fde30	-0.0156169385
184	0xbdaa23f9	-0.083076425
185	0x3e092a22	0.13394979
186	0x3df63d69	0.12023432
187	0xbcf6a4d8	-0.0301079
188	0x3cb44a2b	0.022008022
189	0x3e58f414	0.21186858
190	0xbd3fe54b	-0.04684953
191	0x3ced1299	0.028939532
192	0xbdc8432a	-0.097784355
193	0xbcade643	-0.021227961
194	0x3d5ea97b	0.054360848
195	0xbcdd8978	-0.02704309
196	0xbc1dcb94	-0.009631056
197	0x37ecdb96	2.8235645e-05
198	0xbd09a140	-0.033601046
199	0x3d1a527e	0.037676327
200	0xbdfb0672	-0.12257089
201	0x3bef8f26	0.007310766
202	0xbd6cd290	-0.057817996
203	0xbe03e6c2	-0.12880996
204	0xbc784b32	-0.015154647
205	0x3d1b033b	0.037844878
206	0x3bddf8c6	0.006774041
207	0xbc962e97	-0.018332763
208	0xbd87f88e	-0.06639205
209	0x3d9cf8d0	0.07664645
210	0x3c796349	0.015221425
211	0xbda4f07a	-0.0805368
212	0x3d41c030	0.047302425
213	0x3c922617	0.017840428
214	0xbda55df3	-0.0807456
215	0xbcf14afe	-0.029454704
216	0x3dbd0505	0.09229473
217	0x3c848444	0.01617635
218	0xbd3c33d5	-0.04594787
219	0xbe2e8e90	-0.17046571
220	0xbda3b61b	-0.07993718
221	0x3db1d901	0.08683968
222	0xbd1a81ef	-0.03772157
223	0xbd4ac7f6	-0.049507104
224	0x3ccf9338	0.025338754
225	0x3c55a79f	0.013040452
226	0x3cb89284	0.022530802
227	0xbd7e5089	-0.062088523
228	0x3e001a0c	0.12509936
229	0x3c985574	0.018595435
230	0x3c6f6012	0.014610307
231	0x3d3bb039	0.045822356
232	0x3d4173d1	0.04722959
233	0x3e0fff7b	0.14062302
234	0x3b533cb7	0.0032232234
235	0xbbd9d1ea	-0.006647338
236	0x3d4bbfe9	0.049743567
237	0x3abc7cc3	0.0014380444
238	0x3e22fe23	0.15917258
239	0xbd36a881	-0.04459429
240	0xbdfbf5f8	-0.12302774
241	0x3d071cb3	0.032986354
242	0xbd813f20	-0.06310868
243	0x3dd7c308	0.10535246
244	0xbd4c94c6	-0.04994657
245	0x3c12adef	0.008952602
246	0xbcd80f3c	-0.026374452
247	0xbdc65968	-0.09685022
248	0xbcf5f5d7	-0.030024452
249	0x3dc79bd8	0.09746522
250	0x3db5b7ee	0.088729724
251	0xbd764b82	-0.060130604
252	0x3dbbaea0	0.091641665
253	0x3cf098b9	0.029369699
254	0xba06f482	-0.0005148129
255	0xbd853fb3	-0.0650629

convs.1.lins.3.weight f4 [128, 64]
0	0x3be96e55	0.0071237483
1	0x3d9effb0	0.07763612
2	0xbd0cabe3	-0.03434361
3	0xbe31ec56	-0.17375311
4	0xbe21ad27	-0.15788709
5	0xbd4665ca	-0.048436917
6	0xbe2dfa41	-0.16989996
7	0x3cdfc751	0.027316721
8	0xbb7911a7	-0.0038004906
9	0x3daca2ea	0.08429511
10	0x3d4eac6e	0.05045741
11	0x3d47d75b	0.048789363
12	0xbd436f79	-0.04771373
13	0xbbf1bf74	-0.0073775593
14	0x3daa4f5a	0.08315916
15	0xbdd33ff3	-0.10314932
16	0x3d94b248	0.07260567
17	0xbdd88032	-0.10571326
18	0xbc44ddaa	-0.012015739
19	0xbd8dcc2b	-0.069237076
20	0xbd1268a0	-0.03574431
21	0xbd5bbb15	-0.053645212
22	0x3bb2dd37	0.0054585
23	0xbdc56c62	-0.09639813
24	0x3da8966b	0.08231815
25	0xbe014878	-0.12625301
26	0xbdcbc74f	-0.099501245
27	0x3cbf37da	0.023342062
28	0xbacedf23	-0.0015783053
29	0xbd66233b	-0.056185942
30	0xbd5b2786	-0.05350449
31	0xbcd8fc40	-0.02648747
32	0x3b22d7e3	0.0024847917
33	0xbdb51dbc	-0.08843562
34	0xbda81a79	-0.08208174
35	0xbe003bff	-0.12522887
36	0xbdddf1ca	-0.10837133
37	0xbc4dc18c	-0.012558352
38	0x3d6c1f9b	0.05764733
39	0xbe2b4c85	-0.16728409
40	0xbcb52485	-0.02211214
41	0x3d01b69f	0.0316683
42	0x3d8437c7	0.06455951
43	0x3ccdce3e	0.025122758
44	0xbd9c6b04	-0.07637599
45	0x3d4dbcfc	0.050229058
46	0xbd142132	-0.03616447
47	0x3c19a74d	0.0093782665
48	0xbd453b4f	-0.048152264
49	0xbde4e601	-0.11176682
50	0xbdfa4efd	-0.12222097
51	0x3d61f01d	0.05516063
52	0xbc01b961	-0.007917733
53	0xbddda656	-0.10822742
54	0xbcfffbc4	-0.03124798
55	0x3db31eb8	0.087460935
56	0x3d9cefc3	0.076629184
57	0xbe0e6224	-0.13904625
58	0xbdb79848	-0.08964592
59	0x3c9b2b79	0.018941628
60	0xbd3c15db	-0.04591928
61	0xbc48c7eb	-0.012254695
62	0xbbc6a390	-0.0060619786
63	0x3ddb1e8e	0.10699187
64	0x3ca7d114	0.020485438
65	0x3e178710	0.14797616
66	0xbb4be01e	-0.0031108926
67	0x3e05365e	0.1300902
68	0x3d6fbd1a	0.05852995
69	0xbddf5f29	-0.10906822
70	0x3de9468e	0.1139041
71	0xbdbe185e	-0.092819914
72	0x3d01f8b8	0.031731337
73	0x3dcb80e0	0.0993669
74	0x3d39983e	0.045311205
75	0x3d5ab706	0.0533972
76	0x3db755f9	0.08951945
77	0xbd9c3b7f	-0.076285355
78	0x3d83f3f6	0.06443016
79	0xbd48cdf3	-0.049024533
80	0xbc4808a5	-0.012209092
81	0x3d4184aa	0.04724566
82	0xbe62533a	-0.22102061
83	0xbccd82de	-0.025086816
84	0xbcba505a	-0.022743393
85	0x3dd46b53	0.10372033
86	0xbd1c558f	-0.038167533
87	0xbcde1708	-0.027110592
88	0x3cf82a28	0.03029354
89	0xbdb03122	-0.08603121
90	0x3dc0706b	0.09396442
91	0xbcd40c47	-0.02588476
92	0x3ca9df85	0.020736465
93	0x3d125bf3	0.03573222
94	0x3db3f97f	0.08787822
95	0x3d2eebe7	0.042705443
96	0xbd1cc3dc	-0.038272724
97	0x3dd7499f	0.10512089
98	0x3da9b307	0.082861
99	0x3cde43aa	0.027131874
100	0x3d9d2eca	0.0767494
101	0xbc0dc618	-0.008653186
102	0xbc64733b	-0.013943489
103	0x3b785d56	0.003789743
104	0x3d6bc1c6	0.057557844
105	0x3dbdae30	0.09261739
106	0xbdd9875c	-0.10621521
107	0x3da9bf18	0.08288401
108	0x3c9461ae	0.018112984
109	0x3d70a83c	0.05875419
110	0xbd88ee1a	-0.06686039
111	0x3d3fd773	0.046836328
112	0x3e0b80b3	0.13623314
113	0x3cb6e277	0.022324784
114	0x3da87fe1	0.08227516
115	0xba94dcee	-0.0011357346
116	0xbdc6a84c	-0.09700069
117	0x3dd97ac5	0.106191196
118	0xbcf66322	-0.030076567
119	0x3e1cf813	0.15329008
120	0x3e0f096a	0.13968435
121	0x3df15bc6	0.117850825
122	0xbd3c352a	-0.04594914
123	0x3d7251b7	0.05915996
124	0xbc448d2f	-0.011996551
125	0xbd6158a7	-0.055016186
126	0x3da11c4a	0.07866724
127	0x3d2efe0e	0.042722754
128	0xbdee194d	-0.116259195
129	0xbdc38a92	-0.095479146
130	0x3d089d5d	0.0333532
131	0xbe2a5c1c	-0.166367
132	0xbdae9605	-0.08524708
133	0x3dc54f87	0.09634309
134	0xbe33391b	-0.17502253
135	0xbdad4338	-0.084600866
136	0xbd36ac73	-0.044598054
137	0xbe2eae0a	-0.17058578
138	0x3d237abf	0.03991198
139	0xbd2cd356	-0.042193733
140	0x3bd075f7	0.0063617188
141	0xbe0b725d	-0.13617845
142	0x3d8c404f	0.068482034
143	0xbcedac12	-0.029012714
144	0xbd7d6f8d	-0.06187396
145	0xbdc681ae	-0.09692703
146	0xbdf5e7ea	-0.12007125
147	0xbd83c268	-0.064335644
148	0xbd25a4d4	-0.040440395
149	0xbc351d97	-0.011054418
150	0xbd5fd40c	-0.054645583
151	0xbd039be5	-0.032131094
152	0x3cea5cd8	0.028608724
153	0xbd3d217a	-0.046174504
154	0x3d0cf257	0.0344108
155	0xbe29a1fb	-0.16565697
156	0x3ce5041c	0.027956061
157	0xbd9882f2	-0.07446851
158	0xbd56167e	-0.052267544
159	0x3db8117b	0.08987709
160	0xbd8c6085	-0.06854347
161	0x3cab939c	0.02094441
162	0xbc4ee94c	-0.0126288645
163	0xbce5d688	-0.028056398
164	0xbd25b15e	-0.040452354
165	0x3d082440	0.033237696
166	0xbd8e57ec	-0.069503635
167	0xbc2a5d25	-0.010398184
168	0x3db8e8dc	0.090287894
169	0xbd7bb803	-0.061454784
170	0xbe83be09	-0.25730923
171	0xbe21db19	-0.15806235
172	0xbc9d0793	-0.01916865
173	0xbd2005ee	-0.039068155
174	0xbdc003b8	-0.09375709
175	0x3d4b59e5	0.049646277
176	0x3d47d800	0.048789978
177	0x3d0c8de1	0.034314994
178	0xbcb2d6fa	-0.021831024
179	0xbdb1ea5f	-0.08687281
180	0x3c344923	0.011003765
181	0xbc278a0c	-0.010225784
182	0x3c439f0b	0.011939774
183	0xbd0d13de	-0.034442775
184	0xbd9fc32c	-0.07800898
185	0xbd8321b7	-0.06402915
186	0xbe2ab54c	-0.16670722
187	0xbe17ea10	-0.14835382
188	0xbdab0063	-0.08349683
189	0xbe2f198f	-0.17099594
190	0x3d9739e2	0.07384087
191	0xbda01bf5	-0.078178324
192	0xba90efcd	-0.0011057794
193	0xbd04d97e	-0.03243398
194	0x3d1b7836	0.03795644
195	0x3d9ce76b	0.07661327
196	0x3da8c257	0.082401924
197	0xbb5cd9de	-0.0033699195
198	0x3ddaa56d	0.10676084
199	0xbdc1388d	-0.09434614
200	0xbcac7431	-0.021051498
201	0x3d95fc05	0.073234595
202	0xbcbf5167	-0.023354245
203	0xbdb058f6	-0.08610718
204	0xbd86d0ff	-0.065828316
205	0xbdd9f328	-0.106420815
206	0x3cce6b43	0.02519763
207	0xbe1bef5f	-0.15228032
208	0x3dc14473	0.09436884
209	0x3db01bff	0.0859909
210	0xbcbc017d	-0.022949928
211	0x3d826975	0.063677706
212	0x38fc9081	0.00012043212
213	0x3e2271dd	0.15863748
214	0xbcb40b9c	-0.021978192
215	0x3d9335ff	0.07188033
216	0x3c784d4e	0.01515515
217	0x3de2bacc	0.11070785
218	0x3c4e2b18	0.012583517
219	0xbd9b75d8	-0.07590836
220	0x3d6a0cd5	0.057141144
221	0xbdb0f65a	-0.08640738
222	0x3d9fccc9	0.078027315
223	0xbd1770fa	-0.036972977
224	0xbd6fe4e9	-0.058567915
225	0x3cd20f31	0.02564201
226	0x3e059d93	0.13048391
227	0x3d4a2ba8	0.04935804
228	0xbce17034	-0.027519323
229	0xbc14fc91	-0.00909342
230	0x3d1de1af	0.038545307
231	0xbd1c2a06	-0.038126014
232	0xbd0255a5	-0.03181996
233	0x3d842b5f	0.06453585
234	0x3c0cf4b4	0.008603264
235	0xbd8a71c3	-0.067599796
236	0xbd96083f	-0.073257916
237	0xbdbcfa46	-0.09227423
238	0xbd881e75	-0.06646434
239	0xbd592bb8	-0.05302021
240	0xbdc15615	-0.09440247
241	0x3d2fe536	0.042943202
242	0xbd1591fc	-0.036516175
243	0xbcb1b3ec	-0.021692239
244	0x3dc1efac	0.09469542
245	0xbda3b14b	-0.079928
246	0x3d7df3a4	0.061999932
247	0x3ceb379a	0.028713036
248	0x3d6bd37d	0.057574738
249	0xbca2da9e	-0.019879635
250	0xbdea603c	-0.114441365
251	0x3dc3e54a	0.09565218
252	0xbd0e6bf4	-0.03477092
253	0x3d8dc208	0.06921774
254	0xbd509c61	-0.050930385
255	0x3d412c89	0.047161613
