Entrenar/runs/118/GNN_local/04-12_17:25:47/weights/best_model.pt (torch, 186914 bytes, 29 tensors)

convs.0.bias f4 [64]
000000 6c 66 0a 3f 2c 28 09 3e fd de d1 bd f8 94 d4 3e
       0.54062533 0.1339423 -0.1024761 0.41519904
000010 0c 46 cd 3e 69 75 25 bf 7a c2 c3 3e be 01 12 be
       0.40092504 -0.6463228 0.3823431 -0.14258477
000020 71 79 d5 3e 3d 14 00 3f d2 de 7d bf 53 74 88 bf
       0.41694215 0.5003088 -0.9916812 -1.0660499
000030 2a f9 9a 3e b1 f3 87 be b6 d8 d3 be 76 e4 d2 39
       0.30268222 -0.2655311 -0.41376275 0.00040224538
000040 33 e5 c0 3e 74 8a cd bb 58 60 8d be 6c fb 7a be
       0.37674865 -0.0062726084 -0.27612567 -0.24509972
000050 86 00 12 3e 60 af 45 bf 0f 98 82 bf 88 43 8b 3d
       0.14258012 -0.77220726 -1.0202655 0.0679999
000060 bd 9c e3 3d cd ae 58 be 87 ad 28 bf 19 75 24 3e
       0.1111388 -0.21160431 -0.6588978 0.16060294
000070 17 00 b2 be 58 b9 67 bd 39 65 fd 3e a0 c4 5c bf
       -0.34765694 -0.056573242 0.4949129 -0.86237526
000080 9f 95 15 3f ec 35 2e 3e 1e 4b b4 bd 69 13 9d 3d
       0.5843143 0.17012757 -0.0880339 0.07669718
000090 ba 56 78 3d eb 8e 57 bd 05 b5 73 3e 2b 1e 3c 3e
       0.060629584 -0.05262653 0.23799522 0.18370883
0000a0 d2 bd b2 bf 08 e7 14 bf 89 f3 93 be 17 e5 f0 3e
       -1.3964179 -0.58165026 -0.2889674 0.47049782
0000b0 81 48 b2 be 11 bd 04 bd 71 22 0d 3e 8e 65 50 bf
       -0.3482094 -0.03240687 0.1378267 -0.8140496
0000c0 4e 54 1b bd 79 26 39 3f 8f 38 1e 3f a0 a1 38 be
       -0.037922196 0.7232433 0.6180505 -0.18030405
0000d0 e6 a2 fd 3e d9 95 f2 3e cc 87 95 be f0 b8 04 3f
       0.49538344 0.4737995 -0.29205167 0.5184469
0000e0 95 f9 cc 3e d7 1e 46 bc e1 ef e0 3d 91 69 8a 3e
       0.40034166 -0.012092314 0.10983253 0.27033666
0000f0 fd d9 9d be 8e 87 e3 bc 03 71 32 3d 10 78 21 bf
       -0.30830374 -0.027774598 0.043564808 -0.63073826

convs.0.lins.0.weight f4 [64, 2]
000000 4e a0 c0 bd 43 a5 d7 bd 15 20 16 3e 61 e1 4e 3e
       -0.09405576 -0.10529568 0.14660676 0.20203163
000010 62 18 bb be 3a 0a 1a be 60 d0 09 be 6b 05 19 3d
       -0.3654204 -0.15042964 -0.13458395 0.037358683
000020 c5 d7 be bc 8a 89 76 bd 23 93 54 3f a2 6d d7 be
       -0.023296246 -0.06018976 0.8303701 -0.4207583
000030 db 18 13 3e 71 02 52 3d dd 17 db 3d 42 ae 3c 3e
       0.1436495 0.05127186 0.10697911 0.18425849
000040 49 06 d3 bd 94 48 94 bc d8 5d 83 be 64 26 1f 3e
       -0.10303933 -0.018101014 -0.25657535 0.15541989
000050 1b ad 2c bf b0 62 f7 3e 3a a2 08 bf ed fb 71 3b
       -0.6745164 0.4831748 -0.5337254 0.003692384
000060 20 65 81 bd 0e 2d 48 bc 9b 6d 66 bc 2e 65 3f bd
       -0.06318116 -0.012217773 -0.014064218 -0.04672735
000070 be 83 41 3f 21 e7 45 bf 98 05 35 3d c3 c4 7c bc
       0.7559165 -0.773058 0.044194788 -0.015427771
000080 ea a2 41 3e f7 dd 25 3d 0c 19 88 be 41 06 db 3c
       0.18909803 0.040494885 -0.2658161 0.02673638
000090 5e 86 17 3d 98 17 f7 3c a9 41 ac be 98 8e 44 be
       0.036993377 0.030162618 -0.33643845 -0.1919502
0000a0 1f 20 38 3e b0 0e e7 bd e9 b9 98 be d9 07 05 be
       0.17981003 -0.11282098 -0.29829338 -0.12991275
0000b0 65 ba 33 bf 63 05 51 3f 5b ab cf bd 87 3e 66 bd
       -0.7020629 0.81648844 -0.10140105 -0.056211974
0000c0 70 73 c3 be 21 42 7b be b8 35 83 bc 82 f7 bc 3d
       -0.3817401 -0.24536945 -0.016016826 0.09226896
0000d0 90 33 40 3e 7d 8e 22 3f 30 e8 69 bc 16 73 f2 3d
       0.1876967 0.6349867 -0.014276549 0.11838357
0000e0 2f 21 01 3f 8f bf 8e 3e 15 a0 dc bd fc 3e e0 3d
       0.5044126 0.27880523 -0.10772721 0.10949513
0000f0 70 61 1a 3e 07 ac 88 bd 66 2b 3f be e0 69 bd bd
       0.15076232 -0.066734366 -0.18668899 -0.0924871
000100 4a 69 a5 3e 4b 1b 03 bd 9d 2d c3 bc 26 93 43 3c
       0.32306892 -0.03200845 -0.023825461 0.011936938
000110 17 0b ee be 87 9b 10 3e 19 4b 16 bd 1e e9 e8 bb
       -0.46492836 0.14121829 -0.036692712 -0.007107868
000120 0a c5 af 3e bc 33 06 bf d5 84 33 3f 42 77 0e 3f
       0.34330016 -0.5242269 0.7012456 0.55650723
000130 50 5d 0b be 23 f6 33 be 43 c8 df bc 7d 0c 2e 3c
       -0.13609815 -0.17574362 -0.027317172 0.010623095
000140 f6 6a fc 3d 00 d2 e1 bd 53 2d de 3e fd f3 9e 3e
       0.12325089 -0.110263824 0.43393955 0.31045523
000150 7d 44 0e bd b0 e1 a8 3b b0 46 60 bd 27 d4 13 be
       -0.034733284 0.005153857 -0.054754913 -0.14436398
000160 31 04 34 bf 04 cb 31 bf fe 9c 30 3e 2b 74 a1 be
       -0.70318896 -0.694504 0.17247388 -0.31533942
000170 37 df 02 be 39 5b 30 3b 9f 94 4d 3f fb da 0b 3f
       -0.12780462 0.0026909842 0.803049 0.5463101
000180 13 d0 b8 be 78 6c 7d be 65 e9 31 bd 33 6f 43 3e
       -0.36096248 -0.24748409 -0.043435473 0.19085388
000190 54 41 c5 3d 23 24 2c bb 82 ff a4 bc e3 be af 3e
       0.09631601 -0.0026266656 -0.020141367 0.34325323
0001a0 88 52 6e bc 4c 26 d9 bb 61 35 8d 3e 7d a6 e3 bd
       -0.014546044 -0.00662688 0.27579787 -0.111157395
0001b0 f3 87 9a be 4a 93 75 3e 7b e9 65 3e 5d 1b b4 3d
       -0.30181846 0.23981968 0.22452347 0.08794282
0001c0 a3 e0 bc bd df 7f 49 3d 09 bc bf 3e 4b ec 91 be
       -0.092225336 0.049194213 0.37448147 -0.2850059
0001d0 05 f1 35 bd 6b cd 40 bc f6 88 bf bd 06 62 fa 3c
       -0.044419307 -0.011767725 -0.09352295 0.03056432
0001e0 cb 27 3b 3d 8d 6e dd bc 6d bc 57 3b 9d 62 93 3c
       0.045692246 -0.027030254 0.0032918707 0.017991358
0001f0 fe 11 d2 be 10 64 bb 3e e2 f0 94 be 53 64 12 bf
       -0.41029352 0.3659978 -0.2909003 -0.5718433

convs.0.lins.1.weight f4 [64, 2]
000000 fa 7d ac be d6 7d a9 3e 12 6d 8b 3c f9 15 1f 3e
       -0.33689862 0.33103818 0.017019782 0.15535726
000010 82 8d 04 bf 12 79 3c be c1 f8 c0 bd 49 44 76 3d
       -0.51778424 -0.1840556 -0.09422446 0.060123716
000020 58 2e a7 bd 54 df 4e 3e 5b 36 11 3f cf df 53 3d
       -0.08163136 0.2020238 0.56723565 0.051727112
000030 6a 92 61 bd ee c3 85 3c 20 73 42 bd 9c 6b 2c bd
       -0.055071272 0.016328778 -0.047473073 -0.04209481
000040 4d ba eb bd 05 0c c7 be 4b fe 2d 3e 9e bc 89 3d
       -0.115101434 -0.38876358 0.16991536 0.06725429
000050 e1 b0 ff be e4 cc d6 3d b4 0a 49 bf f0 88 03 3f
       -0.49939635 0.104882985 -0.78531957 0.51380825
000060 0d bf c1 3d 3c f8 1e be 7f 89 98 3d 4c 95 29 be
       0.09460268 -0.15524381 0.074481 -0.16560858
000070 8e 66 a3 bb e4 8e a1 bd cc e9 5c be d9 fc 40 3d
       -0.0049865907 -0.07888582 -0.21573561 0.047116134
000080 b6 b7 ad 3c b0 9e 5a 3e a3 9c 6a 3b a8 cd 7c 3e
       0.021205764 0.21349597 0.003579893 0.24687827
000090 17 05 f0 3d 28 e2 c3 bd 00 73 ba 3e c1 2b 51 3d
       0.11719721 -0.0956462 0.36415863 0.051067118
0000a0 77 07 96 3e d1 12 2c be 1f 1f fa be ae b9 0e bd
       0.2930257 -0.16804053 -0.4885187 -0.034845047
0000b0 2e c5 fe 3e ca 1e b6 3e 84 8b da 3c c7 1e 8e bd
       0.4975981 0.35570365 0.026677854 -0.06939464
0000c0 80 2d 83 3e e9 db 9c 3d 8f fb 9b 3e c6 84 ed 3c
       0.2562065 0.07659132 0.3046536 0.028993975
0000d0 03 3e 8b be d9 9b 85 3f e3 e6 04 be 19 07 41 bd
       -0.2719575 1.0438186 -0.12978701 -0.04712591
0000e0 84 af d1 be 9e 55 05 be 6b 07 9a 3e c9 fe 67 bd
       -0.4095422 -0.13020942 0.30083784 -0.056639466
0000f0 cf 83 ae 3e 02 f2 6f be 89 a9 34 3f 6e 26 3f 3e
       0.34084937 -0.23432162 0.7057119 0.18667004
000100 67 c8 1f bf 47 09 67 bd 4d 41 a2 be 64 c4 fe 3c
       -0.62415165 -0.056405332 -0.31690446 0.031099506
000110 17 84 66 bf aa 62 03 bf c6 8d d4 bd 88 a8 60 bd
       -0.90045303 -0.51322424 -0.10378604 -0.054848224
000120 9f f8 9a 3e b1 b7 00 bf fe ca 92 be 57 79 69 be
       0.30267808 -0.5028029 -0.28670496 -0.22800194
000130 cc 9b c3 bd e3 20 db bd cc df fd 3d a0 da 25 be
       -0.095512 -0.10699632 0.123962015 -0.1619668
000140 1c de 17 be 4e 04 73 3f 0d 02 10 3e 46 df 05 be
       -0.14830822 0.94928443 0.14063282 -0.13073453
000150 30 fb 53 be 9d eb 4b 3c 50 a5 8d bd 75 f0 85 3e
       -0.20701289 0.012446311 -0.069162965 0.26160017
000160 1d d6 53 bd 37 94 4c be 7b 90 51 3e 5f b3 05 3f
       -0.051717866 -0.19978414 0.20465271 0.52226824
000170 7a b6 ab 3e bd 6c cb bd 82 9f 36 3f 42 8b 12 bf
       0.33537656 -0.099328496 0.7133714 -0.5724374
000180 6b 3f cc bd 06 4a 74 3e ed e0 4d 3e 20 d6 6b 3e
       -0.099730335 0.23856363 0.20105334 0.23030901
000190 56 c8 27 3d 9b fd be bd 9e 84 b7 bd eb f8 28 3f
       0.04096254 -0.09325715 -0.089608416 0.6600482
0001a0 a3 d3 32 3e da f6 da bd 93 b3 77 bc d8 b8 a9 be
       0.17463546 -0.106916144 -0.015118497 -0.33148837
0001b0 98 de 85 3e d0 df e5 3d 66 f4 ac bc a2 f1 f9 3c
       0.26146388 0.112243295 -0.021112632 0.030510727
0001c0 40 3f 2f 3e 55 af 77 bd 5d 26 17 be 1f 2d 02 3d
       0.17113972 -0.060469944 -0.14760728 0.031781312
0001d0 9f 0c 9b bb d6 77 49 3e de 43 e8 3d a6 41 eb 3d
       -0.004731729 0.1967462 0.1134107 0.11487131
0001e0 eb e6 d0 bd 99 19 b4 3d 01 a8 d6 3d a5 28 99 3d
       -0.10200294 0.08793945 0.10481263 0.074784555
0001f0 90 db 87 be 29 d2 a7 3c c0 95 18 3f 40 af 01 be
       -0.265347 0.020485954 0.596035 -0.12664509

convs.0.lins.2.weight f4 [64, 2]
000000 be 69 2a be fc 51 12 bd 1b 97 2f be 67 e2 4e be
       -0.166419 -0.035722718 -0.17147486 -0.20203553
000010 72 18 52 3f 72 bc af 3e 5e 40 eb 3e 3e 80 35 be
       0.8206855 0.3432346 0.45947546 -0.17724702
000020 e5 79 86 3e 81 3e 10 3e 97 c7 cf be 7f d7 89 be
       0.26264873 0.14086343 -0.40581962 -0.26922223
000030 a1 fe 9a bd 84 5c 9f be 6d 04 15 bd 43 5f d9 3e
       -0.07568098 -0.3112527 -0.036381174 0.4245549
000040 4b 42 00 3f a4 c9 a8 3e 1d 2c f1 3e 45 00 93 be
       0.50101155 0.3296634 0.47103968 -0.28711143
000050 a4 de 07 be 05 e0 cb 3e ca 6a 52 ba cf 96 1f be
       -0.13268524 0.3981935 -0.0008026777 -0.15584873
000060 db 05 f7 be 75 98 28 3d 4f 68 47 be 86 fd 86 3d
       -0.48246655 0.04116102 -0.19473384 0.065913245
000070 9b ab aa 3e 8c 13 2b bd b3 0a 19 3e aa c0 76 3e
       0.3333405 -0.04176669 0.14945488 0.24096933
000080 f4 9f ba be a6 ca f6 3c aa dc 35 3f 16 88 83 bd
       -0.3645016 0.030125927 0.7103983 -0.06422441
000090 8f 0a 43 be e5 30 5b be 72 f5 28 bd fd a0 f9 be
       -0.19046997 -0.2140537 -0.0412497 -0.48755637
0000a0 1c 39 d4 be 3a 80 98 3e aa 07 d0 3b 3e 0d fc be
       -0.4144982 0.2978533 0.00634857 -0.49228853
0000b0 72 fa 05 bf a2 63 62 be fb 66 d2 bc 06 29 aa 3d
       -0.52335274 -0.2210832 -0.02568387 0.08308606
0000c0 1a 76 d7 be c9 fc e6 3d d2 90 6e 3d aa 7c fa be
       -0.42082292 0.11278684 0.05824358 -0.48923236
0000d0 d6 89 28 bf 7d f7 a1 3e c2 c3 b7 be 59 36 41 be
       -0.6583532 0.3163413 -0.3589154 -0.18868388
0000e0 46 06 ba 3e 45 4f e0 3d 48 d8 8c 3e 8c 99 26 bf
       0.3633291 0.109526195 0.2750876 -0.65078044
0000f0 85 1b 05 bf 17 17 20 be 41 27 86 3f 43 92 c6 bc
       -0.51995116 -0.15633808 1.0480729 -0.024239665
000100 15 2c 20 bf 2d 7c 36 3e 59 e0 ae be ef 01 b3 3c
       -0.62567264 0.17820807 -0.3415554 0.021851508
000110 02 1a 81 be 48 3e 04 3f 57 06 24 3d f8 da e4 ba
       -0.25215155 0.51657534 0.04004511 -0.0017460277
000120 8b 57 09 bd 78 6a a6 3c 82 68 8e 3e ec 55 39 3e
       -0.033530753 0.02031444 0.27814108 0.18099183
000130 12 79 d4 bc 07 ac 42 3d ad 15 61 3e 1f ae c4 3b
       -0.025936637 0.04752734 0.21980925 0.006002202
000140 3a cb 10 3f 37 b9 fa 3e 5b bb 3c 3f 89 3f 64 3f
       0.565601 0.48969433 0.7372338 0.89159447
000150 8a 36 21 3e 7a 10 fc bc c9 61 62 3e f4 17 e7 3e
       0.15743461 -0.030769575 0.22107615 0.45135462
000160 7b c3 13 bf 68 d4 6d be 52 37 19 be 6b 68 8f 3e
       -0.57720155 -0.23225558 -0.1496251 0.28009352
000170 ef f1 f3 bd 5d a5 93 bc 28 1b 99 3e 59 f5 c2 3e
       -0.119113795 -0.018023187 0.2990353 0.3807781
000180 2a 59 6f bd e9 ea a4 be df 34 b4 3e 5f 3a 4b be
       -0.058434643 -0.32210472 0.35196587 -0.19846486
000190 55 70 db bb 8d d6 51 3e 74 cb 4f 3e 05 a1 39 bf
       -0.0066967406 0.20492001 0.20292455 -0.7251132
0001a0 88 ec ce 3e 0f 11 37 be ae 53 d7 be 3d 7c d6 3e
       0.40414834 -0.17877601 -0.4205603 0.4189166
0001b0 8c cb 90 be e0 3c 66 be 08 07 ef bd e8 89 fa bd
       -0.28280294 -0.2248416 -0.11671263 -0.12233335
0001c0 f5 a4 a2 be e9 d2 88 be ed 98 69 3e e0 a4 b8 be
       -0.31766477 -0.26723412 0.22812243 -0.3606329
0001d0 23 b9 b7 bd 29 84 56 3e f6 83 cc 3c f6 bb 7f bc
       -0.08970859 0.20948853 0.024965268 -0.015608778
0001e0 58 03 89 be c0 bd 3f 3e 90 6f d3 3e e7 33 10 bd
       -0.26760364 0.18724728 0.41296053 -0.035205748
0001f0 b2 07 11 bf 65 76 92 be f0 e4 00 be b6 ff ba be
       -0.5665237 -0.28605953 -0.12587333 -0.36523217

convs.0.lins.3.weight f4 [64, 2]
000000 7a a4 9a 3e 59 6e a1 be 09 a2 da 3e 5a 60 71 be
       0.3020361 -0.315295 0.42701748 -0.23571911
000010 d1 06 ba 3e 41 b6 25 3e 7e aa 3a 3e ec 8f 0b be
       0.36333326 0.16182806 0.182291 -0.1362912
000020 60 92 0f 3e fd 18 ae be 1a f9 88 3e f1 10 86 3e
       0.14020681 -0.3400344 0.2675255 0.261848
000030 93 a1 ab 3d 37 81 b6 bd d0 9d 40 3d 5d 1d 89 3d
       0.08380427 -0.089113645 0.0470255 0.06695054
000040 d4 85 a3 be 0f b5 22 3f 9d c3 16 be 64 85 8b bd
       -0.3193804 0.63557523 -0.14723058 -0.068125516
000050 e5 c0 1f be 8e c0 38 bf 83 47 0f 3d f8 60 80 3e
       -0.15600927 -0.72168815 0.03498031 0.2507398
000060 72 46 34 bd c6 5d 30 3d 70 2c 1d 3f 67 35 93 bd
       -0.044012494 0.04305818 0.6139593 -0.0718792
000070 be a0 9c bd 6a 65 9e be 6c 96 09 3f d2 b3 ec bc
       -0.07647847 -0.30936748 0.5374515 -0.028894339
000080 33 79 ac bd 11 de 5f be 42 84 bd 3d 28 2d d3 be
       -0.084215544 -0.21862055 0.09253742 -0.4124539
000090 91 b6 02 bf e0 d4 73 3e 30 52 81 3f 4f b0 e8 3e
       -0.51059824 0.23811674 1.0103207 0.45447013
0000a0 03 88 f5 be 95 f3 87 3e 80 ed 18 bf 35 11 cc 3e
       -0.4795533 0.26553026 -0.59737396 0.39856878
0000b0 16 18 27 3f 56 2d 04 3f 18 b4 b5 3e fd e0 55 3e
       0.6527113 0.5163168 0.35488963 0.20886607
0000c0 13 86 e1 3d dd 58 59 bc 28 fe cd bd 50 c3 9f 3b
       0.11011901 -0.013265816 -0.10058242 0.004875578
0000d0 df e2 09 bf b0 20 b4 3e cb 9c 97 be 8b f0 75 3d
       -0.538618 0.3518119 -0.2961181 0.060043853
0000e0 54 0e 02 be 8d 1a bf be 70 da 30 be 3d 3e 1a bf
       -0.12700778 -0.37324944 -0.17270827 -0.6025122
0000f0 22 fb 03 be 43 2c dd 3e c6 fb 86 3f 63 8a 9d 3e
       -0.12888768 0.43197832 1.0545585 0.30769643
000100 af 75 96 be ba f2 25 be 4f 60 c6 3e 73 e6 78 3b
       -0.2938666 -0.16205874 0.38745353 0.0037979155
000110 e3 41 56 bf 6f d1 e9 3d 82 65 d9 3e 80 54 c3 3d
       -0.83694285 0.114168994 0.42460257 0.095376015
000120 5b a8 35 3e 4b 0e 1f 3f 4a ac 21 3f 5c 81 dc 3e
       0.17740004 0.62131184 0.6315352 0.43067443
000130 2a c2 78 be 34 8b 84 3e 4b 2f 9d bd 9b 16 82 3e
       -0.24292818 0.25887454 -0.07675036 0.25407872
000140 55 74 17 bf 2d 1c 51 3f bb db 97 3e 7e 0c 33 3e
       -0.59161884 0.8168362 0.2965983 0.17485234
000150 dc ee c4 3d 19 69 56 bd 88 69 f8 bd 74 5e 1d bf
       0.09615871 -0.052346323 -0.121295035 -0.6147225
000160 39 18 ba bc b9 8d 8e 3e 57 b0 2a be fb 02 47 3e
       -0.022716628 0.278425 -0.16668831 0.1943473
000170 4a 8a 45 be f2 e4 9a 3e c6 14 52 3e 3f 12 49 bd
       -0.19291034 0.30252796 0.20515737 -0.049089666
000180 c2 f0 95 bc d2 99 cd be c5 21 b8 be e9 1a 35 be
       -0.018303279 -0.40156418 -0.35963264 -0.17686047
000190 29 49 c5 3e 6f fd 50 be 39 0d 28 3f 53 78 2a 3f
       0.3853238 -0.20409177 0.65645176 0.6658985
0001a0 58 d8 19 3e e6 67 02 3e 21 9e 06 bf 2f 62 1b 3f
       0.15023935 0.12734947 -0.52585036 0.6069669
0001b0 8a 8d 4d be c8 e0 93 be c8 50 a2 3d 2c 60 40 bd
       -0.20073524 -0.28882432 0.07925564 -0.046966717
0001c0 78 78 11 be c1 3d ab 3e 3e da a2 3d 60 fd c0 be
       -0.14206111 0.33445552 0.07951783 -0.3769331
0001d0 98 c1 3f be 67 d0 b1 be 39 90 6d be 86 da 8e be
       -0.18726194 -0.3472931 -0.23199548 -0.27901095
0001e0 d5 4b 77 3d d9 dd ac be e6 53 cd bc ec 97 fd bd
       0.060375053 -0.33763006 -0.02506442 -0.123824924
0001f0 18 36 0e 3f fc a1 09 be 83 f5 97 be 8f aa c5 bd
       0.5555129 -0.13440698 -0.29679498 -0.09651672

convs.0.lins.4.weight f4 [64, 2]
000000 fa 4b ba 3e 37 20 4c 3e 1f 6b 3c 3e cb 95 6e 3d
       0.3638609 0.19934164 0.18400238 0.058248322
000010 7e 45 3c 3f dc fe e4 3e 68 43 47 bf 05 c7 74 3e
       0.73543537 0.44725692 -0.7783723 0.23904045
000020 75 e7 3f 3e 1c 48 08 3d ff 6e 34 3f 72 46 e9 3c
       0.18740638 0.033271894 0.70481867 0.028475974
000030 ae bb 09 bf c1 ea fb 3e d2 ef 66 be fd 44 6b be
       -0.53802 0.4920254 -0.22552422 -0.22975536
000040 62 ef 1c bf 38 16 b8 be 77 ff 0e be a3 fe 9a bd
       -0.6130277 -0.35954452 -0.1396464 -0.07568099
000050 df 1b 8d bd 96 5c 14 3b a1 59 41 3f 78 f8 d9 3e
       -0.068900816 0.0022638193 0.7552739 0.4257238
000060 0f e9 f9 3e c5 a5 d1 3c 22 45 38 3f ef fd d1 bc
       0.48810622 0.02559174 0.7198049 -0.02563378
000070 be fa 0e bf 30 1a ec 3e ac 74 ea bd 33 14 95 be
       -0.5585135 0.4611373 -0.11448035 -0.29116973
000080 9e 46 73 3c a9 de 60 be d4 97 25 be 57 96 32 3e
       0.014848379 -0.21959938 -0.16171199 0.17440163
000090 5d b1 e2 3d 20 7b 81 3e 7f c1 78 be 29 c8 9d 3e
       0.110689856 0.2528925 -0.24292563 0.30816773
0000a0 40 ee ce 3e 75 9c f8 be 90 1f 5c bf bc eb 38 bf
       0.40416145 -0.48556867 -0.8598566 -0.722347
0000b0 cd c0 7a be cd b0 aa be e1 ab 94 3e c0 8d f8 bd
       -0.2448761 -0.33338013 0.29037383 -0.12136412
0000c0 8e 47 0e 3d cc b6 51 be 1d cc 23 be d7 15 0f 3f
       0.03473621 -0.20479888 -0.15995832 0.558927
0000d0 f7 1a 08 bf 51 1b d5 be 7a f8 02 3e d7 19 65 3e
       -0.53166145 -0.41622403 0.12790099 0.22373138
0000e0 35 04 96 3e d7 d1 92 3d be 74 b7 3e 38 b7 c9 be
       0.29300085 0.0716893 0.35831255 -0.39397597
0000f0 e4 e8 e6 3e 88 ab b1 3e a7 35 8b 3e 72 1a dc 3e
       0.45099556 0.3470118 0.2718937 0.42988926
000100 4d 22 18 3e 0b f5 bc 3d ae 6e fb 3e e6 02 5e bd
       0.14856835 0.09226426 0.4910788 -0.054201983
000110 e8 40 42 bf ac d2 21 bc 5d ff 95 3c 12 19 82 bd
       -0.7588029 -0.009876888 0.018310243 -0.06352438
000120 6a 50 b4 3e b1 75 a3 be d5 f7 19 3f 7f 6b e4 3e
       0.352176 -0.3192573 0.60143787 0.44613263
000130 ee fb 3f be a0 c8 19 be 1a 1b 99 bd f6 97 47 3c
       -0.18748447 -0.15017939 -0.07475872 0.012182226
000140 1d 67 8b 3f a7 b6 b5 3e 57 76 29 3f 5f b4 fe bb
       1.0890843 0.35490915 0.661962 -0.0077729668
000150 b8 c7 d7 bd 9c 1f 73 3d 53 3d 5a bd 66 b5 eb 3d
       -0.1053614 0.059356317 -0.05328114 0.115092084
000160 14 0c 7f be de 3e 15 be 89 fe 03 3f b2 5f 7a bd
       -0.24906951 -0.14574763 0.51560265 -0.06112642
000170 2d bc 11 3e 2a 17 f4 3d 7b 09 9a be 61 dc 02 bc
       0.1423194 0.11918481 -0.30085358 -0.007987113
000180 c1 4e 54 be e1 82 88 3e 5b e3 3a be e1 cb eb be
       -0.20733167 0.26662353 -0.18250792 -0.46053985
000190 b1 69 71 3d da c7 28 bd 9c ab 6b 3e a7 a0 f9 3e
       0.058938686 -0.04120622 0.23014683 0.4875538
0001a0 21 6c 04 be dc 72 ab 3e bf 9e 04 3e e7 a4 d9 be
       -0.12931873 0.33486068 0.12951182 -0.42508623
0001b0 8c 90 cf 3d 73 a1 85 3e 4c 01 e9 be 75 e6 76 be
       0.10134992 0.26099738 -0.45508802 -0.2411135
0001c0 0f 57 41 3f d6 d0 a3 3e 26 1a f2 3c 5e db 0f 3f
       0.75523466 0.31995267 0.029553484 0.561941
0001d0 44 6d 12 be db c6 53 be 97 88 7b be 42 63 83 bd
       -0.14299494 -0.20681326 -0.24563824 -0.06415416
0001e0 e6 f3 93 be cc 25 81 bd 2e bf b7 be 46 74 5b 3d
       -0.28897017 -0.06306037 -0.35888046 0.053577684
0001f0 5c ac 32 3f c0 1e 43 3e 78 6f 15 3f e8 ce 7e 3e
       0.6979425 0.19054699 0.5837321 0.24883616

convs.1.bias f4 [128]
000000 db 21 ae 3d 92 10 e9 bc eb f2 95 be 5d 82 8d 3d
       0.08502551 -0.028450284 -0.29286894 0.069096304
000010 c3 fe 85 bd d7 64 66 3d 3c 4d 3a be ba 79 0f 3e
       -0.065427326 0.056248512 -0.18193525 0.14011279
000020 08 3c e9 bb d6 de 0d bd c8 4b ed 3c 68 05 ed 3d
       -0.007117752 -0.03463634 0.0289668 0.11573297
000030 09 a1 aa be b8 e1 80 bc d7 17 c0 3d 21 e5 34 3d
       -0.33325985 -0.015732631 0.09379547 0.044163827
000040 51 15 8f 3d 70 83 40 be a1 40 81 3d d3 f4 ff bc
       0.06986488 -0.1880014 0.06311155 -0.031244671
000050 3b d0 a7 3d b7 77 38 be 60 88 1a 3d 51 d6 08 3e
       0.08194014 -0.18014418 0.037727714 0.13363005
000060 a0 df 7d bc 2d a3 1a 3e 32 07 86 3d a3 43 9b 3d
       -0.015495211 0.15101309 0.06544341 0.0758126
000070 8e 25 9c be c7 fe 63 bd d9 d1 47 be 53 98 1f 3d
       -0.30497402 -0.055662896 -0.19513644 0.038963627
000080 8d e4 9b be b1 51 32 be d5 b5 b9 3d 8b 3f 93 3d
       -0.30447808 -0.17413975 0.09067885 0.07189854
000090 1b 98 b4 be d1 f1 8c 3d 33 e4 99 3d 82 91 96 3d
       -0.35272297 0.0688206 0.07514229 0.07351972
0000a0 82 a2 52 3d 55 93 ba 3d 8a 0a 33 be eb 75 b1 bb
       0.05142451 0.091101326 -0.17484489 -0.0054156682
0000b0 0a 96 c6 3d 93 03 b6 3d 32 bd 41 3d 3f 35 9a bd
       0.096965864 0.088874005 0.04729957 -0.07529687
0000c0 f6 8c a3 3d 4c 9e e5 bd ea 01 89 bc a0 24 25 3e
       0.079858705 -0.11211833 -0.016724546 0.16127253
0000d0 db 07 7d 3d ab 3e a7 be 38 e5 17 3c 9d 97 2f 3d
       0.06177507 -0.32665 0.009270959 0.0428692
0000e0 c7 b3 7c bc 4b 47 c5 3d 91 4b ec 3d 83 4c 24 3d
       -0.015423722 0.09632739 0.11537851 0.04011203
0000f0 3d e5 98 be b6 ab a6 3d e3 11 7a bd 14 8c 1f 3c
       -0.29862395 0.0813822 -0.061052214 0.009737987
000100 4e 7c d3 3c 9c 60 83 bd 73 ed 1c 3d 47 4d 22 be
       0.025816109 -0.06414911 0.038312387 -0.15849791
000110 45 f6 10 3e 3d 5e b6 3b 61 6c 88 bc 83 49 b2 be
       0.14156444 0.0055654333 -0.016653242 -0.3482171
000120 f6 66 5a be 1a a1 0f 3d 58 a0 82 3d 02 e8 43 3e
       -0.21328339 0.035065748 0.063782394 0.19131473
000130 e6 4d 87 be 2c b9 d6 bb 19 f2 9c 3d 68 15 f5 3d
       -0.2642662 -0.006552836 0.07663364 0.119669735
000140 11 ef 29 be 9a df 3d bc 8a 06 61 3d 13 b9 04 3e
       -0.16595103 -0.011588955 0.054937877 0.12961225
000150 ac 15 3d 3d e6 d4 45 be 54 16 dd 3c 3c 99 04 3d
       0.046163246 -0.19319496 0.026988186 0.0323727
000160 58 af 87 3d 00 5c 13 3e 4f 92 84 bc af e1 f1 bb
       0.06625241 0.14390564 -0.016183047 -0.00738164
000170 2f a6 a1 3d df 94 f3 3d 7c 4a 19 3e 43 94 81 be
       0.07893025 0.11893629 0.1496982 -0.25308427
000180 93 17 d2 3c d0 4f 01 3e c7 1e 12 be a2 da 04 be
       0.025646007 0.12628102 -0.14269553 -0.12974027
000190 72 a6 22 be eb 15 a7 3d c7 b6 07 3d 43 99 48 be
       -0.15883806 0.081584774 0.033133294 -0.19589715
0001a0 b3 23 bb bc 14 2d 0c 3e 1e c8 77 be b6 cf 4d bd
       -0.022844171 0.13689071 -0.24197432 -0.050246917
0001b0 80 28 1b be 45 b8 08 be 7d 5f 36 be bb 05 7c 3d
       -0.15152168 -0.13351543 -0.17809863 0.061528903
0001c0 e7 08 08 bc 17 92 ce bd 12 1a 3a 3d b4 d3 b9 bd
       -0.008302904 -0.10086458 0.04543502 -0.09073582
0001d0 c9 15 3e bc cc f8 ab 3d bf a4 14 3e c2 0b 45 3e
       -0.011601874 0.083970636 0.1451597 0.19242766
0001e0 87 25 4f bc a8 f2 e8 3c d2 df 11 bd 08 82 9d be
       -0.012643225 0.02843602 -0.035613842 -0.30763268
0001f0 d6 12 79 3d 65 46 1f 3d 1e cc 9a 3d 1b 3e 41 3e
       0.06080898 0.038885493 0.075584635 0.18871348

convs.1.lins.0.weight f4 [128, 64]
000000 3b bf a0 bd 2a e3 bb bd 63 a8 bf ba 65 d1 a0 bd
       -0.07848974 -0.091741875 -0.0014622327 -0.07852439
000010 5a bf 90 bd 17 85 4d bd 65 43 1c be 93 d1 94 bc
       -0.070677474 -0.050175752 -0.15260084 -0.018166339
000020 1f 13 7b bd b1 b1 11 3c b3 7f 22 3e 99 b2 0f 3e
       -0.061297532 0.008892463 0.15869026 0.14032973
000030 ee bb b3 bd 40 28 d0 bd 0a ae a3 3c 24 aa 01 be
       -0.08776079 -0.10163927 0.01998045 -0.1266256
000040 d4 4d 0b be 24 15 95 3d 55 2d 1d bd d5 24 fe bd
       -0.13603908 0.07279423 -0.03837331 -0.12409369
000050 f1 82 0e 3a 63 c7 2f 3e 4f 54 85 bc ef a7 b4 bd
       0.0005436382 0.17165904 -0.016275553 -0.08821093
000060 82 85 6b 3d 72 60 06 be ad e7 a0 3d d9 76 4a be
       0.05750037 -0.13122728 0.07856689 -0.197719
000070 57 d3 87 3d 7e 35 68 bd dd 5f 70 be fb 13 03 be
       0.06632107 -0.05669164 -0.23474069 -0.1280059
000080 dd 5a 82 3c 15 39 fa bc fe 95 1a 3e 57 95 02 be
       0.015912468 -0.030544797 0.1509628 -0.12752281
000090 01 58 89 bd 51 4b 52 bd f9 3d 29 bd 60 5a ee bd
       -0.067062385 -0.05134136 -0.041318867 -0.116383314
0000a0 bd 6c 45 bd 00 f7 0c be a2 22 21 3c ba a7 ca bd
       -0.048199404 -0.13766098 0.009834917 -0.098952726
0000b0 eb 0f 2b 3d a1 f0 80 3d f9 49 9b bd 9e 84 f3 bc
       0.041763227 0.06295896 -0.075824685 -0.029726323
0000c0 d6 4d 72 bd 5a a3 95 bd 14 aa c9 bc 7d 63 80 3b
       -0.05915626 -0.073065475 -0.024617232 0.00391811
0000d0 7c 4c ae bc ee 5d 81 bc 8e 62 1f 3d de f1 2c be
       -0.021276705 -0.01579186 0.03891235 -0.1688914
0000e0 29 00 83 bd 48 e2 a7 3d 85 cb d0 bd 19 0b cc bd
       -0.06396515 0.081974566 -0.10195068 -0.09963054
0000f0 63 67 87 3d e7 cf 12 3b 9d ae 3e 3d d2 2f 97 bd
       0.06611516 0.0022401751 0.046553243 -0.07382168
000100 1c 3e 90 bd 21 9c 3f 3e 77 f2 8d 3d e1 cc 07 be
       -0.070430964 0.18711902 0.06931012 -0.13261749
000110 f4 3f 00 be 0f ce 2a bd 0e fc bc bd 0c a9 ba 3d
       -0.12524396 -0.04170042 -0.09227763 0.091142744
000120 71 7f 6f be 04 1a 0b be 3b 6d ff bc b4 63 03 3d
       -0.23388459 -0.13584143 -0.031180015 0.032077506
000130 29 e1 18 be 4c 03 f6 3d e4 d4 aa bd 14 2a c5 3a
       -0.14929642 0.120123476 -0.08341387 0.0015042447
000140 67 4f d4 bd 12 05 16 3d b9 69 22 bd 3a a2 47 3c
       -0.10366707 0.03662593 -0.039651606 0.012184674
000150 3b 6d c8 bd 37 18 af bd 79 9d e5 3b 5d 31 db 3d
       -0.09786459 -0.085495405 0.0070072976 0.10702775
000160 5e cb c2 3d 8a e5 ea bb e8 cf 09 bd 35 43 3e be
       0.095114455 -0.0071684765 -0.03364554 -0.18580325
000170 81 f8 76 bd aa ed 1d 3e 53 9c 51 be e3 b8 3f 3e
       -0.060295586 0.15422693 -0.20469789 0.18722872
000180 e9 c3 17 bd e9 8f 53 be c0 60 2b bd a8 0e 97 bd
       -0.03705207 -0.20660366 -0.041840315 -0.07375842
000190 fc 95 56 3e c3 1e 08 3e f8 6a 7b be 32 dd 2a be
       0.20955652 0.13292985 -0.24552524 -0.16685942
0001a0 0c 17 f0 3c aa 5d fe bc 0a c8 11 bb a5 4e b9 bd
       0.029307865 -0.031050522 -0.0022244477 -0.090482034
0001b0 d5 51 10 bc 50 27 8d 3d 6a 75 cf 3d 71 a5 d6 3c
       -0.008808573 0.06892264 0.10129817 0.026201935
0001c0 22 11 0e bc 78 a2 07 be 4d b2 32 be f1 cc 6f 3d
       -0.008671077 -0.1324557 -0.17450829 0.058545057
0001d0 42 22 94 bd a7 38 aa bd ae a2 26 bd c3 93 7d bd
       -0.07233097 -0.08311587 -0.040682487 -0.061908495
0001e0 7c 24 bd bd 1f 1a 92 3d 9d 87 8d be 57 a2 65 bd
       -0.092354745 0.071338885 -0.27642527 -0.056063022
0001f0 28 ca 94 bd 77 ed 39 be 59 84 f3 3c 9e e7 31 bd
       -0.07265121 -0.18156992 0.029726194 -0.043433778
000200 98 33 33 3e b1 0d e0 3d 12 04 35 3e d0 c1 3f 3d
       0.1750015 0.109401114 0.17677334 0.046815693
000210 5a ee 11 3e 68 b4 d2 bd a3 b3 bb 3e 2a 3f 55 3e
       0.1425108 -0.10288316 0.3666049 0.20824876
000220 aa 31 63 3e f3 7c 23 3e 63 02 85 bc 27 b8 ed 3c
       0.22186914 0.15965633 -0.01623649 0.029018475
000230 0d bd 83 3e fd 39 eb 3a 22 4c 0c bd 95 fb 9b 3e
       0.25730172 0.0017946359 -0.034252293 0.3046538
000240 ec 84 d2 3d 64 58 22 3e a5 c9 a8 3e 35 a3 ef bc
       0.10279259 0.15854031 0.32966343 -0.029252628
000250 19 10 02 3e 55 90 79 3e 84 92 02 bc f5 03 3d 3e
       0.12701453 0.24371465 -0.007969502 0.1845854
000260 c5 21 21 3d 85 06 df 3d c9 15 9e 3d 18 6b 3c 3e
       0.039338846 0.108899154 0.07718999 0.18400228
000270 0f b7 ef 3d fc 56 0e 3e a7 13 fd 3d 83 82 c8 bd
       0.117048375 0.1390037 0.12357264 -0.09790518
000280 c0 5d 37 3e b3 6f 9d 3e a3 8f e7 3d fc 25 81 3e
       0.17906857 0.30749282 0.113066934 0.25224292
000290 4e c1 32 3e 87 ff e4 3c 94 33 96 3e d4 cb 1f 3e
       0.17456552 0.027953876 0.29336226 0.15605098
0002a0 10 b0 a6 bd 1e 04 ec bc 07 f1 04 3d 08 1d 6d 3e
       -0.0813905 -0.028810557 0.032456424 0.23155606
0002b0 a2 45 30 bd 58 da 10 3e ac 38 a0 3e db 4e 55 bd
       -0.043035157 0.14145792 0.31293237 -0.052077156
0002c0 d6 23 22 3e 90 4b 3e 3e a3 cd e9 3d ad e3 5b 3d
       0.15833983 0.18583512 0.11416175 0.053683925
0002d0 ff f9 0b 3e 1d 24 5d 3e 2a 2d f3 bc 7e 99 4d 3e
       0.13669585 0.21595807 -0.029684622 0.20078084
0002e0 8a b6 52 3e 28 17 62 3e f2 82 54 3e 31 1c a5 3e
       0.20577446 0.22079146 0.20753077 0.3224807
0002f0 7c 54 3c 3e 88 25 ce 3e c3 71 f5 3d c2 3a 24 be
       0.18391603 0.4026301 0.11984589 -0.1603804
000300 89 3f 3a 3c 87 dd 89 bd ab 60 0c 3c de 63 be 3c
       0.011367687 -0.06731706 0.008567969 0.02324098
000310 e9 9f de bc 98 f6 b6 3c 7d 6a 0e be 6f d0 bf bc
       -0.02717586 0.022334382 -0.1390781 -0.023414819
000320 ce 75 28 be 89 cd 35 be 62 32 30 bc 86 ae fb 3d
       -0.16451189 -0.17754187 -0.0107542 0.12289147
000330 57 11 04 bd ce 29 a1 bd 85 9e 99 bd ca f0 a2 bd
       -0.0322431 -0.07869302 -0.07500938 -0.07956083
000340 33 ea 19 be fb 58 1e 3c 01 3d 8f be d8 a8 af 3c
       -0.15030746 0.009664769 -0.2797623 0.021442816
000350 18 50 3a be 4d d6 86 bc 93 7c 53 3b 25 ec f4 bc
       -0.18194616 -0.016459608 0.0032270297 -0.029897759
000360 90 0b 24 bc fd 22 94 3c ed ef e1 bb 3f 5e 39 bd
       -0.010012522 0.01808309 -0.0068950565 -0.045255896
000370 90 d8 5c be 22 2b 63 bd 9f 27 36 be b8 96 7c 3c
       -0.21566987 -0.055461057 -0.17788552 0.0154167935
000380 d4 30 14 be 1a ab 8d be 56 b1 96 3c 4f 0e 2f bd
       -0.14471751 -0.27669603 0.018395107 -0.042738255
000390 4a dc 9a bc be a1 38 bd d0 81 67 bd d9 14 46 be
       -0.01890387 -0.045076124 -0.056520283 -0.1934389
0003a0 a3 09 6a 3d da df d1 bc 13 2b c4 be c5 28 4c be
       0.057138097 -0.025619436 -0.38314113 -0.19937427
0003b0 7a d1 33 3c 5b 47 f1 bd b3 28 9f bd a2 96 eb 3c
       0.010975236 -0.11781188 -0.07771435 0.02875835
0003c0 19 40 05 3d 09 09 48 bd ed cf 3c 3d b0 ba 01 be
       0.03253183 -0.04883674 0.04609673 -0.12668872
0003d0 fb fd df 3c e6 95 c7 bd 82 15 cb 3d 84 df a9 bd
       0.027342787 -0.09745388 0.09916212 -0.08294585
0003e0 99 d6 56 bc 2a 31 2a be 8e cf 94 3c 30 93 35 be
       -0.0131126875 -0.16620317 0.018165376 -0.17731929
0003f0 f9 c9 91 bd 46 6f 93 bd 2c a2 1b bd c2 46 52 bc
       -0.07118601 -0.07198958 -0.037996456 -0.012834253

convs.1.lins.1.weight f4 [128, 64]
000000 e9 59 af 3d a1 a0 ae bc ee ca 06 3d c5 9b e8 3d
       0.08562071 -0.021316828 0.032908373 0.11357836
000010 1d 8a 85 3c 10 06 c2 3d 6f c4 25 3d 3c ad 45 3d
       0.01630121 0.094738126 0.040470537 0.048260912
000020 11 75 1c bd dc 4c 08 3d 5a a7 81 bd 77 a3 60 3b
       -0.03819758 0.033276424 -0.06330748 0.003427712
000030 04 dd 0a 3e ab 12 b4 3d 96 88 21 bd f5 80 be 3d
       0.13560873 0.08792623 -0.0394369 0.0930194
000040 3d 51 22 bd 62 e7 27 bd 05 d0 bc 3d 4d 53 90 3c
       -0.039628256 -0.04099215 0.09219364 0.017617846
000050 d8 ac 65 3c 22 38 3a bc 8d 58 dd ba 7c 38 d9 3d
       0.01401826 -0.011365922 -0.0016887352 0.10606477
000060 0a b2 0d 3b 4b 8e 03 bd 24 45 2a 3d c6 a2 62 bb
       0.0021621012 -0.032118123 0.041569844 -0.0034581884
000070 ff 09 ac 3b 74 44 e7 3c 2b a9 3e 3e 11 26 f6 3c
       0.005250215 0.028230883 0.1861922 0.030047448
000080 23 90 04 bd 76 fb 25 3d bc 88 50 3d 67 ad a3 3d
       -0.032364022 0.040523015 0.05091165 0.07992058
000090 d0 97 ca 3c d8 cf 16 3d 36 fd 0e bd b1 9e de bd
       0.024730593 0.03681931 -0.03490945 -0.10870112
0000a0 e2 1c cc bb 1f 09 b0 3c 6b 21 4f 3d e4 05 d1 bb
       -0.006229029 0.021488724 0.05056898 -0.006378876
0000b0 62 c3 42 bd 62 c9 9e bd 29 0a 00 3e 46 17 e5 bc
       -0.047549613 -0.077532545 0.12503876 -0.0279652
0000c0 4b 6a ae bc 40 0e 03 3e c3 30 1c 3e 42 47 f0 bc
       -0.021290919 0.12798405 0.15252976 -0.029330853
0000d0 73 6e 9a bd 98 27 33 3d aa f0 ff bc 82 6f 3b 3d
       -0.07540598 0.04373893 -0.031242687 0.04576064
0000e0 ee 3b b5 3c f8 94 b5 3d cc bf e0 bc 1c 83 b8 bc
       0.022123303 0.08866304 -0.027435206 -0.022523455
0000f0 31 78 2c 3d 0d 32 9e 39 64 1a 8b bd 5a e3 db bd
       0.04210681 0.000301734 -0.06792143 -0.10736723
000100 66 eb 96 3d d8 0e a3 3d bf 49 95 bd 7a 02 17 3e
       0.073691174 0.079618156 -0.072894566 0.14747038
000110 de 8c 3c 3d b3 f8 dc bd a6 dc 4a 3e e8 e3 27 3e
       0.04603278 -0.10789623 0.19810733 0.16395533
000120 69 da 39 3e ec ce 13 3e 90 8c cc bd 21 74 26 bc
       0.18149723 0.14434403 -0.09987748 -0.010159523
000130 61 99 42 3d 99 a3 4e bd 43 df 84 3d 9f 75 b7 3d
       0.047509555 -0.050448988 0.06487896 0.08957981
000140 18 42 19 3e e8 f8 58 bc 0a 5a 69 be ca 0d 58 3b
       0.14966619 -0.013242938 -0.22788253 0.0032967203
000150 0b 1d fb 3d 6a fa c6 3c 58 0b 66 bd f8 23 d9 3c
       0.12261399 0.024289329 -0.056163162 0.026506409
000160 7e 0d 94 3c 60 db a2 bd 22 0d 8d bc ea 00 73 3d
       0.01807284 -0.07951999 -0.017218176 0.059327044
000170 77 2e f4 bb fd e6 91 bd 94 14 33 3e 72 94 5d bc
       -0.007451828 -0.07124136 0.17488319 -0.013524162
000180 75 d2 47 3e 7e 87 ed 3d af a4 00 3e 4f db f4 3d
       0.19513877 0.11598109 0.12562822 0.11955892
000190 3e 9c c5 3c 6c 39 8c 3d 30 b6 0b 3e 42 b9 fb 3d
       0.024122354 0.0684689 0.13643718 0.122911945
0001a0 02 c0 cd bc dc eb 0e be d3 14 84 be 83 51 9c 3e
       -0.02511597 -0.1395716 -0.25797138 0.30530939
0001b0 ff c9 c6 3d 7c 27 0b 3d d8 8e e5 3d e8 36 73 bd
       0.097064964 0.033973202 0.11208886 -0.059378535
0001c0 74 20 54 3c b2 85 23 3e d1 0b 92 3e 04 f4 fa 3c
       0.012947191 0.1596897 0.2852464 0.030633934
0001d0 fe 5b c3 3d da 7a 5e 3e 6b 23 d0 3d 65 cd 19 3e
       0.095390305 0.21726552 0.101630054 0.15019758
0001e0 9f eb 94 3d ec d5 c8 3d ed 13 3f 3e c9 c1 e8 3d
       0.07271504 0.09806427 0.18659945 0.113650866
0001f0 7b fa eb bc b3 46 ef bd 23 b6 1a 3d a4 4d 88 bd
       -0.028805962 -0.11683407 0.037771355 -0.06655434
000200 7a 04 7e bd 3f 15 0c be 7e c3 3b be c1 50 87 bd
       -0.062015988 -0.1367998 -0.18336293 -0.066071995
000210 2c a7 ab bd fb 0c ff bc a4 bc 16 be 60 08 3a bb
       -0.08381495 -0.03113412 -0.14720398 -0.002838634
000220 88 b0 33 be d7 45 3b be 6c a5 90 bd 7b 9b 83 bd
       -0.1754781 -0.1828836 -0.07062802 -0.0642614
000230 a6 87 71 be e5 8d 3f be 0e bc ff 3c 9e c9 86 be
       -0.23586902 -0.18706472 0.031217601 -0.26325697
000240 08 a2 cc bd f3 43 53 be ce f1 ab be 46 19 46 bd
       -0.099918425 -0.2063139 -0.3358292 -0.048363946
000250 1c 15 4c be aa 73 15 bd 3d d4 b3 bb 29 db 61 be
       -0.19929928 -0.03648726 -0.0054879473 -0.22056259
000260 9c a5 2d bd e2 f6 02 be 95 e6 4f 3d 9f d7 8d bd
       -0.042394266 -0.12789491 0.05075701 -0.06925892
000270 1a d5 b4 3c a1 e2 0e be 0d 38 a1 bc 6f 0d 0d bd
       0.022074271 -0.1395364 -0.019680047 -0.03443664
000280 ff 3e 0e be 8a a4 5c be 05 f0 8e 3c 82 2a 96 be
       -0.13891219 -0.21547142 0.017448435 -0.29329306
000290 47 93 40 3d 8e 3c 34 3d 61 8b 77 be fb 8f f2 bd
       0.047015455 0.044003062 -0.24174263 -0.11843868
0002a0 17 88 25 bd e8 d8 da 3c d0 f0 08 bf 2c 0b db bd
       -0.04041299 0.026714757 -0.5349245 -0.1069549
0002b0 ef 56 09 bc f3 4f be bd 24 f7 a6 be 7d f4 86 bc
       -0.008382543 -0.09292593 -0.32610428 -0.016474003
0002c0 63 a0 a0 bc 31 d8 ba bc c6 c8 88 bd 11 80 08 be
       -0.019607728 -0.022808166 -0.066789195 -0.13330103
0002d0 c4 f3 b3 bd 96 02 0b bd 91 97 b2 bd 85 6b 24 bd
       -0.08786729 -0.033938013 -0.08720315 -0.0401416
0002e0 d2 d6 31 be 50 08 6d bd 76 6d 51 be 91 cb 39 be
       -0.17367104 -0.057869256 -0.20451912 -0.1814406
0002f0 bc 82 87 be e8 e2 5d be 6c b2 00 bd 7c c8 c6 3c
       -0.2646693 -0.21668589 -0.031420156 0.02426552
000300 4a f9 4a 3d 03 24 5a 3d 56 c0 b1 3b a4 aa 82 3c
       0.049554147 0.053257 0.0054245396 0.015950508
000310 93 74 5f 3d 19 07 68 bd 6c 98 07 3c 65 b4 cd bc
       0.054554533 -0.056647394 0.008276086 -0.025110433
000320 31 54 02 3d 00 26 9e bd 1e c2 48 bc 98 c2 75 3d
       0.031818572 -0.07722092 -0.012253312 0.060000032
000330 2b 64 0b bc 8c e8 28 be 11 50 f4 bc 8b bb ab bd
       -0.008507769 -0.1649496 -0.029823335 -0.0838538
000340 e7 ca da 3d 8c 43 7c 3d d9 40 a0 3a 5c cc 6e bd
       0.10683232 0.061587855 0.0012226357 -0.05830036
000350 c6 62 2e 3d a7 bf 9a bc 50 15 39 bd 9a 94 4c bd
       0.042574666 -0.018890215 -0.04518634 -0.049946405
000360 4d 7c 8b 3c 44 1c 0d bd 6e e8 d1 3d a6 b2 67 3d
       0.017027045 -0.034450784 0.102494106 0.056566857
000370 0a 2f 96 bd 45 8c 23 bd c4 38 6b 3d 3c 75 a8 bd
       -0.07333191 -0.039928693 0.057427183 -0.08225486
000380 80 ec ed 3c b9 e9 10 bd 60 47 ed bb f7 8d fe 3c
       0.029043436 -0.035379145 -0.0072411746 0.031073553
000390 18 72 23 bc d0 e3 ba bc 55 e5 db 3d 23 31 e5 3c
       -0.009975933 -0.022813708 0.10737101 0.027977532
0003a0 62 2e 67 bc 26 19 8b bc be 69 cb 3c 4c 55 88 bc
       -0.01411018 -0.016979765 0.024830695 -0.016642235
0003b0 53 90 66 3b b5 f0 f8 bc d0 e9 c4 bd f4 05 00 3d
       0.0035181239 -0.030388216 -0.09614909 0.031255677
0003c0 43 48 80 3d d0 0e 89 bd 70 ba f6 39 cd 9c 8b 3d
       0.06263783 -0.066922784 0.00047059683 0.06817017
0003d0 57 57 5e 3c 70 c3 7f 3b 06 bd 1f bd 30 d3 17 bd
       0.013570628 0.0039026402 -0.038998626 -0.03706664
0003e0 b4 5c 9e bd 99 00 a5 3d 7d 56 c5 3d 0d 7e 44 3d
       -0.077325255 0.080567546 0.09635637 0.047971774
0003f0 15 bf c6 bc 15 9d 92 bd 13 90 ee 3c 81 7c 85 3c
       -0.024261037 -0.07158867 0.029121434 0.01629472

convs.1.lins.2.weight f4 [128, 64]
000000 30 ed 56 3d 8f 4c 56 bd fe 67 2a 3b e0 27 5d 3d
       0.052472293 -0.052319106 0.0026001926 0.053993106
000010 86 53 ab 3b bf 12 c7 bd d6 93 82 bd be a8 f0 bd
       0.0052284626 -0.097203724 -0.06375854 -0.11750935
000020 ff f6 25 3d 9f 75 8f bd 1d 2b 3e bd ee a9 61 bc
       0.040518757 -0.07004856 -0.046427835 -0.013773425
000030 c8 8c 56 bd 76 98 11 bd d5 09 d5 3d 35 78 9f bc
       -0.052380353 -0.03554579 0.10402266 -0.019466499
000040 bd 9a 51 3c 27 bf ca bd ea f3 a3 bd 41 38 82 3b
       0.01279324 -0.09899741 -0.08005507 0.003973991
000050 d1 1a 27 be b4 27 cc 3d 7e b0 14 3d c9 79 8c 3d
       -0.16318823 0.0996851 0.03630113 0.06859166
000060 4b bc 7f bd d1 75 0a be 8e 57 6a 3d 1b c5 20 be
       -0.06243543 -0.13521506 0.057212405 -0.1570019
000070 c0 94 b8 3d a7 36 63 bd 01 c1 f5 3c 3b 57 b6 bd
       0.09012747 -0.055472042 0.029999258 -0.08903357
000080 37 bc 3f bb 75 71 28 3d ac b6 d2 bd 11 47 bd 3c
       -0.0029256472 0.041123826 -0.10288748 0.023105176
000090 74 75 bc bd 4e 2d 74 bd bc f7 34 bb bb 4d 34 3d
       -0.0920209 -0.05961352 -0.0027613482 0.044019442
0000a0 5d 31 b9 bc 28 4e 1e 3d 4b e4 05 be 36 ed 07 3e
       -0.022606546 0.038648754 -0.13075368 0.13274083
0000b0 17 ba 2d 3d 47 f4 2f bd 40 59 12 3d dc a1 0e bd
       0.042413797 -0.04295757 0.035729647 -0.03482233
0000c0 a3 01 fe 3c 73 f1 2a bc 03 30 e7 3c 25 ef 15 bc
       0.03100664 -0.010433543 0.028221136 -0.009151255
0000d0 42 78 86 3c 59 cc 5b 3d 1a 1a ee 3d 12 63 e3 3d
       0.016414765 0.053661678 0.11626072 0.111028805
0000e0 61 0e 3f 3d 13 a8 e3 bd fd e0 fc bd 46 f4 52 3b
       0.046644572 -0.11116042 -0.123476006 0.0032189055
0000f0 3e 08 09 be 3a 10 0d be e0 89 cb 3c 13 65 ea 3d
       -0.1338205 -0.13775721 0.024846017 0.114450596
000100 9c 29 eb bc 32 35 82 bd 88 7a ed bc 48 54 f0 bd
       -0.028706364 -0.063578025 -0.028989092 -0.117348254
000110 24 6e 9a bd be ed 51 3c db b2 82 bd e4 8d b7 3d
       -0.07540539 0.01281303 -0.0638177 0.0896261
000120 9c fa ac 3c a1 0c 8e bd 0f b1 d5 3d e4 c0 9f bd
       0.021115594 -0.069360025 0.10434162 -0.07800463
000130 05 87 db bd e1 77 d2 bc 66 de 88 3d 4e 5f 98 bc
       -0.10719112 -0.025691928 0.06683044 -0.018600132
000140 05 df b3 bd 50 82 47 bc 46 ef b6 bc 21 f4 8a bd
       -0.08782772 -0.012177065 -0.022330891 -0.06784845
000150 09 a2 9e bc 07 e0 50 3d 72 08 eb 3c 82 76 5c 3d
       -0.019364374 0.0509949 0.02869055 0.053823955
000160 5c 8d 4b 3d 0b 58 87 bd 95 bb 72 bb f2 80 08 bd
       0.049695358 -0.0660859 -0.0037038077 -0.033326097
000170 7c 65 2c 3d 9d dc f7 bd 52 83 7a bd b2 61 d0 bc
       0.04208897 -0.121026255 -0.061160393 -0.02543721
000180 f4 4a ba 3c 65 4d a1 3c 81 f8 c4 3c a2 85 33 3d
       0.022740819 0.019690225 0.024044277 0.043828614
000190 3c fd a7 bd c8 29 73 bd 45 ef 0b bb fc 95 4b be
       -0.082025975 -0.059366018 -0.0021352333 -0.19881433
0001a0 6e 90 e1 bd eb 76 1e 3d b5 22 5f 3d 1f 59 38 bd
       -0.11013876 0.038687628 0.05447646 -0.045006867
0001b0 a4 b2 81 3c 8a ba 00 3d 87 02 12 be d1 c1 8b 3d
       0.015832253 0.031427898 -0.14258777 0.06824077
0001c0 a5 34 a0 3d 69 6c eb bd 6d 53 a7 bc 90 1e f6 3b
       0.07822541 -0.11495287 -0.020425523 0.0075109676
0001d0 c7 59 57 be bc 68 6b 3d a1 0f 8d bd 66 a2 03 be
       -0.21030341 0.05747293 -0.068877466 -0.12854919
0001e0 f4 f9 1b 3d 10 d2 54 bc f5 7a 57 3d e0 49 27 be
       0.03808017 -0.012989536 0.052607495 -0.16336775
0001f0 26 7b 2f 3e 78 fc 6f bd 10 7d 0d 3e c8 57 d7 bd
       0.17136821 -0.058590382 0.13817239 -0.1051479
000200 9b 07 f0 bb ae 7e b1 3d f7 61 1a 3d ea e2 90 bd
       -0.0073251254 0.0866674 0.037691083 -0.070745304
000210 2d ad 5b bd 8c 84 82 bd b1 99 a6 bd 71 8f 02 bd
       -0.05363195 -0.063729376 -0.08134783 -0.031875078
000220 f5 08 46 bd 5e a3 0a bd 66 f1 c4 3d 2d 75 ec 3b
       -0.048348386 -0.033847205 0.096163556 0.007216117
000230 fc c6 90 bc ed a2 8b 3c 0b 6c 1e bd de 71 89 3e
       -0.017673008 0.017045463 -0.038677257 0.26844686
000240 a7 ff ee bd 88 2e ca 3d 66 92 6d 3e c4 3c d8 ba
       -0.116698556 0.098721564 0.23200378 -0.0016497602
000250 b0 25 0b 3e 0a 05 73 bd cc cf 00 be f2 4c 23 3b
       0.13588595 -0.059330977 -0.12579268 0.002491769
000260 32 86 a6 3d f4 7a 1c 3e 96 ac 9a 3b 10 85 39 3d
       0.081310645 0.15281278 0.004720281 0.045292914
000270 54 6d 90 bd 48 f5 b4 39 95 61 12 bd 5a 5d e8 bc
       -0.07052103 0.00034515024 -0.035737593 -0.028364826
000280 b9 e3 d3 3c ab ea 37 3e 07 47 da bd 9e 3d 0a 3e
       0.025865423 0.17960612 -0.10658079 0.13500068
000290 f3 48 a2 bc d0 1f 17 3e df cc 87 3d e4 f1 0f 3e
       -0.019810176 0.1475823 0.06630873 0.14057118
0002a0 26 c6 95 3c 3f f2 4c 3d 2a 6a 6a 3e 27 de 6f bd
       0.018282961 0.05003571 0.22892061 -0.05856147
0002b0 85 d6 9d bd e2 99 56 3c b7 ea ef 3c 4f 79 dc bc
       -0.07706932 0.013098212 0.029286725 -0.026913313
0002c0 d1 27 a8 3d cd c3 90 3d 90 9a 39 bd 4f 17 9c bd
       0.082107194 0.07068596 -0.045313418 -0.07621633
0002d0 d8 f5 13 3b 39 0b aa 3c 8c 56 2b 3c 48 9c 9c bc
       0.0022576954 0.020757305 0.010457646 -0.01911749
0002e0 8c d7 b3 bd e8 bd 1b 3e 2c 37 eb 3d e4 d5 15 bd
       -0.08781347 0.15209162 0.114851326 -0.036580935
0002f0 eb da 44 3d f1 3d 65 3e d3 b0 2f bd 08 20 3c 3c
       0.04806034 0.2238691 -0.042893242 0.011482246
000300 c3 d9 ca bd 75 b5 74 bc dc aa da 3b 9f a1 a3 bc
       -0.09904816 -0.014935841 0.0066732 -0.019974528
000310 60 e5 0d bc 62 a9 b8 bb bb e8 aa bc f2 fb 52 3d
       -0.008660644 -0.0056354264 -0.020862928 0.051509805
000320 50 c2 e6 bd 3f e2 ef 3b a4 a6 c1 bd 38 62 2c be
       -0.11267531 0.007320672 -0.09455612 -0.16834342
000330 8a f8 a4 bc d3 52 e8 bb 06 1c 1c 3d a7 e6 f0 bc
       -0.020138044 -0.0070899515 0.038112663 -0.029406859
000340 ff 60 71 bd 60 87 40 3d 35 49 03 3d 48 1e c4 bd
       -0.058930393 0.047004104 0.032052238 -0.09576088
000350 53 69 59 3d ce 96 a6 3c 92 ed a6 bd 4f 7d ef bc
       0.05307896 0.020335581 -0.08150782 -0.029234556
000360 ab 34 bb 3d 58 fc e3 3b 71 80 e4 bc 64 e0 33 be
       0.09140905 0.006957572 -0.027893277 -0.17566067
000370 99 af 91 bd 0b b0 9c 3d d5 f1 f1 bc 4d 35 81 bd
       -0.07113571 0.07650765 -0.02953426 -0.063089944
000380 b4 d2 f0 3c c0 ef 24 3b 3d c9 7d 3c 7b 04 64 bd
       0.029397346 0.0025167316 0.0154898735 -0.055668335
000390 a8 e0 0b 3e b5 58 65 3b aa 4b 83 3c e8 c2 5b 3d
       0.13659918 0.00349955 0.01602729 0.053652674
0003a0 f2 c2 89 3d 50 0d eb 3d 9d b0 03 3d 5e 2f dc ba
       0.06726636 0.114771485 0.032150853 -0.0016798784
0003b0 47 c3 0a 3d 27 fd 91 3a c4 0b 27 3e 1d fd c2 bc
       0.033877637 0.0011138067 0.16313082 -0.023802334
0003c0 7f 95 0e be e6 1a 1e 3d 18 31 73 bd 8c f3 b9 3d
       -0.13924216 0.03859987 -0.05937299 0.09079656
0003d0 37 a9 39 bd 16 5e 9d 3c 25 7f 27 bd 7d 59 ad bd
       -0.04532739 0.019209903 -0.04089274 -0.08464334
0003e0 4d 0b 0d bd 02 e8 dc 3d 8d e5 b1 3d 1b f7 71 bd
       -0.034434605 0.107864395 0.086863615 -0.05907355
0003f0 0e 2d 03 3e 69 75 dc 3c 01 25 c3 bc 55 56 c3 bd
       0.12810156 0.026911454 -0.023821356 -0.09537951
