Entrenar/runs/2024-04-10T18:07:57.618213/weights/best_model.pt (torch, 182306 bytes, 29 tensors)

convs.0.bias f4 [64]
0.029196395 0.028099373 0.02137117 0.028392468 0.036886517 -0.006040495 0.03396972 -0.027768688
0.02947628 0.020149356 -0.035190463 -0.014920707 0.027309388 -0.010896515 -0.021652075 -0.028027931
0.032561418 0.022745345 -0.026106797 -0.028133765 0.026806233 -0.030897401 -0.01899101 0.028094938
0.022639448 0.0032730666 -0.032901786 0.029294519 0.025905708 -0.016192563 0.010479783 -0.0045067817
0.02972217 0.01934556 -0.032202948 0.029955957 -0.027294304 -0.02730811 0.021099351 0.03017447
-0.04713465 0.0025922775 -0.008959462 0.025784858 -0.0391694 -0.028537858 -0.01077108 -0.020803265
-0.028963795 0.04386798 -0.020597845 -0.034734014 0.040819414 0.032688253 0.029128605 0.022474904
-0.010302454 -0.024472537 0.021158462 0.02556495 -0.021894056 -0.028152073 0.02185474 -0.023718907
00000000: 472d ef3c a830 e63c 9812 af3c 5297 e83c
00000010: 5116 173d 58ef c5bb d523 0b3d 297b e3bc
00000020: 3d78 f13c 4310 a53c e023 10bd fb75 74bc
00000030: f0b7 df3c 4c87 32bc b15f b1bc d59a e5bc
00000040: 1f5f 053d 7254 ba3c ecdd d5bc c878 e6bc
00000050: bf98 db3c 8c1c fdbc 0993 9bbc 5b27 e63c
00000060: 5d76 b93c f280 563b 06c4 06bd 0ffb ef3c
00000070: 3538 d43c 44a6 84bc 65b3 2b3c a0ad 93bb
00000080: e97b f33c 947a 9e3c 3de7 03bd 3266 f53c
00000090: 4e98 dfbc 42b5 dfbc 8cd8 ac3c 7330 f73c
000000a0: 4310 41bd 33e3 293b b5ca 12bc c43a d33c
000000b0: 1870 20bd 3ac8 e9bc 2f79 30bc 9c6b aabc
000000c0: 7b45 edbc e9ae 333d d0bc a8bc 4145 0ebd
000000d0: 4232 273d 1ee4 053d 1d9f ee3c 4a1d b83c
000000e0: a0cb 28bc a17a c8bc 8354 ad3c 966d d13c
000000f0: 2a5b b3bc 2d9f e6bc b608 b33c 274e c2bc

convs.0.lins.0.weight f4 [64, 2]
0.16446546 -0.6856837 0.64379555 0.4775256 -0.7284763 -0.36806473 0.26175776 -0.17694302
-0.100999184 -0.35456845 0.5970554 -0.41765794 0.6116167 0.066794865 0.17141917 0.52684855
-0.12040934 -0.43782958 -0.12384394 0.5988997 -0.5065896 0.15905817 -0.68813264 0.3567413
0.2949801 0.062195156 0.2968056 0.02748283 0.3644049 -0.5479211 -0.075034425 0.28844944
0.72646993 0.38236985 -0.5396156 0.56671625 -0.1397962 -0.15893349 -0.61204416 -0.08783039
0.52014357 0.09980878 -0.39546615 0.19799699 -0.20720956 0.65334785 -0.630966 -0.24296963
-0.70241666 -0.30960613 0.27143386 0.68094254 0.12482016 0.6586462 0.17172086 0.43545324
0.5612422 0.60253185 -0.4048729 0.6391665 0.4414266 -0.35666892 -0.35962987 -0.6115937
0.20377615 -0.6021833 0.32820356 0.22000638 -0.5871854 0.16740128 -0.049575415 0.360333
0.37687543 -0.6789094 0.61849105 0.5660788 0.2926834 -0.66349536 -0.2757988 -0.23826236
-0.20355324 0.36750838 0.25282475 0.5751886 -0.29831934 0.25865912 0.27209827 -0.6344507
-0.6532658 -0.3548556 0.47281566 -0.65276504 -0.6088125 0.37270305 0.40435532 0.58925986
-0.50550455 -0.49253204 0.37726024 0.65845597 0.4508677 0.14054962 0.2347458 0.6430604
-0.4888882 -0.36078393 0.52262944 -0.51241934 -0.38837835 0.5423389 0.24949586 0.26445276
-0.3310457 -0.051141154 0.62885314 -0.40220484 -0.007028628 0.36562335 -0.49698895 0.7004011
-0.34272557 -0.2148784 -0.16773081 -0.45160156 -0.71439767 0.40147212 0.17299275 -0.66427463
00000000: a269 283e f888 2fbf c9cf 243f 3c7e f43e
00000010: 6c7d 3abf fb72 bcbe 1d05 863e 8d30 35be
00000020: a9d8 cebd ff89 b5be 9fd8 183f 43d7 d5be
00000030: e992 1c3f bfcb 883d 8288 2f3e 8cdf 063f
00000040: 2c99 f6bd 332b e0be e4a1 fdbd 7e51 193f
00000050: dbaf 01bf 25e0 223e 7629 30bf cca6 b63e
00000060: a207 973e 59c0 7e3d e7f6 973e ac23 e13c
00000070: 4793 ba3e 8f44 0cbf a6ab 99bd a5af 933e
00000080: eff9 393f fbc5 c33e 3f24 0abf 5114 113f
00000090: bc26 0fbe 76bf 22be edae 1cbf 6be0 b3bd
000000a0: 2128 053f 8c68 cc3d 8a7a cabe b9bf 4a3e
000000b0: be2e 54be ce41 273f fd86 21bf 08cd 78be
000000c0: 94d1 33bf b284 9ebe 61f9 8a3e 4052 2e3f
000000d0: b6a1 ff3d 0a9d 283f 98d7 2f3e baf3 de3e
000000e0: 92ad 0f3f 873f 1a3f 804b cfbe 6aa0 233f
000000f0: ab02 e23e 4f9d b6be 6821 b8be 6891 1cbf
00000100: b2aa 503e af28 1abf 4c0a a83e 5a49 613e
00000110: c851 16bf 3e6b 2b3e 970f 4bbd 917d b83e
00000120: d1f5 c03e 02cd 2dbf 6e55 1e3f 8aea 103f
00000130: 99da 953e d5da 29bf 8035 8dbe 0cfb 73be
00000140: 4370 50be 0f2a bc3e 3f72 813e 8f3f 133f
00000150: 50bd 98be f86e 843e 7750 8b3e 5c6b 22bf
00000160: 6d3c 27bf a2af b5be e514 f23e 9c1b 27bf
00000170: 23db 1bbf efd2 be3e a907 cf3e bcd9 163f
00000180: bf68 01bf 292d fcbe 4128 c13e 9290 283f
00000190: 22d8 e63e 3dec 0f3e 3461 703e 9b9f 243f
000001a0: 8e4f fabe acb8 b8be 0bcb 053f ea2d 03bf
000001b0: 87d9 c6be b9d6 0a3f d87b 7f3e 5a66 873e
000001c0: d27e a9be 6379 51bd 85fc 203f cbed cdbe
000001d0: 6850 e6bb fc32 bb3e 5675 febe 7d4d 333f
000001e0: ba79 afbe 1509 5cbe a0c1 2bbe 5238 e7be
000001f0: c4e2 36bf c18d cd3e 0325 313e e70d 2abf

convs.0.lins.1.weight f4 [64, 2]
-0.4510357 0.71423477 0.2929257 0.26322323 -0.42892268 -0.33085713 -0.095288314 -0.13500178
-0.49614653 0.05248743 0.06008384 -0.097445294 0.121889055 -0.3151191 0.16835056 0.25503823
-0.38941953 -0.73150337 0.37411422 0.1535154 -0.32643083 0.6634063 -0.29724103 0.47261018
0.3699871 -0.62924933 0.45156544 -0.635509 -0.3775648 -0.10450612 -0.44371963 0.66619927
-0.15946873 0.26038432 -0.6436446 0.40912202 -0.20628673 -0.524268 0.08021574 0.33212203
0.6342928 -0.4634516 -0.32105777 0.10632651 0.2254342 0.2513576 0.41712955 -0.18063022
0.4322073 0.53167593 -0.16683753 0.4998428 0.33788586 0.6046093 -0.42356098 -0.38741508
-0.23604813 0.04495324 0.4443935 -0.39359814 0.3677671 -0.23417395 0.44269487 -0.014893543
-0.642488 -0.41208842 -0.5374703 0.36033323 -0.44305617 -0.08918132 0.17633367 -0.41862074
0.18862242 -0.66459066 -0.48003775 -0.6397346 -0.21687002 -0.29874593 0.08243724 -0.11279421
0.36796835 0.6119013 0.23818956 -0.30946624 -0.6390362 0.23163034 -0.35983565 0.33218858
0.50996363 0.24088855 0.667889 0.6454067 0.17183857 -0.5435091 0.62046313 -0.37384763
-0.30543393 0.5827515 0.5799141 0.21553387 0.06289824 -0.5710974 -0.07534012 0.64755124
0.179651 0.036959544 -0.16883223 -0.2620375 0.4535043 0.019337406 0.46295327 -0.16143368
0.3501481 0.26803267 0.1394947 0.4271096 0.460927 0.6748267 0.57476 -0.20920639
-0.5751289 0.096453905 0.017815184 -0.17236944 -0.09983754 0.03926384 0.54961 0.20032959
00000000: 27ee e6be 17d8 363f 5bfa 953e 32c5 863e
00000010: c19b dbbe 1b66 a9be 8526 c3bd e83d 0abe
00000020: eb06 febe 0ffd 563d 791a 763d 6691 c7bd
00000030: f8a0 f93d 4a57 a1be 1764 2c3e 5f94 823e
00000040: ff61 c7be ce43 3bbf e68b bf3e 2433 1d3e
00000050: f121 a7be ffd4 293f fa2f 98be f6f9 f13e
00000060: f36e bd3e 7c16 21bf 9633 e73e b8b0 22bf
00000070: 2c50 c1be 4e07 d6bd 382f e3be 098c 2a3f
00000080: c54b 23be 1851 853e e4c5 24bf 7178 d13e
00000090: d43c 53be 6d36 06bf 2648 a43d e60b aa3e
000000a0: 0361 223f 8749 edbe af61 a4be b7c1 d93d
000000b0: 39d8 663e f1b1 803e 0192 d53e 21f7 38be
000000c0: 464a dd3e ea1b 083f 75d7 2abe 65eb ff3e
000000d0: 60ff ac3e adc7 1a3f fcdc d8be 455b c6be
000000e0: 9ab6 71be e320 383d 8b87 e33e b285 c9be
000000f0: f84b bc3e 4ccb 6fbe e7a8 e23e 0c04 74bc
00000100: 187a 24bf 41fd d2be a797 09bf 997d b83e
00000110: 42d8 e2be b2a4 b6bd d090 343e 7555 d6be
00000120: 3c26 413e 9d22 2abf 82c7 f5be a6c5 23bf
00000130: 2d13 5ebe 3af5 98be dbd4 a83d a700 e7bd
00000140: 5966 bc3e 90a5 1c3f f7e7 733e 5c72 9ebe
00000150: e097 23bf 8130 6d3e 613c b8be 9f14 aa3e
00000160: fa8c 023f 7dab 763e c6fa 2a3f 6039 253f
00000170: 73f6 2f3e 6a23 0bbf acd6 1e3f f568 bfbe
00000180: d661 9cbe 342f 153f 4075 143f e9b4 5c3e
00000190: cbd0 803d 7033 12bf ec4b 9abd ebc5 253f
000001a0: 6ff6 373e e462 173d 5be2 2cbe c729 86be
000001b0: b731 e83e 7b69 9e3c 3608 ed3e df4e 25be
000001c0: 9d46 b33e 943b 893e b3d7 0e3e 1cae da3e
000001d0: a0fe eb3e 71c1 2c3f 7923 133f 333a 56be
000001e0: a63b 13bf a089 c53d 26f1 913c 9d81 30be
000001f0: a077 ccbd 1fd3 203d 3eb3 0c3f 3323 4d3e

convs.0.lins.2.weight f4 [64, 2]
-0.25054675 -0.29850727 -0.15495957 -0.25580594 0.6415203 0.3870334 0.66591024 -0.004549399
0.14863305 0.22441036 -0.64489263 0.0628698 -0.056020766 -0.38933346 -0.52348906 0.60006315
0.58403057 0.2917316 0.69955516 -0.28674814 -0.08925145 0.23098285 -0.0948993 -0.15529038
-0.5712553 0.2215169 -0.45278484 0.049066976 0.6783686 -0.21928014 -0.19128248 0.39388397
-0.26636302 -0.10076734 0.69642645 -0.299559 -0.48070586 -0.40187106 -0.15817486 -0.34023818
-0.3534894 0.26157254 0.15057302 -0.27533597 -0.5274034 -0.25465235 -0.29198176 -0.25057864
-0.6387812 0.11480883 -0.49746624 -0.57694906 -0.55809975 0.2580948 -0.43056214 -0.32873556
0.5457162 0.38835102 0.38192537 -0.6828004 -0.51796466 -0.2667755 0.5822224 0.09694815
-0.5337534 -0.014005111 -0.5237493 -0.18912397 -0.16312072 0.58606464 0.24102177 -0.13467263
0.08906907 -0.17922258 0.2491896 0.25590393 0.20177975 -0.28823498 0.6290285 -0.13971944
-0.23204589 0.4013173 0.575222 0.7101324 0.22542204 -0.27379397 0.3805387 0.59473085
-0.65067416 -0.08953969 -0.48848766 0.13910624 0.2842614 -0.17652488 -0.048396107 0.2848009
-0.08970876 -0.5661677 0.5633366 -0.34167868 -0.06548577 0.10053788 -0.02561397 -0.6993282
0.36427993 -0.34747273 -0.34595504 0.14125597 -0.33893746 -0.33301207 -0.23840307 -0.25239217
-0.25964504 -0.22888666 0.16697341 -0.5497628 -0.43618557 0.015064106 0.12820329 0.38305396
-0.47601593 0.19411516 0.42768887 0.37368688 -0.6711782 -0.27638242 -0.593482 -0.46213344
00000000: aa47 80be f2d5 98be b9ad 1ebe fff8 82be
00000010: ad3a 243f 3e29 c63e 1879 2a3f 2013 95bb
00000020: 4333 183e d4cb 653e af17 25bf e2c1 803d
00000030: 0876 65bd b756 c7be 6103 06bf bd9d 193f
00000040: 0783 153f d85d 953e 0c16 333f a7d0 92be
00000050: 77c9 b6bd c586 6c3e 905a c2bd 7104 1fbe
00000060: ca3d 12bf 54d5 623e 6ad3 e7be 74fa 483d
00000070: 91a9 2d3f f98a 60be 8edf 43be 29ab c93e
00000080: bc60 88be 1b5f cebd 0149 323f cc5f 99be
00000090: 141f f6be 0bc2 cdbe 97f8 21be b333 aebe
000000a0: 90fc b4be d6ec 853e d02f 1a3e d6f8 8cbe
000000b0: e903 07bf cb61 82be a27e 95be d84b 80be
000000c0: 2a87 23bf e420 eb3d e5b3 febe efb2 13bf
000000d0: a0df 0ebf 0025 843e a472 dcbe 0750 a8be
000000e0: 0fb4 0b3f f2d5 c63e b98b c33e 02cc 2ebf
000000f0: 5599 04bf cc96 88be 870c 153f c08c c63d
00000100: 10a4 08bf b175 65bc 6f14 06bf b7a9 41be
00000110: 1e09 27be 5508 163f 69ce 763e 9fe7 09be
00000120: d869 b63d 2086 37be 8f2b 7f3e d705 833e
00000130: 5a9f 4e3e 8993 93be 0308 213f 9d12 0fbe
00000140: 709d 6dbe 7679 cd3e c041 133f 3dcb 353f
00000150: 09d5 663e b92e 8cbe f8d5 c23e 4840 183f
00000160: 9592 26bf 9660 b7bd 0e1b fabe de71 0e3e
00000170: b68a 913e f0c2 34be ff3a 46bd 6cd1 913e
00000180: 3ab9 b7bd 5ef0 10bf d436 103f 82f0 aebe
00000190: 671d 86bd cee6 cd3d 63d4 d1bc 2c07 33bf
000001a0: e682 ba3e f2e7 b1be 0521 b1be 68a5 103e
000001b0: 3689 adbe 8f80 aabe ef1f 74be 8c39 81be
000001c0: 32f0 84be 4461 6abe 14fb 2a3e 41bd 0cbf
000001d0: b753 dfbe 71cf 763c b947 033e a61f c43e
000001e0: 5cb8 f3be 20c6 463e 09fa da3e e353 bf3e
000001f0: 56d2 2bbf ff81 8dbe 70ee 17bf c19c ecbe

convs.0.lins.3.weight f4 [64, 2]
0.4114796 -0.097309925 0.32212824 -0.44226345 0.108793795 -0.44905135 0.37052307 -0.31587055
-0.17439643 -0.62699366 -0.0038611153 0.66099674 0.3672616 -0.41106188 0.0016455991 -0.093215175
-0.57979316 0.5530822 0.015235785 0.13434777 -0.25150946 -0.35342404 0.14532346 0.250614
0.16649203 -0.3734879 0.67655873 -0.0852369 -0.41088778 -0.3164077 0.73136747 -0.026525317
-0.10800774 -0.33572468 -0.19200037 -0.6010802 -0.5429058 0.424798 0.5833949 0.6611574
-0.49065962 0.35169315 -0.40254042 0.38768488 0.54456836 0.5247418 0.5385936 0.42025417
0.05028612 0.32465032 -0.2239998 0.29517746 -0.22792509 -0.036858495 -0.6314877 -0.22125597
-0.40062848 -0.2244388 -0.43367195 -0.623522 0.060090385 0.47820947 0.6544706 0.42261115
-0.38385996 -0.71865726 0.25306094 0.39554718 -0.5743528 0.2246089 0.6211965 0.013469645
-0.43666196 0.6065155 0.3276161 0.45412284 -0.47283706 0.3811814 -0.49565178 0.714072
-0.26445445 0.38435802 0.12570198 0.15659644 -0.08020682 0.26412344 -0.28956658 -0.70050323
-0.23247759 0.5166489 -0.18257096 0.19480905 -0.23923045 0.49879706 0.41145736 0.21606982
-0.3319794 -0.58104956 0.04686675 -0.4093689 0.60154563 -0.6535786 0.31716236 0.6726733
0.35853827 0.21319488 -0.69655955 0.6735432 -0.09358112 -0.68380165 0.695598 -0.32113978
-0.010342277 0.6180289 -0.46499038 -0.49383986 0.13271978 -0.07874914 0.19496171 -0.62724775
0.053024583 -0.34902415 -0.3228183 -0.6344644 0.39904976 0.13927911 -0.57017595 0.5363613
00000000: 74ad d23e 6d4a c7bd feed a43e 5b70 e2be
00000010: 48cf de3d 0fea e5be 33b5 bd3e c9b9 a1be
00000020: fa94 32be a882 20bf c40a 7dbb 1537 293f
00000030: b609 bc3e b476 d2be 25b1 d73a 99e7 bebd
00000040: 536d 14bf cc96 0d3f 849f 793c 7692 093e
00000050: d9c5 80be fff3 b4be accf 143e 7a50 803e
00000060: e37c 2a3e ce39 bfbe f432 2d3f af90 aebd
00000070: e25f d2be 3100 a2be e63a 3b3f 9f4b d9bc
00000080: 2933 ddbd 1be4 abbe bf9b 44be 64e0 19bf
00000090: e0fb 0abf 207f d93e 5e59 153f 9d41 293f
000000a0: bd37 fbbe 2011 b43e c719 cebe a27e c63e
000000b0: d568 0b3f 7b55 063f 45e1 093f 8e2b d73e
000000c0: d2f8 4d3d 9138 a63e 3460 65be 8021 973e
000000d0: 3265 69be eff8 16bd 2ea9 21bf ed90 62be
000000e0: 2d1f cdbe 49d3 65be 400a debe 239f 1fbf
000000f0: 5621 763d dfd7 f43e 638b 273f 7d60 d83e
00000100: 4b89 c4be ecf9 37bf 3491 813e 2985 ca3e
00000110: c908 13bf e0ff 653e bc06 1f3f c9af 5c3c
00000120: 2892 dfbe 9a44 1b3f 4cbd a73e ca82 e83e
00000130: b317 f2be 352a c33e 12c6 fdbe 6ccd 363f
00000140: 9366 87be 93ca c43e 05b8 003e d15a 203e
00000150: 7943 a4bd 303b 873e 1242 94be 2e54 33bf
00000160: 9b0e 6ebe 1a43 043f e2f3 3abe 067c 473e
00000170: d4f8 74be 5462 ff3e 8aaa d23e 6841 5d3e
00000180: 34f9 a9be aabf 14bf 59f7 3f3d cd98 d1be
00000190: e5fe 193f ed50 27bf 1b63 a23e 5134 2c3f
000001a0: 5492 b73e c24f 5a3e ba51 32bf 546d 2c3f
000001b0: 75a7 bfbd a00d 2fbf b612 323f 6f6c a4be
000001c0: a772 29bc 2437 1e3f 3813 eebe 94d8 fcbe
000001d0: b2e7 073e 3b47 a1bd 0ba4 473e 4f93 20bf
000001e0: 4e30 593d 4bb3 b2be 7148 a5be 426c 22bf
000001f0: 4050 cc3e 2f9f 0e3e 0df7 11bf f94e 093f

convs.0.lins.4.weight f4 [64, 2]
0.22233076 0.12777768 -0.39632857 0.10218567 0.6931434 0.49406978 -0.5251739 0.63986003
0.06681021 0.32065186 0.57399446 0.6011486 -0.560324 0.6171817 -0.45549375 0.027049012
-0.48556477 -0.18500228 -0.0077599226 -0.09349855 -0.07789884 0.018194364 0.72579247 0.38973472
0.40431613 0.31199384 0.5219219 -0.008553913 0.05288882 0.13675629 -0.5834723 -0.6032604
0.077620186 -0.3186221 0.026124975 -0.18379615 0.13816828 0.45336193 -0.19426648 0.5531597
0.5719338 -0.5696234 -0.5125167 -0.6218514 -0.36314812 -0.3122348 -0.033795808 -0.19545865
-0.3493309 -0.26508918 -0.2286147 0.6639364 -0.24047779 -0.54417604 0.2903129 -0.07749005
0.5288863 0.45430315 0.62985575 -0.5156995 0.45196193 0.5953078 -0.34938595 0.66742194
0.5212387 -0.0072064106 0.36706024 -0.28472367 -0.5839576 0.15218231 0.23300666 -0.4828634
0.3126543 -0.5788008 0.5806789 0.6610875 0.21006876 -0.45674348 0.3716618 0.085248664
0.23789656 0.18867101 0.536615 -0.3031531 -0.12808953 0.15619206 0.101604626 0.5644456
-0.32635245 -0.037741195 0.13229674 -0.1991663 0.4781344 0.045168545 -0.6436855 -0.10936983
-0.2909775 0.09621075 -0.0873059 -0.69537264 -0.11548917 -0.029811386 -0.19089991 0.6139821
-0.115081936 0.42764294 0.188331 -0.6282781 0.19711104 0.5688258 -0.46579167 -0.45157555
0.73148 0.5297311 -0.4004311 0.44828027 -0.094999194 -0.70051634 0.08607728 0.21479404
-0.18491839 0.21283732 -0.57786036 0.47002307 0.59534276 0.38482282 0.13922176 0.20534928
00000000: adaa 633e 27d8 023e 94eb cabe b846 d13d
00000010: d971 313f b7f6 fc3e cc71 06bf decd 233f
00000020: cbd3 883d 7b2c a43e 4df1 123f e0e4 193f
00000030: 6571 0fbf 9fff 1d3f 7a36 e9be e495 dd3c
00000040: f29b f8be 3d71 3dbe f346 febb 2b7c bfbd
00000050: 6d89 9fbd 590c 953c 89cd 393f 4f8b c73e
00000060: 8602 cf3e a8bd 9f3e ac9c 053f b625 0cbc
00000070: f3a1 583d d709 0c3e 715e 15bf 466f 1abf
00000080: 55f7 9e3d 7022 a3be 0b04 d63c 0f35 3cbe
00000090: fc7b 0d3e 0e1f e83e cbed 46be e09b 0d3f
000000a0: 416a 123f d7d2 11bf 4b34 03bf a731 1fbf
000000b0: 8dee b9be 3ddd 9fbe 796d 0abd 5026 48be
000000c0: 80db b2be c5b9 87be f919 6abe bcf7 293f
000000d0: cf3f 76be 1f4f 0bbf e4a3 943e 1ab3 9ebd
000000e0: 1865 073f 6c9a e83e 3a3e 213f e204 04bf
000000f0: 8e67 e73e 1866 183f b7e2 b2be 2adc 2a3f
00000100: e66f 053f c123 ecbb 52ef bb3e 4dc7 91be
00000110: 3f7e 15bf aed5 1b3e 4c99 6e3e df39 f7be
00000120: 3914 a03e 4a2c 14bf 5fa7 143f 083d 293f
00000130: 441c 573e 48da e9be 754a be3e da96 ae3d
00000140: 289b 733e f932 413e 9a5f 093f e236 9bbe
00000150: e729 03be d0f0 1f3e 1616 d03d 827f 103f
00000160: ab17 a7be 8396 1abd cc78 073e 40f2 4bbe
00000170: 08ce f43e a702 393d 93c8 24bf 4afd dfbd
00000180: 01fb 94be 240a c53d 70cd b2bd f103 32bf
00000190: 9685 ecbd 0237 f4bc 447b 43be ee2d 1d3f
000001a0: 14b0 ebbd 04f4 da3e d7d9 403e d5d6 20bf
000001b0: 7ad7 493e 919e 113f 3f7c eebe e934 e7be
000001c0: 4642 3b3f 759c 073f 4e05 cdbe fe84 e53e
000001d0: f08e c2bd 0a55 33bf 4949 b03d f8f2 5b3e
000001e0: 3f5b 3dbe 07f2 593e a8ee 13bf dda6 f03e
000001f0: 6268 183f 7f07 c53e 2690 0e3e 1547 523e

convs.1.bias f4 [128]
-0.020092992 -0.019632658 -0.02201759 0.025714593 -0.03006753 0.01948924 -0.019814096 0.025209848
-0.043843348 -0.034728713 0.017673025 0.03296566 -0.021115346 0.0032877098 0.03213745 -0.024499856
0.005241649 -0.036602523 -0.028550068 0.013123859 -0.022367362 -0.026769027 -0.02044916 0.03955371
-0.025155095 0.02605917 0.015511705 0.013234081 -0.026513346 -0.025053544 -0.03294783 -0.026135735
-0.021781959 -0.025983473 0.01995896 -0.021467565 -0.019504664 -0.025156854 -0.025949458 0.023447836
0.022918845 0.022328688 -0.02869552 -0.026203431 0.012286845 0.029321868 -0.02546014 -0.022608504
0.013475004 -0.022868913 0.01764339 -0.029085256 0.025466157 -0.029042838 0.03564316 -0.027534794
-0.023113988 0.030758861 -0.030724937 0.010093173 -0.022890767 0.030719453 -0.027689531 0.014342018
-0.020791996 0.01891483 -0.019656232 -0.024266025 0.024504006 -0.039873507 -0.022424717 -0.018874709
-0.03632667 -0.021896888 -0.02316555 0.03279946 -0.025643552 -0.01511847 0.011245863 0.031885277
-0.029401788 -0.016401246 -0.02569299 0.017866291 0.02147092 -0.02288105 -0.022561833 -0.024089003
-0.020702958 0.02300939 -0.0115149105 -0.028802207 -0.018212803 0.02721645 0.032828134 -0.019539597
-0.028182 0.017442776 -0.02417384 -0.037802808 -0.031693485 -0.020242624 -0.018865773 -0.026057577
-0.022876162 0.027764922 -0.020973485 -0.029098593 -0.027162828 -0.019356186 -0.019934915 -0.023118522
-0.021534141 -0.024086507 0.03007113 -0.020928785 0.00894241 0.012951825 0.028713046 0.026467042
-0.029854564 0.023783442 -0.02532478 -0.023899555 -0.011719292 -0.01816012 -0.028751258 -0.035089985
00000000: 0f9a a4bc abd4 a0bc 3c5e b4bc 69a7 d23c
00000010: 2e50 f6bc e6a7 9f3c 2c51 a2bc e284 ce3c
00000020: 1595 33bd b23f 0ebd 05c7 903c 0007 073d
00000030: 17fa acbc 9e76 573b 8fa2 033d ecb3 c8bc
00000040: 24c2 ab3b 87ec 15bd d5e1 e9bc 7405 573c
00000050: c23b b7bc b84a dbbc ff84 a7bc 1203 223d
00000060: 0f12 cebc 0a7a d53c ce24 7e3c c2d3 583c
00000070: 8432 d9bc 173d cdbc 4ef4 06bd 9c1a d6bc
00000080: 1470 b2bc 4bdb d4bc f980 a33c bfdc afbc
00000090: 3fc8 9fbc bf15 cebc f593 d4bc ad15 c03c
000000a0: 4dc0 bb3c a7ea b63c de12 ebbc 94a8 d6bc
000000b0: c34e 493c 6a34 f03c c991 d0bc 7835 b9bc
000000c0: 43c6 5c3c 9657 bbbc df88 903c 3444 eebc
000000d0: 679e d03c 3feb edbc 90fe 113d a690 e1bc
000000e0: 8c59 bdbc 02fa fb3c ddb2 fbbc d65d 253c
000000f0: 6b85 bbbc 5da7 fb3c 28d5 e2bc c9fa 6a3c
00000100: fa53 aabc 46f3 9a3c 1b06 a1bc 8bc9 c6bc
00000110: a0bc c83c 6752 23bd 0ab4 b7bc 229f 9abc
00000120: 46cb 14bd 1a61 b3bc aec5 bdbc ba58 063d
00000130: 6d12 d2bc 76b3 77bc 9140 383c 239a 023d
00000140: 05dc f0bc e85b 86bc 1b7a d2bc 545c 923c
00000150: c8e3 af3c 0a71 bbbc 98d3 b8bc 4d56 c5bc
00000160: 4099 a9bc 307e bc3c 09a9 3cbc 9bf2 ebbc
00000170: 0433 95bc 08f5 de3c cb76 063d 8111 a0bc
00000180: f0dd e6bc 27e4 8e3c 3808 c6bc 1ed7 1abd
00000190: 07d1 01bd dcd3 a5bc 658c 9abc b376 d5bc
000001a0: ca66 bbbc 4373 e33c 96d0 abbc 2c60 eebc
000001b0: 9484 debc dd90 9ebc 8c4e a3bc 0e63 bdbc
000001c0: 5e68 b0bc 1151 c5bc bb57 f63c d872 abbc
000001d0: 3083 123c e433 543c 9f37 eb3c 69d1 d83c
000001e0: 8f91 f4bc 7ed5 c23c ea75 cfbc 00c9 c3bc
000001f0: 4602 40bc 88c4 94bc c287 ebbc 84ba 0fbd

convs.1.lins.0.weight f4 [128, 64]
-0.051969282 -0.03565301 0.09660106 -0.074545406 0.015398053 -0.058202844 -0.099060796 0.10776965
-0.10738452 -0.023024736 0.04922863 0.03420117 0.02431462 0.06528607 -0.09487318 -0.09769718
-0.044162847 0.069535874 -0.122467004 -0.12260532 0.060871735 -0.11439506 -0.008431705 -0.10472672
0.048783053 -0.12182334 0.07507717 -0.07574327 0.023065634 0.0920019 -0.1123941 0.09053134
0.077386186 0.11455545 -0.0037935183 -0.052402675 -0.10608193 -0.031027302 -0.05025686 -0.115147226
-0.008368335 -0.03368042 -0.025624812 -0.11920824 -0.10271976 0.007237876 -0.107728235 0.067418195
0.0012935516 -0.0983347 0.06794757 -0.0885347 0.039251022 -0.03553664 -0.1134546 -0.1316728
-0.033847723 0.0047893273 -0.04012345 -0.115605295 0.10902931 -0.028332666 0.027240079 -0.06642713
0.038731232 0.1213221 -0.03696448 -0.020434666 -0.06055153 0.05142939 0.10841012 0.0691007
-0.1346696 -0.038278677 -0.06619457 0.047612093 -0.09183119 -0.11673782 0.019553913 -0.043721844
0.06190096 -0.08220105 0.09286402 -0.020127097 -0.060104042 0.09715081 0.09566343 -0.0184875
-0.04358088 -0.073709644 -0.09007549 0.019530067 -0.08465997 0.07491183 -0.07832439 0.11010079
0.029520778 -0.052004725 -0.11868113 0.014755443 0.05287691 0.072212495 -0.12361957 -0.09327008
0.065824844 -0.10307806 0.06982996 0.013076746 -0.08216663 0.02714226 0.04664882 -0.06775598
0.0067069866 -0.08038804 -0.09303305 -0.016839119 -0.0038188752 0.037960906 0.011244427 0.03539518
-0.0036761484 -0.055573568 -0.11381052 0.06320391 -0.054677594 -0.11297988 -0.09940807 -0.09982643
-0.03945437 -0.07974564 -0.07606104 -0.14106342 -0.08313332 -0.070049845 0.103322975 -0.03439705
-0.097832054 0.018138878 -0.12785459 0.015397489 -0.015003414 -0.11483338 -0.07421571 -0.07659285
-0.11637843 -0.08610394 0.098168515 0.088874154 -0.14135903 0.11605256 0.032300368 -0.013725469
-0.10082976 0.0017915552 0.085136384 -0.048486765 0.10439785 -0.015274405 -0.092841476 0.09790784
0.010078287 0.008699484 -0.09964209 -0.030537458 0.09383037 0.06346191 0.00843509 -0.07781662
0.00031200342 0.013922067 -0.088100605 0.02036264 -0.11458636 0.09990656 0.051515732 -0.036987137
-0.08340841 0.0480402 -0.08798115 0.09431001 -0.016775094 -0.06485094 -0.097984225 -0.040161733
0.0357272 0.07861068 -0.065390624 0.09664347 -0.029653095 -0.073009446 -0.0449177 -0.015086226
0.0795543 0.055475716 0.13082515 0.08699146 0.0925504 0.11374775 -0.06669782 -0.088891104
-0.027414087 -0.092492335 -0.053864986 0.089449696 0.11454579 0.011015499 0.051423192 -0.027637389
-0.06607633 0.06860622 -0.06864869 -0.063242525 -0.0003794089 0.124506705 -0.036455907 0.0210655
-0.07114166 0.088590994 0.095603056 0.1128045 -0.08811762 -0.0981943 -0.05446828 -0.06207732
0.018573087 -0.052452132 0.05051517 0.13852207 0.06887783 0.11872181 0.08484075 -0.030164765
0.048269566 0.074658684 0.07513404 -0.102318466 -0.0710948 -0.038718298 -0.071975425 0.0756048
0.098166645 -0.006312538 0.1278876 -0.09916793 0.12454783 0.044206128 -0.043771066 -0.023257494
0.08341785 -0.07725456 0.14057422 -0.08113636 0.11728276 0.02078353 -0.0138554005 0.10962527
00000000: bedd 54bd e408 12bd c7d6 c53d 43ab 98bd
00000010: 1e48 7c3c 1b66 6ebd 63e0 cabd 56b6 dc3d
00000020: 6aec dbbd 5f9e bcbc f6a3 493d 8716 0c3d
00000030: 742f c73c b4b4 853d df4c c2bd 7615 c8bd
00000040: 1ae4 34bd d368 8e3d fbcf fabd 7f18 fbbd
00000050: a454 793d f547 eabd 2225 0abc f67a d6bd
00000060: bdd0 473d 847e f9bd 0fc2 993d 4a1f 9bbd
00000070: 24f4 bc3c 7e6b bc3d e12e e6bd 7f68 b93d
00000080: a67c 9e3d 0c9c ea3d ad9c 78bb 30a4 56bd
00000090: 7c41 d9bd f82c febc 23da 4dbd 4fd2 ebbd
000000a0: 571b 09bc 7bf4 09bd 20eb d1bc 7323 f4bd
000000b0: bd5e d2bd b42b ed3b 9fa0 dcbd 8d12 8a3d
000000c0: 648c a93a b463 c9bd 1828 8b3d ae51 b5bd
000000d0: aec5 203d de8e 11bd e35a e8bd 3cd5 06be
000000e0: e9a3 0abd caef 9c3b 7d58 24bd 78c2 ecbd
000000f0: c24a df3d e819 e8bc 9626 df3c f20a 88bd
00000100: a4a4 1e3d b977 f83d 1168 17bd 9a66 a7bc
00000110: e204 78bd a0a7 523d 2006 de3d ab84 8d3d
00000120: d4e6 09be 1aca 1cbd 0591 87bd e604 433d
00000130: fe11 bcbd 3d14 efbd 872f a03c ad15 33bd
00000140: dc8b 7d3d 0659 a8bd 7e2f be3d 95e1 a4bc
00000150: a82f 76bd 01f7 c63d 30eb c33d 1973 97bc
00000160: dd81 32bd 15f5 96bd 8079 b8bd 85fd 9f3c
00000170: 3562 adbd 606b 993d 8a68 a0bd 867c e13d
00000180: 8fd5 f13c e802 55bd 180f f3bd d0c0 713c
00000190: 7595 583d 25e4 933d 422c fdbd 6204 bfbd
000001a0: 2dcf 863d 971a d3bd 0303 8f3d d93f 563c
000001b0: fa46 a8bd 7259 de3c d512 3f3d a6c3 8abd
000001c0: 48c6 db3b 7ca2 a4bd 1d88 bebd 31f2 89bc
000001d0: 1846 7abb e57c 1b3d 8c3a 383c 89fa 103d
000001e0: 89eb 70bb 1ca1 63bd 7d15 e9bd 0d71 813d
000001f0: 9df5 5fbd ff61 e7bd 7596 cbbd cd71 ccbd
00000200: e89a 21bd af51 a3bd e4c5 9bbd ee72 10be
00000210: cd41 aabd 4b76 8fbd ff9a d33d ece3 0cbd
00000220: 2c5c c8bd fc97 943c 50ec 02be c045 7c3c
00000230: e1d0 75bc c32d ebbd 68fe 97bd b6dc 9cbd
00000240: d057 eebd 4357 b0bd 930c c93d a703 b63d
00000250: 6cc0 10be f7ac ed3d 644d 043d cae0 60bc
00000260: d57f cebd 9ed2 ea3a fc5b ae3d 0f9a 46bd
00000270: 8ace d53d 7f41 7abc ac23 bebd e883 c83d
00000280: 661f 253c 4888 0e3c 2711 ccbd b129 fabc
00000290: 232a c03d 51f8 813d 5533 0a3c 525e 9fbd
000002a0: 6494 a339 6219 643c 176e b4bd 8dcf a63c
000002b0: 41ac eabd cf9b cc3d 2902 533d d37f 17bd
000002c0: 07d2 aabd cdc5 443d 762f b4bd 9b25 c13d
000002d0: ec6b 89bc 92d0 84bd f4ab c8bd a180 24bd
000002e0: af56 123d a3fe a03d 85eb 85bd 03ed c53d
000002f0: 0ceb f2bc fa85 95bd 9ffb 37bd 382c 77bc
00000300: 5ded a23d 813a 633d 07f7 053e 9428 b23d
00000310: 108b bd3d 95f4 e83d de98 88bd 8a0c b6bd
00000320: 8293 e0bc 9f6c bdbd 88a1 5cbd 6731 b73d
00000330: fc96 ea3d 5a7a 343c 20a1 523d ce67 e2bc
00000340: 0753 87bd 6b81 8c3d af97 8cbd 4c85 81bd
00000350: 67eb c6b9 5ffd fe3d ca52 15bd 8e91 ac3c
00000360: b8b2 91bd 326f b53d 89cb c33d 0c06 e73d
00000370: 0377 b4bd 181a c9bd 221a 5fbd ca44 7ebd
00000380: 9626 983c 0cd8 56bd ffe8 4e3d bbd8 0d3e
00000390: d20f 8d3d 6c24 f33d fdc0 ad3d 191c f7bc
000003a0: 4fb6 453d a7e6 983d e0df 993d 588c d1bd
000003b0: 279a 91bd 1497 1ebd da67 93bd b0d6 9a3d
000003c0: 980b c93d 68d9 cebb f8f4 023e 8e18 cbbd
000003d0: ef12 ff3d 7c11 353d 4a49 33bd 8086 bebc
000003e0: fad6 aa3d a437 9ebd b0f2 0f3e d22a a6bd
000003f0: f231 f03d 3942 aa3c c301 63bc 3783 e03d

convs.1.lins.1.weight f4 [128, 64]
0.014766874 -0.12908562 -0.028204298 0.027009692 -0.058263488 0.012941387 -0.051975965 -0.12584053
-0.10893026 -0.023919553 -0.11730468 0.086111255 0.042492885 0.107600935 -0.052653376 0.07412736
-0.13263804 0.026289687 0.054519054 -0.0019855576 -0.07669356 -0.06569958 -0.054423437 0.08182086
0.01866572 -0.05589425 -0.04766187 -0.0017649434 0.026072651 0.095333114 0.06380081 0.08684554
-0.06590317 0.012408548 0.090151526 0.0838807 -0.0009806048 0.09454726 -0.09609176 -0.13986637
0.019289445 0.053056043 0.060955398 -0.11093908 0.09374493 -0.1233457 0.08658953 -0.055604346
0.09878291 0.039591867 0.06612006 -0.010983392 -0.1440639 -0.12365009 -0.11123943 -0.06176906
-0.05744687 0.018483594 -0.12950836 -0.107174404 -0.014824495 -0.032397933 -0.038148027 -0.12601608
-0.13862377 -0.09725853 -0.08670239 -0.024555406 -0.123301186 -0.12117363 -0.028696716 0.1370224
0.056083426 -0.0091800075 -0.10321539 0.01630237 -0.121231124 -0.088247046 -0.012826168 0.03391886
-0.07053485 -0.027611187 -0.028841343 -0.015142773 0.0298078 0.034900993 -0.05670663 -0.009014893
-0.09984108 -0.074605726 -0.11204064 -0.12415337 -0.07849108 -0.0296674 -0.0005283612 0.027359406
0.059771683 0.006296332 -0.008933966 0.03829301 -0.08607388 0.00078737066 0.005752905 0.08569235
0.11653801 -0.10429095 -0.014665955 0.08867846 0.026062265 -0.11465356 0.076301 -0.07668561
-0.11035242 -0.08515533 0.10167914 0.10781754 -0.03256322 0.01383592 0.03370114 -0.11969925
-0.0660157 -0.073642574 0.018034318 -0.03211419 0.07630323 -0.104824625 -0.06141241 0.0010264276
-0.022517452 -0.04634514 -0.084949724 0.048338074 0.05503228 -0.0056599197 -0.027463939 0.09585623
0.0027846536 -0.06961892 -0.08242824 0.05372545 -0.097172655 0.01931267 -0.050233293 0.041440614
0.033107657 0.071171835 -0.003669486 -0.06552778 -0.009463725 -0.044803657 0.03139472 -0.023178728
-0.010845504 0.101286694 -0.11020325 0.085828885 0.019193701 -0.09878065 0.07956643 -0.06053758
-0.11174269 -0.049385764 0.00088182813 -0.13389555 -0.005866412 0.03878863 -0.11775719 0.04629847
0.018166853 0.09282333 0.110194065 -0.035270333 -0.043857757 -0.14078256 -0.08497767 0.00037182626
0.079596564 0.07006662 0.029719763 -0.03144901 0.01364369 0.058484826 0.071673006 0.05716611
-0.08662609 -0.074506365 -0.03943881 -0.03147142 -0.118621305 0.08038009 0.06593116 0.09958247
0.07033563 0.14544334 0.017836794 -0.00095385825 0.03757803 0.060433567 0.057698674 0.011234431
0.022586796 -0.05705623 0.018260846 0.08934564 0.020902647 -0.09702266 0.004455208 -0.0170187
0.11162101 0.10679748 -0.05993413 0.06915135 0.05283679 -0.06325198 -0.025789708 0.027406244
0.07581897 -0.022978613 0.055153403 0.064488284 -0.07508187 -0.0086700125 0.056262035 0.08065318
0.04082855 -0.01685695 -0.026265757 0.074606046 0.071701236 0.0050359243 0.1441651 0.051748965
-0.07847822 0.024412215 0.010353542 0.0019618613 0.018603696 -0.015214277 -0.03989041 0.09936191
0.09467856 -0.053173836 0.037743717 0.06733181 0.011082761 0.02227349 -0.008883781 0.008734416
-0.07370436 0.14078377 0.14411774 0.08829781 -0.03352949 -0.019223172 0.04433146 0.08302385
00000000: c2f0 713c 052f 04be b30c e7bc 6e43 dd3c
00000010: b2a5 6ebd 1c08 543c c0e4 54bd 57dc 00be
00000020: d416 dfbd f0f2 c3bc 703d f0bd 195b b03d
00000030: 050d 2e3d e15d dc3d 11ab 57bd 16d0 973d
00000040: 44d2 07be 785d d73c 5f4f 5f3d 2120 02bb
00000050: 8311 9dbd 808d 86bd 1ceb 5ebd b291 a73d
00000060: dae8 983c 5ef1 64bd 1839 43bd ac55 e7ba
00000070: 5096 d53c 023e c33d 00aa 823d 13dc b13d
00000080: 3ef8 86bd 394d 4b3c 5da1 b83d a5c9 ab3d
00000090: a387 80ba fea1 c13d c2cb c4bd 2139 0fbe
000000a0: e604 9e3c 4b51 593d 5eac 793d 0734 e3bd
000000b0: 58fd bf3d ac9c fcbd da55 b13d 62c1 63bd
000000c0: b24e ca3d 152b 223d f469 873d aff3 33bc
000000d0: 7d85 13be 423c fdbd 80d1 e3bd 8e01 7dbd
000000e0: 694d 6bbd e86a 973c d79d 04be 417e dbbd
000000f0: 70e2 72bc b2b3 04bd 1b41 1cbd 5c0a 01be
00000100: 64f3 0dbe 7b2f c7bd 0691 b1bd 6b28 c9bc
00000110: 5585 fcbd e129 f8bd 6015 ebbc 9a4f 0c3e
00000120: bcb7 653d be67 16bc 9762 d3bd 8c8c 853c
00000130: 0648 f8bd deba b4bd d924 52bc 81ee 0a3d
00000140: 9374 90bd db30 e2bc ae44 ecbc 6519 78bc
00000150: 7d2f f43c 58f4 0e3d 3645 68bd 34b3 13bc
00000160: 7b79 ccbd e3ca 98bd 9075 e5bd 1f44 febd
00000170: eebf a0bd 0c09 f3bc b881 0aba d520 e03c
00000180: 27d3 743d 7651 ce3b c55f 12bc 22d9 1c3d
00000190: 8147 b0bd 8d67 4e3a dd82 bc3b 797f af3d
000001a0: 7bab ee3d 7e96 d5bd 7949 70bc 0d9d b53d
000001b0: 8880 d53c 7ccf eabd b343 9c3d 580d 9dbd
000001c0: 7300 e2bd eb65 aebd 273d d03d 71cf dc3d
000001d0: 0361 05bd 0eb0 623c 350a 0a3d e124 f5bd
000001e0: 3d33 87bd ebd1 96bd b5bc 933c 2b8a 03bd
000001f0: de44 9c3d 4bae d6bd 948b 7bbd 3289 863a
00000200: 8576 b8bc 67d4 3dbd 1ffa adbd 25fe 453d
00000210: 8769 613d d976 b9bb 0efc e0bc 4550 c43d
00000220: bc7e 363b 5d94 8ebd 23d0 a8bd 380f 5c3d
00000230: 7502 c7bd 9b35 9e3c 6dc1 4dbd a2bd 293d
00000240: e59b 073d 8ac2 913d c27b 70bb 6e33 86bd
00000250: bd0d 1bbc 0a84 37bd c097 003d 51e1 bdbc
00000260: 57b1 31bc 666f cf3d 3eb2 e1bd 0ec7 af3d
00000270: 1c3c 9d3c 824d cabd b9f3 a23d 41f6 77bd
00000280: 5ad9 e4bd ba48 4abd 7c2a 673a ea1b 09be
00000290: 083b c0bb d4e0 1e3d ae2a f1bd 77a3 3d3d
000002a0: a7d2 943c 281a be3d 6dad e13d a077 10bd
000002b0: 31a4 33bd 4e29 10be c608 aebd adf1 c239
000002c0: 8603 a33d 177f 8f3d dc76 f33c add0 00bd
000002d0: c989 5f3c c98d 6f3d 4cc9 923d 0327 6a3d
000002e0: 0569 b1bd cb96 98bd 978a 21bd 2de8 00bd
000002f0: baef f2bd 519e a43d ea06 873d e5f1 cb3d
00000300: 200c 903d 19ef 143e 781e 923c 580c 7aba
00000310: 6ceb 193d 3089 773d 7255 6c3d 9e10 383c
00000320: f207 b93c cbb3 69bd c597 953c d9fa b63d
00000330: 073c ab3c d1b3 c6bd fefc 913b cd6a 8bbc
00000340: 8e99 e43d a3b8 da3d 7e7d 75bd 399f 8d3d
00000350: 646b 583d 418a 81bd f044 d3bc 0f83 e03c
00000360: fa46 9b3d a53d bcbc 89e8 613d 6f12 843d
00000370: 86c4 99bd ab0c 0ebc 0573 663d 7f2d a53d
00000380: d63b 273d 9617 8abc 492b d7bc 0ecb 983d
00000390: 19d8 923d 6504 a53b 04a0 133e b9f6 533d
000003a0: 30b9 a0bd 20fc c73c e7a1 293c 9292 003b
000003b0: c766 983c 4e45 79bc 2064 23bd 427e cb3d
000003c0: d5e6 c13d cfcc 59bd 2899 1a3d 43e5 893d
000003d0: 7894 353c e576 b63c 478d 11bc cc1a 0f3c
000003e0: 50f2 96bd 9f29 103e 9a93 133e 7bd5 b43d
000003f0: 3856 09bd ea79 9dbc e894 353d 6908 aa3d

convs.1.lins.2.weight f4 [128, 64]
-7.004315e-05 -0.08798223 0.0029773696 -0.0028403653 -0.04450464 -0.11928332 -0.08766615 -0.071906306
0.03557033 -0.12275984 -0.04159787 0.026566623 -0.07681668 -0.010615853 0.09880726 0.058618605
-0.019755637 -0.14107065 -0.03993711 -0.041885346 -0.13923691 0.115720965 0.006181718 0.05850209
-0.091532536 -0.13088973 0.10704908 -0.13397087 0.048182294 -0.02818993 0.021982117 -0.07234074
0.034597352 0.031681318 -0.06242365 0.06605436 -0.056726176 -0.061691213 0.005367283 0.053659078
-0.04730064 0.024585655 -0.06207124 0.048249923 0.027861059 -0.09133816 0.09309556 -0.035035934
0.07788376 -0.059940986 -0.004029454 -0.073346406 -0.00044203972 0.02492526 0.10434195 0.09053111
0.024183894 -0.13097766 -0.107422404 -0.008179304 -0.09125188 -0.13718832 0.041980457 0.06390796
0.019386915 -0.10343039 0.06438863 -0.12267983 -0.0198235 0.012496429 -0.06586642 0.08010171
0.061295677 -0.028533762 0.06287029 -0.06570726 -0.08758595 -0.03019734 0.052874096 -0.0611636
-0.114471324 -0.05881674 -0.06896008 -0.07363332 -0.0027152796 -0.011955884 0.008003146 0.09152337
-0.017719887 -0.11256223 -0.12097485 -0.066622876 -0.038283188 -0.102583006 -0.011529531 0.026275909
-0.026573332 -0.017926473 -0.102938026 0.08215201 -0.08621547 -0.06019065 0.04660536 -0.09864748
-0.08773176 0.053047482 -0.051878087 0.015866913 -0.06706581 0.021306148 -0.046874464 -0.018910674
0.06892397 -0.100033894 0.017167168 -0.010012329 -0.11232736 0.078084156 0.0045505622 -0.12333989
0.11990166 -0.063502304 0.0780024 -0.084812105 0.09602724 0.034161143 0.101345435 -0.052042246
-0.016903609 0.0062768054 -0.12953497 -0.060452003 -0.04787436 -0.12728359 -0.0610213 -0.12452461
-0.083726846 -0.02857046 0.09993324 0.019570129 -0.031650376 -0.027606586 -0.0840869 0.08778921
-0.09150733 -0.008638442 0.081743844 0.038124643 0.06560412 -0.107037365 -0.09935814 -0.11500028
0.051024232 0.097685695 0.05939248 0.09328125 -0.12223032 -0.00036999557 -0.042655185 -0.014066379
0.09081644 0.096359245 -0.046145976 -0.0033094492 -0.059104938 0.100285344 0.013997051 0.0483182
-0.029482394 0.0013645701 0.043617267 -0.051808596 -0.10118517 -0.063080646 -0.03788665 -0.013291007
0.0282555 0.09996693 -0.013610978 -0.118728936 -0.007209087 0.0015779643 0.0077320742 -0.018356659
-0.11996246 0.077904664 0.06656334 -0.044877436 -0.104136765 0.116565146 -0.07803957 0.030989531
-0.052125458 -0.022158701 0.13227421 0.059503745 0.07841405 0.014377134 -0.00071064563 -0.022990894
-0.038477633 0.11481166 0.0011204745 -0.081622496 0.0515259 0.09018837 0.0115344655 -0.06790924
-0.014608691 0.14313632 0.043777205 -0.061563753 0.107623525 0.04354612 0.003777502 -0.013527294
0.10965008 0.02779288 0.008861428 -0.09553801 -0.08520765 0.12204321 0.030652026 -0.03147825
0.07191771 0.08386362 0.09224335 -0.01405513 0.12803571 0.010121219 0.06035209 0.14616126
0.07865047 0.14864641 0.020573273 0.056183368 0.06070824 -0.029270701 0.14514291 -0.0754564
-0.10482751 0.11655612 -0.012897595 0.1111584 0.039081927 0.06701586 0.005216131 -0.027281214
0.047183 0.07051978 0.14835781 -0.0070079556 0.13663039 0.024704436 0.04013085 0.003281232
00000000: 21e4 92b8 0730 b4bd f91f 433b 6c25 3abb
00000010: 7f4a 36bd d04a f4bd 4f8a b3bd 9d43 93bd
00000020: 32b2 113d 8369 fbbd 8762 2abd 3fa2 d93c
00000030: 1052 9dbd 1dee 2dbc 765b ca3d 101a 703d
00000040: 93d6 a1bc d374 10be 1895 23bd f88f 2bbd
00000050: 1f94 0ebe 1dff ec3d 0290 ca3b e39f 6f3d
00000060: 6975 bbbd f507 06be 8c3c db3d a92f 09be
00000070: cc5a 453d 91ee e6bc d713 b43c 6227 94bd
00000080: f4b5 0d3d 45c4 013d f1af 7fbd 8247 873d
00000090: b559 68bd edaf 7cbd 08e0 af3b 9fc9 5b3d
000000a0: 51be 41bd db67 c93c 6a3e 7ebd b6a1 453d
000000b0: e03c e43c 800f bbbd e3a8 be3d d781 0fbd
000000c0: 8581 9f3d ae84 75bd 8309 84bb a436 96bd
000000d0: 91c1 e7b9 0f30 cc3c 3bb1 d53d 6068 b93d
000000e0: 4d1d c63c 021f 06be 4700 dcbd 7d02 06bc
000000f0: 44e2 babd 187b 0cbe b3f3 2b3d 2de2 823d
00000100: 4fd1 9e3c 50d3 d3bd 30de 833d 903f fbbd
00000110: e564 a2bc d2bd 4c3c f9e4 86bd 5e0c a43d
00000120: 2d11 7b3d a3bf e9bc 23c2 803d 8791 86bd
00000130: 4360 b3bd 6960 f7bc 8292 583d af86 7abd
00000140: f16f eabd d2e9 70bd f13a 8dbd 11cd 96bd
00000150: d5f2 31bb 9de2 43bc a11f 033c 9b70 bb3d
00000160: 4c29 91bc 0787 e6bd aac1 f7bd 9371 88bd
00000170: d5ce 1cbd 0a17 d2bd 5ce6 3cbc 9340 d73c
00000180: 51b0 d9bc 8ada 92bc 2cd1 d2bd 503f a83d
00000190: bd91 b0bd 798a 76bd 43e5 3e3d b107 cabd
000001a0: b6ac b3bd 5148 593d 1e7e 54bd 54fb 813c
000001b0: cd59 89bd 3b8a ae3c 70ff 3fbd 8fea 9abc
000001c0: 0328 8d3d 92de ccbd 29a2 8c3c c00a 24bc
000001d0: e30b e6bd 96ea 9f3d e21c 953b a099 fcbd
000001e0: 008f f53d 7f0d 82bd b9bf 9f3d f8b1 adbd
000001f0: eea9 c43d 8eec 0b3d 328e cf3d 402a 55bd
00000200: 7079 8abc a9ad cd3b d1a4 04be 859c 77bd
00000210: e817 44bd a156 02be 78f1 79bd c206 ffbd
00000220: fb78 abbd 990c eabc cca9 cc3d 8951 a03c
00000230: d3a3 01bd 3527 e2bc c135 acbd d4ca b33d
00000240: 3268 bbbd 4088 0dbc 5169 a73d 9628 1c3d
00000250: 745b 863d 6836 dbbd 487c cbbd 4485 ebbd
00000260: c9fe 503d 700f c83d 8745 733d 3d0a bf3d
00000270: e453 fabd f7fb c1b9 34b7 2ebd ab76 66bc
00000280: f8fd b93d ff57 c53d 9003 3dbd 58e3 58bb
00000290: 0518 72bd 6762 cd3d e353 653c 4ee9 453d
000002a0: 1085 f1bc 60db b23a 05a8 323d 4035 54bd
000002b0: 2c3a cfbd 6d30 81bd 082f 1bbd 86c2 59bc
000002c0: 1478 e73c 76bb cc3d 9400 5fbc 2828 f3bd
000002d0: 343a ecbb b2d3 ce3a 575d fd3b b460 96bc
000002e0: e1ae f5bd 7b8c 9f3d 5c52 883d 67d1 37bd
000002f0: a845 d5bd b5b9 ee3d 36d3 9fbd c2dd fd3c
00000300: 8181 55bd 2a86 b5bc e472 073e 33ba 733d
00000310: 8c97 a03d 128e 6b3c 9f4a 3aba 6657 bcbc
00000320: b99a 1dbd 6022 eb3d e3dc 923a b229 a7bd
00000330: d20c 533d aeb4 b83d 0efb 3c3c 0014 8bbd
00000340: 4b59 6fbc 5492 123e ba4f 333d 462a 7cbd
00000350: b969 dc3d 6b5d 323d f88f 773b 95a1 5dbc
00000360: 3990 e03d e5ad e33c 862f 113c 6fa9 c3bd
00000370: 5981 aebd caf1 f93d f519 fb3c 56ef 00bd
00000380: 9849 933d b1c0 ab3d 15ea bc3d 7d47 66bc
00000390: cb1b 033e 78d3 253c c133 773d 4cab 153e
000003a0: 7f13 a13d c436 183e 4889 a83c 8820 663d
000003b0: 34a9 783d 1cc9 efbc 58a0 143e e388 9abd
000003c0: ceaf d6bd fab4 ee3d 6f50 53bc 04a7 e33d
000003d0: 5f14 203d 9c3f 893d 14ec aa3b da7c dfbc
000003e0: f642 413d ad6c 903d 1ceb 173e fea2 e5bb
000003f0: d6e8 0b3e f560 ca3c 3f60 243d f009 573b

convs.1.lins.3.weight f4 [128, 64]
0.037383903 0.08084755 -0.09447062 -0.13826342 -0.11487268 -0.07133889 -0.13375562 -0.014177386
0.0147368815 0.09451856 0.035019208 0.08003253 -0.03615534 -0.061108477 0.09216208 -0.08841074
0.102414444 -0.11322611 -0.05923845 -0.11118538 -0.027968407 -0.105856284 -0.06085241 -0.12592477
0.098622896 -0.1353687 -0.06937316 0.06465744 0.055977605 -0.07372097 -0.036677867 -0.051414866
0.038626328 -0.04959512 -0.026376469 -0.10443075 -0.115820386 0.052761924 0.06136876 -0.1433367
-0.008708316 0.08001163 0.0067928093 0.05138135 0.0004632214 0.056765754 -0.04393098 0.020533824
0.015755335 -0.10620637 -0.106185056 0.07836551 0.018267442 -0.12257042 -0.106933646 0.086211376
0.09434375 -0.13945824 -0.1022078 0.007967641 -0.075417645 -0.020400647 -0.0039587906 0.09457903
-0.046019576 0.066311486 -0.010071897 0.106947705 -0.007077783 -0.1223053 0.043004278 -0.109384194
-0.03311692 0.069326036 0.047210682 0.08626382 0.023183746 -0.10577741 0.054399997 -0.07352616
-0.07773573 0.04865692 -0.14648339 -0.04090815 -0.035237536 0.09629871 -0.051958878 -0.056582022
-0.038739003 -0.07622863 0.007411964 -0.11737755 -0.04599151 0.09400048 0.049365908 0.025359226
-0.10759718 0.0965473 0.0016217125 0.021949127 0.028874863 -0.06971863 -0.063462086 0.01764919
0.114189856 0.09831711 0.0070116227 -0.0014287016 -0.046090152 0.02555 -0.1238414 0.057880573
0.06271041 -0.045892667 0.01162641 0.018438393 -0.10627314 0.023498485 -0.06382159 0.054103013
0.112031385 0.03852071 -0.090076186 -0.009035356 0.036495265 -0.06093485 0.015035417 0.10139217
-0.09258469 -0.09157915 0.04127512 -0.10652301 0.0002000712 0.08608734 -0.104740046 -0.100641616
0.06262841 -0.12457712 -0.036040258 -0.048339516 0.08020328 -0.03576567 0.01806654 0.08662195
0.017034285 -0.0029540225 -0.0310389 -0.12334361 0.047664203 -0.10469182 -0.11921241 0.040538136
-0.02371797 -0.035118107 -0.13294755 -0.07338573 -0.027127523 -0.06544193 0.0011369669 0.09202877
-0.04363491 0.10353848 -0.057572268 0.04709351 -0.07071332 -0.030416077 -0.009606309 0.056569897
0.003069225 -0.11003183 0.022038551 -0.13461062 -0.109093085 -0.10509514 -0.0020671657 0.040633477
0.025734695 0.084854595 0.045127753 -0.12294951 0.07181164 0.048922606 0.034218222 0.034493335
-0.055827063 -0.09733307 -0.10588477 -0.086172625 -0.102099456 -0.039377876 0.08690733 -0.12077164
-0.013069573 0.07667735 0.11111912 0.061054893 0.051193327 0.044973318 0.14553927 -0.027962448
-0.035530142 0.08040194 0.013562019 -0.06571724 -0.06046935 -0.052752834 0.054727245 -0.087182716
0.087408505 0.112609476 -0.10490878 0.13939328 -0.015113991 0.10979595 0.003152839 0.12937798
0.037336588 0.13801172 0.010858709 -0.08949097 0.11207404 -0.07486271 0.050571505 0.059166696
-0.06876108 0.009255229 0.139147 0.08569607 0.014432583 0.074807204 0.03836976 -0.05722247
-0.090188354 0.13858488 -0.013169448 -0.06315508 -0.061120465 -0.09309796 -0.026912998 0.017982159
-0.099794954 0.047956444 -0.011894429 0.0014027548 0.07542071 -0.100214526 0.10144044 0.056365192
0.02864426 0.03402692 -0.10053135 0.13261625 -0.06569565 0.11507661 -0.024800126 0.05602835
00000000: dd1f 193d 6693 a53d d079 c1bd ed94 0dbe
00000010: 5e42 ebbd 201a 92bd 3cf7 08be 4448 68bc
00000020: f672 713c f292 c13d 4d70 0f3d 18e8 a33d
00000030: 9f17 14bd e24c 7abd 79bf bc3d b110 b5bd
00000040: aabe d13d 17e3 e7bd 04a4 72bd 29b5 e3bd
00000050: 001e e5bc 2ecb d8bd 6040 79bd 6cf2 00be
00000060: cdfa c93d 189e 0abe 8413 8ebd 1f6b 843d
00000070: c648 653d 05fb 96bd 883b 16bd 6598 52bd
00000080: a436 1e3d 4124 4bbd 7713 d8bc cadf d5bd
00000090: 3d33 edbd e31c 583d cf5d 7b3d dbc6 12be
000000a0: 53ad 0ebc 23dd a33d 3796 de3b 4075 523d
000000b0: 86dc f239 3583 683d f9f0 33bd 8d36 a83c
000000c0: 5511 813c ba82 d9bd 8d77 d9bd 197e a03d
000000d0: 9aa5 953c 3306 fbbd 0700 dbbd 978f b03d
000000e0: 4c37 c13d 24ce 0ebe 5352 d1bd b58a 023c
000000f0: 9174 9abd 421f a7bc beb8 81bb a7b2 c13d
00000100: 067f 3cbd 51ce 873d 9904 25bc 6607 db3d
00000110: bfec e7bb 337b fabd 4125 303d d204 e0bd
00000120: 9ca5 07bd cffa 8d3d fd5f 413d 16ab b03d
00000130: d7eb bd3c d4a1 d8bd 88d2 5e3d e294 96bd
00000140: e933 9fbd 7b4c 473d beff 15be 4e8f 27bd
00000150: 3c55 10bd 4238 c53d d5d2 54bd 8dc2 67bd
00000160: caac 1ebd c21d 9cbd 0fe0 f23b a463 f0bd
00000170: 9861 3cbd 5383 c03d e833 4a3d 27be cf3c
00000180: e95b dcbd 97ba c53d a48f d43a a8ce b33c
00000190: fa8a ec3c a4c8 8ebd 69f8 81bd 0995 903c
000001a0: 5fdc e93d 7b5a c93d c1c1 e53b 4543 bbba
000001b0: 07c9 3cbd 3c4e d13c 8fa0 fdbd 2e14 6d3d
000001c0: 516e 803d f3f9 3bbd b37c 3e3c 1d0c 973c
000001d0: bba5 d9bd e57f c03c e5b4 82bd 1f9b 5d3d
000001e0: b670 e53d e4c7 1d3d dd79 b8bd 0809 14bc
000001f0: 0f7c 153d d296 79bd 1c57 763c b3a6 cf3d
00000200: 0b9d bdbd d98d bbbd 1a10 293d bc28 dabd
00000210: 34ca 5139 8f4e b03d f381 d6bd 311d cebd
00000220: 5343 803d 4a22 ffbd f39e 13bd a8ff 45bd
00000230: 9e41 a43d 067f 12bd 4800 943c d966 b13d
00000240: 7c8b 8b3c 4698 41bb 4b45 febc 939b fcbd
00000250: 8a3b 433d aa68 d6bd a325 f4bd 510b 263d
00000260: 304c c2bc 01d8 0fbd 6723 08be 424b 96bd
00000270: 8a3a debc 6b06 86bd 4706 953a 9479 bc3d
00000280: 85ba 32bd fc0b d43d e6d0 6bbd 20e5 403d
00000290: 25d2 90bd 232b f9bc c863 1dbc d6b5 673d
000002a0: 0d25 493b 5e58 e1bd 318a b43c 5ed7 09be
000002b0: 326c dfbd 1f3c d7bd 4979 07bb 4a6f 263d
000002c0: 91d1 d23c 3fc8 ad3d e1d7 383d f4cc fbbd
000002d0: fb11 933d 1263 483d 6828 0c3d e248 0d3d
000002e0: ebaa 64bd 9056 c7bd 1dda d8bd 467b b0bd
000002f0: 8519 d1bd b24a 21bd 78fc b13d 1f57 f7bd
00000300: c321 56bc 0409 9d3d 6c92 e33d b214 7a3d
00000310: 18b0 513d f135 383d 3f08 153e 8111 e5bc
00000320: 0e88 11bd c6a9 a43d 3b33 5e3c c396 86bd
00000330: b6ae 77bd 5b13 58bd ad29 603d da8c b2bd
00000340: 3b03 b33d cc9f e63d 6ada d6bd 1dbd 0e3e
00000350: aca0 77bc b3dc e03d dc9f 4e3b a97b 043e
00000360: 40ee 183d f252 0d3e bae8 313c 0b47 b7bd
00000370: 1387 e53d 9f51 99bd 1124 4f3d c758 723d
00000380: 9cd2 8cbd 3ea3 173c 8d7c 0e3e 6c81 af3d
00000390: a476 6c3c 8534 993d 9c29 1d3d 1c62 6abd
000003a0: acb4 b8bd 32e9 0d3e abc4 57bc 7357 81bd
000003b0: 7459 7abd 25aa bebd a678 dcbc 524f 933c
000003c0: 4c61 ccbd fa6d 443d dae0 42bc a4dc b73a
000003d0: 2c76 9a3d 463d cdbd 01c0 cf3d 30df 663d
000003e0: 5ea7 ea3c d05f 0b3d 61e3 cdbd 8ecc 073e
000003f0: 718b 86bd 49ad eb3d a229 cbbc fc7d 653d
