Entrenar/runs/30/GNN_local/04-12_17:07:15/weights/best_model.pt (torch, 182306 bytes, 29 tensors)

convs.0.bias f4 [64]
0.057728242 -0.10040075 0.122901656 0.11604085 0.28485388 0.010631014 0.1812246 -0.12500156
0.14741108 0.08116534 -0.057778023 -0.04001849 0.061010007 0.04822312 0.17344849 -0.054050177
0.0076469197 0.06130662 0.045064792 -0.026022714 -0.04416828 0.104630984 -0.1579213 0.018659083
-0.06071069 0.07699165 -0.15090814 0.19985767 0.037977748 -0.054429036 -0.0074991067 -0.05178025
0.05348058 0.09381513 -0.12091743 -0.0267741 -0.015966902 -0.019626496 0.14165315 -0.03269651
-0.1710757 0.1289373 -0.013830817 0.041153423 -0.006139655 -0.22563244 0.10077406 -0.2533235
0.07257972 -0.05192573 -0.14279549 -0.105347246 0.03288979 0.075154744 0.008744098 -0.058040638
-0.028696124 -0.04311003 -0.19875081 -0.026245078 -0.013825553 -0.033271648 0.122277364 0.02932808
00000000: 7374 6c3d e99e cdbd ddb3 fb3d d3a6 ed3d
00000010: 5ed8 913e b42d 2e3c f192 393e 6900 00be
00000020: eef2 163e 043a a63d a6a8 6cbd 6eea 23bd
00000030: a1e5 793d 9b85 453d 7b9c 313e b863 5dbd
00000040: 0393 fa3b a61c 7b3d dc95 383d 962d d5bc
00000050: cce9 34bd c548 d63d 1fb6 21be efda 983c
00000060: c6ab 78bd ccad 9d3d aa87 1abe 7da7 4c3e
00000070: 8e8e 1b3d fbf0 5ebd 11bb f5bb 8717 54bd
00000080: 740e 5b3d 2622 c03d 8fa3 f7bd 5b55 dbbc
00000090: 05cd 82bc bfc7 a0bc 860d 113e c7ec 05bd
000000a0: 782e 2fbe 2408 043e a79a 62bc 7e90 283d
000000b0: 292f c9bb 310c 67be a162 ce3d 9eb3 81be
000000c0: ada4 943d 13b0 54bd fb38 12be 4cc0 d7bd
000000d0: 72b7 063d bbea 993d 6843 0f3c 05bc 6dbd
000000e0: 2214 ebbc 2594 30bd 5585 4bbe ebff d6bc
000000f0: 9284 62bc da47 08bd 8e6c fa3d 7141 f03c

convs.0.lins.0.weight f4 [64, 2]
0.08612564 -0.68413025 0.635967 0.4339684 -0.77308106 -0.013843633 0.1621494 -0.23414026
-0.10239157 -0.16458493 0.6023268 -0.43202332 0.62120885 0.18835028 0.39622712 0.62289566
-0.1586818 -0.3536633 -0.14084692 0.4400498 -0.70523775 -0.04081374 -0.6233398 0.044579025
0.3283322 0.039666362 0.37039298 0.028404063 0.28810382 -0.71637833 -0.021333188 0.20922025
0.9116802 0.3468297 -0.40457204 0.62803376 -0.07477304 -0.20834872 -0.58049595 -0.20786321
0.45206472 0.24406919 -0.49193174 0.27968457 -0.013959092 0.9072211 -0.75635046 -0.4174138
-0.78631437 -0.48753163 0.4647491 0.5851844 0.17865457 0.54581875 4.4838125e-05 0.3820754
0.6793616 0.6215969 -0.5920132 0.45905688 0.43037084 -0.23562491 -0.33960724 -0.7198898
0.27350315 -0.5050496 0.28236216 0.09262738 -0.74057806 0.0720795 -0.24703386 0.40059686
0.38157618 -0.73789096 0.7769078 0.6242267 0.34508002 -0.6630044 -0.101952 -0.18503495
-0.3621173 0.45521712 0.28423643 0.7483105 -0.21627092 0.23306757 0.21303512 -0.60195637
-0.70535225 -0.64631534 0.6643573 -0.71095884 -0.51846504 0.4138814 0.6854536 0.45971414
-0.5613809 -0.58847237 0.41966543 0.7068271 0.36504066 0.2153265 0.26453874 0.5580665
-0.572806 -0.4297108 0.4617148 -0.5374246 -0.5216151 0.44062483 0.30927306 0.18694082
-0.3055896 0.018817076 0.69713944 -0.3618249 -0.064760596 0.256527 -0.67436266 0.7530488
-0.28794932 -0.40028962 -0.2156464 -0.62611026 -0.6740564 0.5668259 0.10472856 -0.67911536
00000000: a462 b03d 2923 2fbf bcce 223f 1b31 de3e
00000010: a4e8 45bf 68d0 62bc 7e0a 263e 77c2 6fbe
00000020: acb2 d1bd f488 28be 1732 1a3f 2932 ddbe
00000030: 8b07 1f3f e5de 403e 48de ca3e 1776 1f3f
00000040: 7b7d 22be 5b13 b5be 2d3a 10be 354e e13e
00000050: 768a 34bf 4f2c 27bd 3293 1fbf 7f98 363d
00000060: 281b a83e 3279 223d 26a4 bd3e a3af e83c
00000070: 5882 933e 9264 37bf f0c2 aebc d53d 563e
00000080: e063 693f aa93 b13e 1124 cfbe d2c6 203f
00000090: 9c22 99bd 5e59 55be 629b 14bf 18da 54be
000000a0: 0775 e73e 46ed 793e 7ade fbbe d132 8f3e
000000b0: adb4 64bc a43f 683f 2fa0 41bf 43b7 d5be
000000c0: e64b 49bf bf9d f9be 98f3 ed3e a5ce 153f
000000d0: 39f1 363e c7ba 0b3f 9210 3c38 639f c33e
000000e0: a4ea 2d3f f920 1f3f 2d8e 17bf 8109 eb3e
000000f0: 9159 dc3e a847 71be 00e1 adbe b34a 38bf
00000100: 9b08 8c3e ee4a 01bf c691 903e 6cb3 bd3d
00000110: 8696 3dbf 6b9e 933d 72f6 7cbe 081b cd3e
00000120: f45d c33e 6ce6 3cbf 6ee3 463f 52cd 1f3f
00000130: 54ae b03e a8ba 29bf 36cc d0bd cd79 3dbe
00000140: 7067 b9be 3812 e93e 7087 913e 4791 3f3f
00000150: 2076 5dbe 44a9 6e3e e125 5a3e d019 1abf
00000160: f791 34bf ec74 25bf 5213 2a3f 6601 36bf
00000170: 20ba 04bf 43e8 d33e e379 2f3f a75f eb3e
00000180: a9b6 0fbf 20a6 16bf 63de d63e 9ff2 343f
00000190: 9ce6 ba3e 8d7e 5c3e 9f71 873e 72dd 0e3f
000001a0: 6aa3 12bf 0e03 dcbe e265 ec3e a994 09bf
000001b0: 9188 05bf 9499 e13e 0a59 9e3e 6a6d 3f3e
000001c0: 3d76 9cbe 4526 9a3c bb77 323f 1d41 b9be
000001d0: 34a1 84bd 8257 833e 08a3 2cbf cec7 403f
000001e0: 186e 93be c3f2 ccbe 69d2 5cbe c348 20bf
000001f0: f68e 2cbf 811b 113f ed7b d63d 81da 2dbf

convs.0.lins.1.weight f4 [64, 2]
-0.4009573 0.6052399 0.31909782 0.398179 -0.5320788 -0.18284348 -0.17632984 -0.20339471
-0.40046465 -0.2582249 -0.022534933 -0.32334083 0.056025345 -0.22816834 0.14132126 -0.021302976
-0.23233211 -0.52316314 0.30562413 0.15026148 -0.13660929 0.5348928 -0.0049756723 0.3364878
0.23582906 -0.535295 0.37952584 -0.4753279 -0.40190035 -0.11494068 -0.30671126 0.69783723
-0.09930604 0.12691064 -0.5031698 0.32680434 -0.07568794 -0.5863673 0.32417184 0.4091132
0.5213783 -0.35027567 -0.27571633 -0.04024964 0.12651841 0.15907305 0.41881302 -0.068051636
0.71382886 0.3911191 0.0116428295 0.41616198 0.57505107 0.71289897 -0.405978 -0.37320057
-0.2466896 0.0014369272 0.25326294 -0.18508165 0.30887517 -0.21309537 0.7074655 0.50560105
-0.6181523 -0.4579295 -0.23546098 0.43568787 -0.29288483 -0.4354567 0.020119263 -0.2580228
0.020804703 -0.47048184 -0.53521454 -0.64975977 -0.050496314 -0.085168734 0.03905458 -0.12492217
0.85461855 0.5887381 0.009375601 -0.20457834 -0.5385001 0.19625518 -0.18058632 0.17474106
0.60390306 0.16100846 1.067884 0.7897912 -0.09220816 -0.51751226 0.53104633 -0.14912936
-0.094827145 0.4127805 0.40397757 0.3569297 -0.021441963 -0.23988877 0.12309016 0.60351723
0.030531414 0.05213352 -0.12726837 -0.5185699 0.38162434 0.14931892 0.38500342 -0.054037977
0.48441535 0.4442693 0.08060376 0.48488656 0.7237905 0.85074556 0.47881413 0.08562717
-0.45986164 0.040811658 0.048730504 -0.18097702 -0.1732758 -0.10657018 0.45289505 0.27252787
00000000: 464a cdbe 01f1 1a3f ca60 a33e 1ede cb3e
00000010: 5136 08bf 523b 3bbe cf8f 34be b446 50be
00000020: b409 cdbe 0e36 84be 2e9b b8bc ee8c a5be
00000030: d57a 653d f6a4 69be 85b6 103e 9483 aebc
00000040: 78e8 6dbe 05ee 05bf c47a 9c3e 25de 193e
00000050: 4ee3 0bbe bcee 083f f70a a3bb 2148 ac3e
00000060: 2c7d 713e 1809 09bf 3651 c23e 2e5e f3be
00000070: e2c5 cdbe 0566 ebbd 4209 9dbe 76a5 323f
00000080: f760 cbbd ddf4 013e bccf 00bf e652 a73e
00000090: 4702 9bbd 2b1c 16bf daf9 a53e 4977 d13e
000000a0: 0c79 053f 5557 b3be b12a 8dbe cedc 24bd
000000b0: 0b8e 013e 0ce4 223e a96e d63e a85e 8bbd
000000c0: 7dbd 363f c340 c83e 91c1 3e3c 2f13 d53e
000000d0: 8c36 133f 8c80 363f 59dc cfbe 2514 bfbe
000000e0: 339c 7cbe 4757 bc3a aeab 813e 0b86 3dbe
000000f0: e324 9e3e ac35 5abe 761c 353f 126f 013f
00000100: 3b3f 1ebf bc75 eabe af1c 71be 7b12 df3e
00000110: 00f5 95be 2ef4 debe 27d1 a43c 901b 84be
00000120: a06e aa3c ffe2 f0be d203 09bf a856 26bf
00000130: 39d5 4ebd f26c aebd b2f7 1f3d 32d7 ffbd
00000140: 48c8 5a3f 8ab7 163f 1f9c 193c fc7c 51be
00000150: 24db 09bf 1ef7 483e 9feb 38be 52ef 323e
00000160: 6499 1a3f 67df 243e 6cb0 883f c22f 4a3f
00000170: a2d7 bcbd af7b 04bf a7f2 073f 5eb5 18be
00000180: bc34 c2bd f757 d33e 26d6 ce3e 7dbf b63e
00000190: 0ea7 afbc 67a5 75be b216 fc3d 1b80 1a3f
000001a0: 041d fa3c f589 553d a452 02be ffc0 04bf
000001b0: 4464 c33e 0fe7 183e 2b1f c53e ed56 5dbd
000001c0: 4a05 f83e 4477 e33e 9613 a53d 0d43 f83e
000001d0: 564a 393f 76ca 593f 2027 f53e 4c5d af3d
000001e0: fc72 ebbe 202a 273d a399 473d 0a52 39be
000001f0: 366f 31be 7741 dabd dce1 e73e c688 8b3e

convs.0.lins.2.weight f4 [64, 2]
-0.28384233 -0.2260518 -0.057410505 -0.037618924 0.46914262 0.47904795 0.6314501 -0.018375603
0.12117424 0.22503085 -0.5853564 0.04751052 -0.072519 -0.24526778 -0.42192873 0.62473834
0.71724224 0.47405714 0.656234 -0.28659326 0.09082265 0.28813934 0.05744352 -0.12361913
-0.64909077 0.22951475 -0.68395036 0.19463015 0.61920965 -0.18753177 -0.054567594 0.259002
-0.25108513 0.040399354 0.7463097 -0.24582621 -0.43246183 -0.40247276 0.017923418 -0.34999096
-0.2904188 0.29216334 0.21789953 -0.30592027 -0.5277042 -0.20758614 -0.22358543 -0.17840359
-0.40566587 0.13010244 -0.34888855 -0.6491282 -0.3965682 0.12471064 -0.2226469 -0.25867647
0.62489337 0.41407195 0.3457067 -0.5442987 -0.6871379 -0.19530684 0.6863588 0.18192427
-0.47977376 0.042795602 -0.4042261 -0.22029163 0.006239291 0.43609303 0.06995469 -0.08578524
0.123011224 -0.24919705 0.33942673 0.13582505 0.10563397 -0.3710847 0.71552396 -0.16510577
-0.04942773 0.3261578 0.49675354 0.76621306 0.39597207 -0.3021989 0.33486438 0.5659379
-0.49485078 -0.08190852 -0.11870698 0.21298562 0.26955953 -0.15745375 -0.09691079 0.44603604
-0.09139189 -0.61233234 0.2709377 -0.10836406 -0.32389992 0.13153362 0.07221538 -0.87079024
0.38319746 -0.3468876 -0.16157183 0.22771706 -0.280266 -0.15679732 -0.3304473 -0.24284206
-0.1886241 -0.31305352 0.27829838 -0.4043165 -0.19341731 0.16123155 0.03235007 0.31646064
-0.21783508 0.20636545 0.407258 0.46734884 -0.6227804 -0.27915156 -0.6939462 -0.53097594
00000000: c853 91be 207a 67be 4727 6bbd 4d16 1abd
00000010: 7633 f03e c645 f53e b7a6 213f 6f88 96bc
00000020: 332a f83d 7d6e 663e ebd9 15bf 649a 423d
00000030: d784 94bd 7a27 7bbe 0b07 d8be daee 1f3f
00000040: 309d 373f 9eb7 f23e f4fe 273f 5abc 92be
00000050: 3a01 ba3d 0087 933e e549 6b3d 072c fdbd
00000060: d02a 26bf ea05 6b3e 5f17 2fbf 204d 473e
00000070: 8684 1e3f 5408 40be 4582 5fbd e99b 843e
00000080: 3b8e 80be cb79 253d 270e 3f3f deb9 7bbe
00000090: a36b ddbe e910 cebe 22d4 923c 0432 b3be
000000a0: c6b1 94be 6f96 953e 0e21 5f3e 95a1 9cbe
000000b0: 9f17 07bf 7691 54be 94f3 64be 6eaf 36be
000000c0: 70b3 cfbe 9339 053e 85a1 b2be 442d 26bf
000000d0: fd0a cbbe 4b68 ff3d 8dfd 63be 3e71 84be
000000e0: 03f9 1f3f 3d01 d43e 7800 b13e 2957 0bbf
000000f0: 45e8 2fbf 84fe 47be 36b5 2f3f 5b4a 3a3e
00000100: e8a4 f5be 714a 2f3d b9f6 cebe 2194 61be
00000110: f772 cc3b 9647 df3e 6844 8f3d 2cb0 afbd
00000120: 4fed fb3d 832d 7fbe 57c9 ad3e b915 0b3e
00000130: 9f56 d83d d0fe bdbe 942c 373f 7d11 29be
00000140: bb74 4abd 28fe a63e 7b56 fe3e 8a26 443f
00000150: dabc ca3e d0b9 9abe 5873 ab3e 4ee1 103f
00000160: 155d fdbe a7bf a7bd a51c f3bd e718 5a3e
00000170: b503 8a3e 8e3b 21be 2a79 c6bd d65e e43e
00000180: ac2b bbbd d0c1 1cbf 59b8 8a3e faed ddbd
00000190: 36d6 a5be c0b0 063e a8e5 933d 1cec 5ebf
000001a0: 7532 c43e 409b b1be 1673 25be a92e 693e
000001b0: 067f 8fbe 7a8f 20be 6330 a9be 97ab 78be
000001c0: ad26 41be 8d48 a0be 207d 8e3e 9302 cfbe
000001d0: 300f 46be e219 253e 8281 043d 2107 a23e
000001e0: 2910 5fbe 7751 533e 1f84 d03e 5948 ef3e
000001f0: 896e 1fbf f4ec 8ebe 75a6 31bf 0aee 07bf

convs.0.lins.3.weight f4 [64, 2]
0.46554577 -0.23075409 0.38233346 -0.5181214 0.044036843 -0.38622928 0.37501743 -0.36212143
-0.110111274 -0.7080134 -0.036959607 0.6062948 0.31098503 -0.29231656 -0.14114463 -0.11330581
-0.5662324 0.7673502 0.02342254 0.15089484 -0.2573592 -0.4343144 0.50360703 0.23653144
0.10119966 -0.33698082 0.47822013 0.03625359 -0.34346735 -0.12626596 0.75216 -0.06704885
0.030835137 -0.34982947 -0.23728548 -0.7610303 -0.6047921 0.4415746 0.68493277 0.69193995
-0.48938757 0.41938326 -0.19614242 0.41976562 0.8214662 0.52127147 0.52970034 0.41217697
0.0046788766 0.2138286 -0.077569075 0.21174523 -0.13916163 -0.070406646 -0.6529246 -0.16727635
-0.39933786 -0.21681704 -0.48668566 -0.4627474 0.004587528 0.47474 0.39388433 0.20002818
-0.31372935 -0.64807385 0.27194172 0.35321838 -0.52377456 0.17207627 0.54641986 0.20929888
-0.49852306 0.69350815 0.27993914 0.48245472 -0.46567345 0.437548 -0.5529145 0.61757225
-0.2770298 -0.07687928 -0.06002189 0.2817377 -0.08286953 0.19017069 -0.26347172 -0.82681745
-0.06506316 0.49247426 -0.30682158 0.09429006 -0.5528373 0.46549857 0.25654516 0.10098565
-0.348107 -0.6024334 0.08355048 -0.35188848 0.8222158 -0.57593864 0.31945652 0.64970994
0.25510508 0.14349912 -0.5751345 0.71571594 -0.13051805 -0.6459125 0.5538597 -0.31023827
-0.014320649 0.49755773 -0.4655719 -0.41520265 0.027148427 -0.050607152 0.14599676 -0.6331039
0.31088573 -0.40135258 -0.27767077 -0.6393313 0.36407235 0.015959132 -0.62537277 0.50353986
00000000: 045c ee3e cd4a 6cbe 36c1 c33e 9ba3 04bf
00000010: fa5f 343d d8bf c5be 4902 c03e fb67 b9be
00000020: 0582 e1bd 5e40 35bf f562 17bd 2336 1b3f
00000030: 6e39 9f3e 84aa 95be 3888 10be e00c e8bd
00000040: 9bf4 10bf 1071 443f a0e0 bf3c 2d84 1a3e
00000050: 96c4 83be 755e debe 64ec 003f 4c35 723e
00000060: c441 cf3d c088 acbe 45d9 f43e a57e 143d
00000070: f4da afbe dd4b 01be 8f8d 403f e850 89bd
00000080: f899 fc3c d91c b3be f7fa 72be e2d2 42bf
00000090: a8d3 1abf 1116 e23e c157 2f3f fa22 313f
000000a0: 0291 fabe 67b9 d63e 8fd9 48be 85eb d63e
000000b0: 9c4b 523f 0c72 053f 719a 073f dc08 d33e
000000c0: 4351 993b e2f5 5a3e 89dc 9ebd bed3 583e
000000d0: 6380 0ebe 5c31 90bd 1126 27bf 7e4a 2bbe
000000e0: 0376 ccbe 4905 5ebe dd2e f9be 3aed ecbe
000000f0: f952 963b 1f11 f33e 35ab c93e 30d4 4c3e
00000100: 22a1 a0be 2be8 25bf f23b 8b3e 0ad9 b43e
00000110: 1716 06bf c334 303e 2ce2 0b3f 7252 563e
00000120: 6a3e ffbe c089 313f 2f54 8f3e 4e04 f73e
00000130: c06c eebe 4b06 e03e ce8b 0dbf 3719 1e3f
00000140: dad6 8dbe e272 9dbd 83d9 75bd ec3f 903e
00000150: 80b7 a9bd 1bbc 423e c4e5 86be 4faa 53bf
00000160: d63f 85bd 9625 fc3e b817 9dbe 261b c13d
00000170: bf86 0dbf d455 ee3e e359 833e 91d1 ce3d
00000180: 153b b2be 1339 1abf 841c ab3d ba2a b4be
00000190: bc7c 523f b770 13bf ce8f a33e 6453 263f
000001a0: 229d 823e 6ff1 123e 043c 13bf 2939 373f
000001b0: 86a6 05be 865a 25bf c0c9 0d3f 8dd7 9ebe
000001c0: 28a1 6abc e3bf fe3e 715f eebe 7195 d4be
000001d0: 6166 de3c 7249 4fbd 2d80 153e 1913 22bf
000001e0: 6a2c 9f3e 167e cdbe dd2a 8ebe 37ab 23bf
000001f0: b167 ba3e babc 823c 6e18 20bf fde7 003f

convs.0.lins.4.weight f4 [64, 2]
0.34167865 0.13865675 -0.35008803 0.35774222 0.63237673 0.50858605 -0.58856183 0.53807014
0.15148501 0.29002443 0.54792804 0.5276949 -0.68087006 0.71103907 -0.4139753 -0.0059761596
-0.23836508 -0.051832166 -0.29047087 0.006615307 0.07304354 0.05132486 0.9644538 0.43966046
0.3584658 0.3497735 0.30400738 0.19803138 -0.09667808 0.19881961 -0.5335831 -0.69596183
0.04261599 -0.21699378 0.3204031 -0.2420146 0.06017178 0.4785403 -0.09337101 0.54483587
0.65854996 -0.54718 -0.54220545 -0.6585074 -0.26399642 -0.3277818 0.12069372 -0.07916654
-0.09645402 -0.14662309 -0.18542917 0.5179235 -0.1881206 -0.65152746 0.47203004 -0.045610137
0.56267315 0.38678297 0.59710944 -0.124196015 0.34492108 0.6635029 -0.52567524 0.5973521
0.6723549 0.14723986 0.48551556 -0.38310868 -0.53087014 0.022265645 0.12537548 -0.44512266
0.28231516 -0.5306467 0.5147354 0.62231314 0.14895329 -0.48175403 0.48805466 0.006729307
0.27919248 -0.07755837 0.31686047 -0.28977063 0.019250808 0.16473489 -0.022061829 0.45881584
-0.090679325 -0.15897118 0.2421307 -0.18300354 0.4963816 0.057960726 -0.80006844 0.08783752
-0.16434895 0.09215989 -0.38556814 -0.5285523 -0.12745346 0.03117123 -0.34491315 0.45341524
-0.075384155 0.43720353 0.48545644 -0.5335861 0.31600642 0.66777533 -0.7157537 -0.35977185
0.8148847 0.3402194 -0.44667503 0.53178936 0.037577633 -0.5743239 -0.072860055 0.20095776
-0.00084718317 0.154753 -0.56451654 0.48223746 0.7188493 0.28984165 0.17984827 0.1682227
00000000: 81f0 ae3e 09fc 0d3e bd3e b3be fd29 b73e
00000010: 71e3 213f b232 023f fdab 16bf f7be 093f
00000020: e31e 1b3e 157e 943e 0345 0c3f 0317 073f
00000030: 804d 2ebf a806 363f 92f4 d3be a9d3 c3bb
00000040: fa15 74be f74d 54bd 99b8 94be 38c5 d83b
00000050: da97 953d 043a 523d 72e6 763f 2d1b e13e
00000060: d488 b73e 8315 b33e dba6 9b3e bdc8 4a3e
00000070: 28ff c5bd 5e97 4b3e e798 08bf 8e2a 32bf
00000080: 1b8e 2e3d 9e33 5ebe e00b a43e add2 77be
00000090: af76 763d 3c03 f53e 4d39 bfbd 5d7a 0b3f
000000a0: bb96 283f fd13 0cbf facd 0abf f193 28bf
000000b0: 8a2a 87be 04d3 a7be 452e f73d 1122 a2bd
000000c0: af89 c5bd 5d24 16be 25e1 3dbe a296 043f
000000d0: b0a2 40be 81ca 26bf ecad f13e b2d1 3abd
000000e0: 590b 103f 6b08 c63e 2adc 183f 7b5a febd
000000f0: 7f99 b03e 53db 293f a792 06bf 11ec 183f
00000100: 731f 2c3f 0cc6 163e 7f95 f83e d226 c4be
00000110: 1be7 07bf 7166 b63c 6e62 003e 1ee7 e3be
00000120: 9d8b 903e 76d8 07bf b3c5 033f ea4f 1f3f
00000130: 3687 183e 77a8 f6be 4de2 f93e 8581 dc3b
00000140: 51f2 8e3e ecd6 9ebd 893b a23e d15c 94be
00000150: dfb3 9d3c 43b0 283e 02bb b4bc e9e9 ea3e
00000160: 15b6 b9bd 57c9 22be 1cf1 773e 4865 3bbe
00000170: bb25 fe3e 3a68 6d3d 49d1 4cbf 28e4 b33d
00000180: 174b 28be 53be bc3d 3069 c5be 344f 07bf
00000190: 2983 02be cf5a ff3c 7598 b0be 0b26 e83e
000001a0: 0263 9abd 24d9 df3e bf8d f83e 1999 08bf
000001b0: 98cb a13e 53f3 2a3f a23b 37bf 0434 b8be
000001c0: 499c 503f 3d31 ae3e 97b2 e4be 5923 083f
000001d0: 01eb 193d e406 13bf a737 95bd dfc7 4d3e
000001e0: 8015 5eba 9277 1e3e 2884 10bf d4e7 f63e
000001f0: 8206 383f 2066 943e 252a 383e 9242 2c3e

convs.1.bias f4 [128]
-0.0117626395 -0.08000121 0.017066427 0.009416524 -0.12999283 0.015294198 0.007489781 0.03478118
-0.054923497 -0.036172807 0.011073856 0.015793692 -0.0008303669 0.0061634653 0.011378095 -0.041396037
-0.033371847 0.051953536 -0.10726647 -0.039359767 -0.00800611 0.005353669 -0.0028679413 0.030921148
-0.009377659 0.035006225 -0.023376456 0.019369978 -0.0031715077 -0.006099325 -0.084608994 -0.027642112
0.012450527 0.00057020073 0.010858494 -0.0037943441 0.0017981288 -0.0012861567 -0.05756067 -0.0055333376
0.004069568 -0.013374671 0.027139323 -0.012319218 0.09042059 0.03441366 -0.020329269 -0.005489434
-0.009178398 0.0044710967 0.06557934 -0.0214864 0.019527024 0.0225887 0.024914758 -0.014225989
-0.055211503 0.050121777 -0.0527892 0.009245466 -0.022327542 0.0077150837 -0.021323398 0.02034101
0.0006102046 -0.028775664 -0.012846312 0.002202744 0.019945292 -0.038188025 0.0011685854 0.0035303552
-0.08576901 -0.011986259 0.00053117465 0.06512987 -0.041705783 -0.006017666 0.060342923 0.030297024
-0.082895674 -0.15886676 0.009488721 0.032369033 0.016745513 0.042286277 -0.0074895197 0.023194965
-0.019095946 -0.015517572 -0.0114302095 -0.102173746 0.01770567 0.009024887 0.061638348 0.019086054
0.010716189 0.004262492 -0.0020627012 -0.094702356 0.012518556 0.005449489 -0.012849348 0.010353658
-0.014030661 0.04858378 -0.01754825 -0.02112205 0.0016643943 -0.033573747 0.008764449 -0.0010351567
0.0026207387 -0.03241483 0.0141827995 -0.042287808 0.034935698 0.0038683058 0.04111183 0.0077745235
-0.05580702 0.0034320026 -0.007743656 -0.0043290295 -0.04929373 0.014218284 -0.011844627 -0.07743581
00000000: 16b8 40bc add7 a3bd e4ce 8b3c c447 1a3c
00000010: d71c 05be 8494 7a3c d66c f53b b676 0e3d
00000020: 76f7 60bd f029 14bd 1e6f 353c c661 813c
00000030: fbac 59ba e5f6 c93b 306b 3a3c e48e 29bd
00000040: ebb0 08bd 3bcd 543d 86ae dbbd b537 21bd
00000050: 0f2c 03bc d56d af3b 12f4 3bbb 594e fd3c
00000060: c1a4 19bc b062 0f3d fb7f bfbc caad 9e3c
00000070: 12d9 4fbb d9dc c7bb 7b47 adbd b671 e2bc
00000080: 4cfd 4b3c 8679 153a d3e7 313c 88aa 78bb
00000090: 31af eb3a 4294 a8ba bdc4 6bbd 0051 b5bb
000000a0: 035a 853b 7021 5bbc 4953 de3c 8cd6 49bc
000000b0: 6e2e b93d 57f5 0c3d 9189 a6bc b6e0 b3bb
000000c0: fe60 16bc 4782 923b 764e 863d 3f04 b0bc
000000d0: 23f7 9f3c f00b b93c 091a cc3c 1f14 69bc
000000e0: 7525 62bd 7e4c 4d3d 7d39 58bd 4c7a 173c
000000f0: 40e8 b6bc d0ce fc3b 68ae aebc 31a2 a63c
00000100: 23f6 1f3a f1ba ebbc 5679 52bc e95b 103b
00000110: 4f64 a33c 0c6b 1cbd 382b 993a 885d 673b
00000120: aaa7 afbd 0462 44bc 873e 0b3a cf62 853d
00000130: afd3 2abd d72f c5bb 242a 773d 7731 f83c
00000140: 35c5 a9bd f8ad 22be 9576 1b3c 6495 043d
00000150: e32d 893c 6034 2d3d a56a f5bb 5e03 be3c
00000160: 1a6f 9cbc 6a3d 7ebc c645 3bbc 7840 d1bd
00000170: 7b0b 913c 1fdd 133c 7e78 7c3d 5b5a 9c3c
00000180: f492 2f3c 60ac 8b3b 622e 07bb 4ff3 c1bd
00000190: a11a 4d3c a191 b23b 1286 52bc 64a2 293c
000001a0: dce0 65bc c9ff 463d 59c1 8fbc 2608 adbc
000001b0: ce27 da3a a084 09bd c398 0f3c 18ae 87ba
000001c0: b3c0 2b3b 6ac5 04bd f95e 683c fb35 2dbd
000001d0: bc18 0f3d 6783 7d3b e164 283d 6ec1 fe3b
000001e0: e795 64bd 73eb 603b 7fbe fdbb 88da 8dbb
000001f0: 39e8 49bd cef3 683c f70f 42bc aa96 9ebd

convs.1.lins.0.weight f4 [128, 64]
-0.054137584 -0.0062919725 0.10248802 -0.0029382394 0.06837737 -0.058828633 -0.024046456 0.12659031
-0.0021301734 0.012810042 0.062066816 -0.009241017 0.10578398 0.1368001 -0.097498216 -0.072733
-0.10606263 0.05795434 -0.025551477 -0.112211615 0.14329064 -0.043190196 -0.020322833 -0.09707346
0.061726093 -0.054433756 0.10452137 -0.0517206 0.02568937 0.09901758 -0.07905873 0.12386505
0.058982894 0.17223978 0.03382059 -0.03533211 -0.094459146 -0.055087537 -0.010679251 -0.017174331
0.010862315 -0.03741891 0.054703694 -0.07034714 -0.07527054 0.04834243 -0.09121194 0.08479518
-0.0046061357 -0.050251998 0.13433765 -0.068084724 0.032782026 -0.038524114 -0.059853535 -0.022011025
0.023384012 -0.0033813387 0.020182617 -0.08855035 0.11810774 0.027324669 0.00869941 -0.03445469
0.0840227 0.07332854 0.048453826 0.10908309 0.09265683 0.029544072 0.16089778 0.11438967
-0.17087863 0.055759206 -0.19377853 0.050927788 -0.08350818 -0.06421039 0.06891932 0.12029376
0.082972795 -0.006823035 0.13397455 -0.027537782 0.038368683 0.13309033 0.12965828 -0.0033274419
-0.053746752 -0.006982759 -0.040771563 0.078142606 -0.021686401 0.09611695 -0.13532947 0.061063457
-0.05173336 0.14343381 -0.09780577 0.055132583 0.014336302 0.13723132 -0.09375867 -0.039207254
-0.0043647564 -0.09583517 -0.0012953854 0.0678102 0.003427707 -0.15594088 0.08130391 -0.023551395
-0.006035074 -0.07438648 -0.045656733 -0.043467328 0.07263386 0.01376558 -0.012293055 0.05381732
0.013949962 -0.12892303 -0.2157489 0.06792589 0.002265122 -0.048555676 -0.16852438 0.017619433
-0.028654618 -0.08002638 -0.008483622 -0.09975472 -0.0008113361 -0.05293181 0.13570336 -0.049371764
-0.010916765 0.010778896 -0.073686674 -0.0011552018 0.062104624 -0.045138765 -0.04624589 -0.07341695
-0.112935334 -0.060175896 0.1475331 0.088314675 -0.10644341 0.15631813 0.013078778 0.06542353
-0.081429996 -0.023668125 0.03321191 -0.00743033 0.11814687 0.016091183 -0.08860566 0.11702945
0.021266803 0.016983995 -0.07262421 0.025353914 0.11192687 0.08549392 0.020256333 -0.025340224
-0.031411152 0.002718981 0.004088601 0.078718506 -0.09226539 0.09151426 0.07155886 -0.02740991
-0.061292242 0.043097794 -0.035404585 0.06748664 0.039274707 -0.04586088 -0.08714159 0.034609396
-0.016816033 0.07909621 -0.10601603 0.099181674 0.00480023 -0.028889744 -0.049274243 -0.030172395
0.021214914 0.055817906 0.050480705 -0.007796615 0.0002658484 0.10036396 -0.12598166 -0.06889296
-0.10686102 -0.1042216 -0.10161584 0.07549879 0.026896412 -0.048693746 -0.00014865943 -0.15011886
-0.06979956 -0.009816849 -0.12982969 -0.07447328 0.0065010227 0.10031972 -0.0068897475 0.024192158
-0.10695327 0.09492517 0.03253437 0.06789033 -0.10508621 -0.08762139 0.018468024 -0.055690918
-0.04614043 -0.15964802 0.06374094 0.12833305 0.078982055 0.09911204 0.09668162 -0.06330343
0.026564023 0.057388205 0.035731766 -0.0837407 -0.07468607 -0.06641832 -0.15829259 0.10035587
0.041965023 -0.0060989126 0.08424402 -0.11775561 0.1697059 -0.03241172 -0.0014387823 -0.058477808
0.058289886 -0.058772042 0.05547922 -0.09613947 0.04007393 -0.027257957 -0.024907328 0.09256564
00000000: 5fbf 5dbd e42c cebb 3de5 d13d 7a8f 40bb
00000010: 6f09 8c3d 4bf6 70bd 13fd c4bc e4a0 013e
00000020: 619a 0bbb 36e1 513c c639 7e3d a267 17bc
00000030: 45a5 d83d 5315 0c3e 25ad c7bd 0af5 94bd
00000040: 5d37 d9bd 8861 6d3d 5551 d1bc 34cf e5bd
00000050: c8ba 123e 34e8 30bd 127c a6bc 73ce c6bd
00000060: 80d4 7c3d eef5 5ebd 4d0f d63d fbd8 53bd
00000070: 8472 d23c bbc9 ca3d 8be9 a1bd f6ac fd3d
00000080: 0c98 713d a05f 303e 7587 0a3d 67b8 10bd
00000090: cc73 c1bd 78a3 61bd 06f8 2ebc 2fb1 8cbc
000000a0: daf7 313c 9244 19bd fb10 603d 2912 90bd
000000b0: 7127 9abd b602 463d 53cd babd 18a9 ad3d
000000c0: 11ef 96bb 0ad5 4dbd cf8f 093e 0170 8bbd
000000d0: 7246 063d 76cb 1dbd fb28 75bd 7750 b4bc
000000e0: d48f bf3c 7399 5dbb 0456 a53c e359 b5bd
000000f0: 79e2 f13d fcd7 df3c f887 0e3c 5c20 0dbd
00000100: 1814 ac3d 462d 963d 8577 463d f566 df3d
00000110: ddc2 bd3d 6906 f23c 63c2 243e 2245 ea3d
00000120: cffa 2ebe c463 643d e16d 46be a899 503d
00000130: 5606 abbd bd80 83bd 9325 8d3d 935c f63d
00000140: a4ed a93d c493 dfbb a030 093e ea96 e1bc
00000150: 7b28 1d3d d548 083e 24c5 043e 3611 5abb
00000160: 8e25 5cbd a1cf e4bb 1500 27bd 3b09 a03d
00000170: aea7 b1bc f7d8 c43d cf93 0abe ad1d 7a3d
00000180: 5ce6 53bd 50e0 123e 644e c8bd b4d2 613d
00000190: cfe2 6a3c 5e86 0c3e 8c04 c0bd c997 20bd
000001a0: 3b06 8fbb 3b45 c4bd ecc9 a9ba 13e0 8a3d
000001b0: 61a3 603b f7ae 1fbe aa82 a63d dbee c0bc
000001c0: dfc1 c5bb f057 98bd 8e02 3bbd cc0a 32bd
000001d0: 10c1 943d 0789 613c cf68 49bc 8d6f 5c3d
000001e0: 628e 643c 6604 04be 48ed 5cbe bb1c 8b3d
000001f0: 7172 143b 51e2 46bd a891 2cbe a156 903c
00000200: 17bd eabc dfe4 a3bd e4fe 0abc 344c ccbd
00000210: d8af 54ba 07cf 58bd d2f5 0a3e 0c3a 4abd
00000220: 3bdc 32bc f799 303c 0ae9 96bd 246a 97ba
00000230: 6b61 7e3d 6de3 38bd 556c 3dbd a05b 96bd
00000240: a44a e7bd 007b 76bd eb12 173e 53de b43d
00000250: 01ff d9bd dc11 203e 5f48 563c c6fc 853d
00000260: c5c4 a6bd a8e3 c1bc 3609 083d 207a f3bb
00000270: fcf6 f13d a8d1 833c e276 b5bd 23ad ef3d
00000280: b837 ae3c 0522 8b3c 00bc 94bd 03b3 cf3c
00000290: ea39 e53d 7017 af3d 9cf0 a53c 4d96 cfbc
000002a0: fba8 00bd ee30 323b acf9 853b 2b37 a13d
000002b0: a3f5 bcbd d46b bb3d 748d 923d bf8a e0bc
000002c0: 930d 7bbd 5087 303d 6604 11bd 6f36 8a3d
000002d0: 84de 203d 9ed8 3bbd 4a77 b2bd 95c2 0d3d
000002e0: c7c1 89bc 32fd a13d ef1e d9bd c31f cb3d
000002f0: 3f4b 9d3b 2faa ecbc cad3 49bd 192c f7bc
00000300: e6ca ad3c 51a1 643d dbc4 4e3d bf7a ffbb
00000310: 9161 8b39 9f8b cd3d 5601 01be c117 8dbd
00000320: f3d9 dabd 2272 d5bd f71b d0bd 1c9f 9a3d
00000330: dd55 dc3c 1873 47bd 76e1 1bb9 c2b8 19be
00000340: 12f3 8ebd d9d6 20bc 13f2 04be 7285 98bd
00000350: 8806 d53b 6d74 cd3d 64c3 e1bb a22e c63c
00000360: 510a dbbd 2168 c23d c242 053d 160a 8b3d
00000370: 7037 d7bd d872 b3bd 414a 973c 291c 64bd
00000380: bffd 3cbd c57a 23be 9c8a 823d bd69 033e
00000390: 58c1 a13d 41fb ca3d 0301 c63d 3ba5 81bd
000003a0: cb9c d93c e50f 6b3d 795b 123d 3e80 abbd
000003b0: 03f5 98bd 5406 88bd 7417 22be 6187 cd3d
000003c0: 84e3 2b3d 63d9 c7bb 2188 ac3d da29 f1bd
000003d0: 62c7 2d3e 27c2 04bd 8695 bcba 6d86 6fbd
000003e0: 60c1 6e3d f4ba 70bd 2e3e 633d c5e4 c4bd
000003f0: 9024 243d 144c dfbc 740a ccbc 0e93 bd3d

convs.1.lins.1.weight f4 [128, 64]
-0.016639506 -0.10650565 -0.06553295 0.010931276 -0.10547214 0.024651695 -0.061922584 -0.1064947
-0.12952088 -0.07156282 -0.11594042 0.023885058 0.024303969 0.08995776 -0.039182246 0.0376328
-0.13026384 -0.012999528 0.047725238 -0.024499826 -0.09210169 -0.07481097 -0.025910508 0.0687008
0.014462035 -0.09781535 -0.052298427 -0.01131977 -0.0020723832 0.07763753 0.06560443 0.056488674
-0.074444816 -0.046878025 0.13286391 0.082938656 0.009972377 0.07993353 -0.08359442 -0.14102392
0.008673559 0.00673213 0.04614149 -0.100894146 0.085295364 -0.0829982 0.06966432 -0.048112072
0.0707978 0.038895354 0.09025045 -0.043746088 -0.17881355 -0.09044664 -0.10019827 -0.0479963
-0.115911566 0.08960416 -0.13793519 -0.07019824 -0.029348003 -0.026672788 -0.049172893 -0.119643494
-0.2520708 -0.08103847 -0.17106405 -0.10184555 -0.13870156 -0.14317834 -0.050087746 0.18976256
-0.030680135 -0.08602817 -0.17558095 -0.16688973 -0.14184453 -0.106624216 0.028222727 0.14813983
-0.079825416 -0.024760086 -0.01105614 -0.12504944 -0.013828512 0.029973876 -0.048861805 -0.048727863
-0.14096133 -0.17787671 -0.056753397 -0.09893082 -0.11646743 -0.0056233057 -0.13039221 -0.12369464
0.1120485 0.04052589 0.048808016 -0.06774944 -0.0764626 -0.013035012 -0.028177237 -0.06311691
0.10492836 -0.12765002 -0.18732446 0.06367398 0.08418446 -0.19497631 -0.027816381 -0.024072573
-0.07307953 -0.16023006 0.06260769 0.012588158 -0.16077283 0.07256522 0.0083924085 -0.15877506
-0.27463084 0.025594564 0.035567783 0.0048267655 0.1157325 -0.08708967 -0.10625385 0.01929305
-0.019694053 -0.062494356 -0.118821464 0.019684615 0.009083201 0.00406929 -0.06873891 0.07389216
-0.01219194 -0.079650424 -0.055850618 0.04683984 -0.113964275 0.001391578 -0.045962412 0.027362466
0.008282083 0.054571055 -0.051066708 -0.04452743 -0.005212972 -0.08094905 0.03605713 -0.034659687
0.007405412 0.08449909 -0.10375455 0.052907016 -0.0006112958 -0.10107203 0.0954613 -0.025383167
-0.12545528 -0.07543285 -0.012471536 -0.14483838 -0.0013512153 0.02487278 -0.12849529 0.058590677
0.034629036 0.06507859 0.115591876 -0.02603677 -0.03337871 -0.09825734 -0.09274756 -0.012396221
0.045500774 0.06254949 0.030876527 -0.014998554 0.0059630335 0.062337503 0.07804057 0.071426384
-0.06395239 -0.03214675 -0.0070847115 -0.027119003 -0.12890178 0.099191844 0.05985788 0.093369946
-0.00089002814 0.14466128 0.0033152667 -0.017521422 0.030475484 0.046850126 0.017180743 -0.020116454
-0.011182673 -0.040767666 -0.0017964345 0.040689886 0.014223453 -0.089004666 -0.035244696 -0.044221938
0.07820279 0.07495502 -0.063956566 0.009988886 0.06513974 -0.11600667 -0.08634287 -0.043308776
0.057890743 0.0010642171 0.0755393 0.016950892 -0.08572647 -0.04038308 0.061571892 0.07100653
0.04723788 -0.035519924 -0.055371325 0.057305723 0.05327033 -0.044105187 0.11451521 0.0076258597
-0.022234865 0.024923205 -0.03730052 -0.018362481 -0.0240084 -0.055382878 -0.013607307 0.07199321
0.056618363 -0.052898377 0.014060738 0.09012939 -0.048140123 -0.008603724 -0.034718834 -0.0822322
-0.0440292 0.084147125 0.2038463 0.04206541 -0.115901336 -0.025724322 -0.024805972 0.04827611
00000000: 934f 88bc a21f dabd 2436 86bd 1819 333c
00000010: c701 d8bd 5af2 c93c 89a2 7dbd e519 dabd
00000020: 1fa1 04be 878f 92bd 2c72 edbd 99aa c33c
00000030: 1e19 c73c c63b b83d 907d 20bd da24 1a3d
00000040: e263 05be f9fb 54bc 8a7b 433d dcb3 c8bc
00000050: d09f bcbd 7e36 99bd 4642 d4bc 01b3 8c3d
00000060: 2cf2 6c3c 6a53 c8bd e036 56bd 8e76 39bc
00000070: d2d0 07bb 6d00 9f3d 9e5b 863d ab60 673d
00000080: 8676 98bd 2c03 40bd 7a0d 083e bedb a93d
00000090: 2e63 233c 31b4 a33d 8d33 abbd 9368 10be
000000a0: 8b1b 0e3c 3399 dc3b dcfe 3c3d 97a1 cebd
000000b0: 56af ae3d f6fa a9bd 2bac 8e3d 2a11 45bd
000000c0: 70fe 903d bc50 1f3d 3ad5 b83d 192f 33bd
000000d0: e61a 37be 173c b9bd c034 cdbd c597 44bd
000000e0: 0b63 edbd 6382 b73d e23e 0dbe 18c4 8fbd
000000f0: 396b f0bc e480 dabc 8469 49bd a607 f5bd
00000100: 6d0f 81be 7ff7 a5bd 6a2b 2fbe 6694 d0bd
00000110: c807 0ebe 589d 12be cf28 4dbd 1e51 423e
00000120: e854 fbbc 8a2f b0bd 7ecb 33be 24e5 2abe
00000130: b13f 11be cc5d dabd 5933 e73c f8b1 173e
00000140: 827b a3bd aad5 cabc d024 35bc f60c 00be
00000150: fc90 62bc c68b f53c 5123 48bd de96 47bd
00000160: 2b58 10be 5025 36be 4076 68bd 3e9c cabd
00000170: 7a86 eebd b543 b8bb 8985 05be 9e53 fdbd
00000180: af79 e53d 7afe 253d eaea 473d 38c0 8abd
00000190: 6c98 9cbd ce90 55bc f3d3 e6bc 7043 81bd
000001a0: aee4 d63d b0b6 02be fcd1 3fbe 8167 823d
000001b0: e768 ac3d dfa7 47be 2edf e3bc d833 c5bc
000001c0: b8aa 95bd 5913 24be 7638 803d 903e 4e3c
000001d0: a2a1 24be 139d 943d 5080 093c ee95 22be
000001e0: 6a9c 8cbe b1ab d13c 86af 113d d829 9e3b
000001f0: 2905 ed3d 125c b2bd 9e9b d9bd 750c 9e3c
00000200: 6c55 a1bc 15fa 7fbd ab58 f3bd a141 a13c
00000210: b5d1 143c ae57 853b fcc6 8cbd c654 973d
00000220: b4c0 47bc c31f a3bd 9ec3 64bd 22db 3f3d
00000230: 1a66 e9bd 9c65 b63a 1543 3cbd 4027 e03c
00000240: 93b1 073c e685 5f3d 532b 51bd 6562 36bd
00000250: 94d1 aabb 9ec8 a5bd a4b0 133d 51f7 0dbd
00000260: 19a9 f23b dc0d ad3d 447d d4bd 07b5 583d
00000270: 5e3f 20ba dafe cebd 3781 c33d 5cf0 cfbc
00000280: 5977 00be 8a7c 9abd 6a55 4cbc 8350 14be
00000290: 431b b1ba 00c2 cb3c 4594 03be c7fc 6f3d
000002a0: 2dd7 0d3d ec47 853d 6fbb ec3d 104b d5bc
000002b0: 1db8 08bd 253b c9bd 6ff2 bdbd 8519 4bbc
000002c0: 055f 3a3d f219 803d c5f0 fc3c 7fbc 75bc
000002d0: 8d65 c33b 9c55 7f3d bcd3 9f3d ff47 923d
000002e0: 78f9 82bd 4fac 03bd de26 e8bb ac28 debc
000002f0: d4fe 03be 1825 cb3d 892d 753d be38 bf3d
00000300: c750 69ba 1622 143e f244 593b 1689 8fbc
00000310: b9a7 f93c ebe5 3f3d a1be 8c3c 43cb a4bc
00000320: 8837 37bc fffb 26bd 5776 ebba 70aa 263d
00000330: 7c09 693c 1448 b6bd be5c 10bd 1022 35bd
00000340: c928 a03d 0482 993d a9fb 82bd 6da8 233c
00000350: fc67 853d e894 edbd 88d4 b0bd 8b64 31bd
00000360: d81e 6d3d 337d 8b3a 59b4 9a3d 99dc 8a3c
00000370: 5c91 afbd ba68 25bd cf32 7c3d df6b 913d
00000380: 827c 413d 577d 11bd 0bcd 62bd 68b9 6a3d
00000390: fd31 5a3d a4a7 34bd f386 ea3d 59e2 f93b
000003a0: e425 b6bc c02b cc3c 6ec8 18bd ea6c 96bc
000003b0: 44ad c4bc 28d9 62bd 2ff1 5ebc 2d71 933d
000003c0: a8e8 673d f8ab 58bd 025f 663c c295 b83d
000003d0: 942e 45bd a2f6 0cbc 5635 0ebd 5b69 a8bd
000003e0: f657 34bd 5455 ac3d 16bd 503e c84c 2c3d
000003f0: ae5d edbd d0bb d2bc e535 cbbc 2cbd 453d

convs.1.lins.2.weight f4 [128, 64]
0.020640953 -0.06253908 -0.00792086 -0.007754292 -0.055000633 -0.10129024 -0.08230138 -0.041635737
0.06487534 -0.13109453 -0.021288069 -0.013598728 -0.05310066 -0.0048837797 0.10636154 0.08523009
-0.01688209 -0.14976345 -0.009835108 -0.039370663 -0.11110778 0.14043403 -0.010932849 0.057122
-0.06478491 -0.08789119 0.14747316 -0.13744041 0.06096242 -0.025970075 0.024234764 -0.06659789
0.021295285 0.06961945 -0.03454919 0.05451675 -0.031394247 -0.052743807 0.037452705 0.10849062
-0.05607448 0.021924252 -0.02758178 0.07500148 0.06323279 -0.03702608 0.094362736 -0.02612223
0.096041024 -0.041713003 0.022853972 -0.047643647 -0.010179039 0.057713438 0.11467446 0.11982471
0.022929143 -0.06693308 -0.06958104 -0.0035689862 -0.08727059 -0.105391294 0.030049847 0.111196905
0.003906844 -0.038304765 0.00280936 -0.1545821 -0.054326214 -0.04270809 -0.13680482 0.0013016093
0.014250962 -0.046100367 0.138754 -0.04097934 -0.12254374 -0.023399241 0.07794578 0.039252408
-0.12921152 -0.10686124 -0.056843944 -0.013944881 0.035055913 -0.0064727953 -0.07368552 0.1407754
0.046862 -0.15301082 -0.02895581 -0.061420843 -0.15175466 -0.017691333 -0.12096786 0.072077855
0.020935489 0.025903571 -0.109497584 0.09871668 -0.15015678 -0.12453506 -0.053008493 -0.13986354
0.02794278 -0.06708932 -0.10242166 0.08014072 -0.0063210083 0.053712226 -0.12574606 0.020324377
0.07237076 -0.119881876 0.04658981 -0.010265107 -0.06217137 0.10613571 0.03905855 -0.10820359
0.16225229 -0.047211166 0.2125502 -0.048768513 0.16524825 0.08767808 0.0050352872 -0.07572368
-0.018251225 0.024149444 -0.1110972 -0.05707125 -0.04224869 -0.11711642 -0.04402606 -0.118705556
-0.076648936 -0.029216236 0.12540656 0.0106304055 -0.021916967 -0.012046226 -0.08074772 0.09588092
-0.07468886 -0.0119918585 0.08572538 0.055236038 0.089598484 -0.094360925 -0.098243035 -0.07617668
0.07704588 0.11334019 0.048412763 0.10072046 -0.10376308 0.0029709428 -0.031991027 0.009493865
0.0682463 0.10571812 -0.028690742 0.010818061 -0.058352437 0.11554348 0.015488903 0.041028515
-0.036021464 0.007313197 0.068873815 -0.038804963 -0.07487902 -0.050705295 -0.03481035 0.0020754165
0.045159206 0.1058513 -0.013310551 -0.11679386 0.017284311 -0.00023869707 0.02055786 0.0155950375
-0.13152349 0.099980965 0.05537277 -0.036219817 -0.10262126 0.111944966 -0.07037141 0.034942713
-0.07972622 -0.07221887 0.13993917 0.008347073 0.090894595 -0.020094888 -0.010144037 -0.0058363876
-0.06459869 0.03793975 0.033022437 -0.11616682 0.02131934 0.045673616 -0.027644495 -0.12558043
-0.035011057 0.065280594 0.069951154 -0.088492475 0.05791283 0.016704043 -0.025216235 -0.054768004
0.11212656 0.013095773 -0.05586091 -0.12521231 -0.10188637 0.073506236 -0.0012773955 -0.0788369
0.051454443 0.028881896 0.11660737 -0.06393298 0.10730189 -0.017390251 0.056422267 0.1031514
0.044225987 0.12307065 0.005031933 0.032764453 0.06753104 -0.13487956 0.13378656 -0.086847536
-0.097729266 0.06092369 -0.047263198 0.07616829 0.027568826 0.030295428 0.0013438469 -0.10789922
-0.008882501 0.059382576 0.08118495 -0.021435957 0.12863511 -0.014704767 0.05460762 -0.010620226
00000000: 3717 a93c 7d14 80bd 7fc6 01bc b717 febb
00000010: 5848 61bd 4271 cfbd a08d a8bd 3c8a 2abd
00000020: 5ddd 843d a53d 06be 5164 aebc 33cd 5ebc
00000030: 1480 59bd 1d08 a0bb 14d4 d93d 1d8d ae3d
00000040: 4f4c 8abc 975b 19be 6f23 21bc 2243 21bd
00000050: 7a8c e3bd f0cd 0f3e b11f 33bc c2f8 693d
00000060: f3ad 84bd 4c00 b4bd 3403 173e 2ebd 0cbe
00000070: bbb3 793d 32bf d4bc fc87 c63c 7964 88bd
00000080: 7373 ae3c a494 8e3d 7483 0dbd f54c 5f3d
00000090: 4197 00bd e409 58bd 0268 193d 5530 de3d
000000a0: 5bae 65bd 7d9a b33c 2ff3 e1bc 609a 993d
000000b0: 3180 813d a9a8 17bd 4041 c13d 49fe d5bc
000000c0: 28b1 c43d 41db 2abd 4138 bb3c fc25 43bd
000000d0: fcc5 26bc ed64 6c3d 71da ea3d a866 f53d
000000e0: e6d5 bb3c 3614 89bd 8180 8ebd a7e5 69bb
000000f0: ecba b2bd 64d7 d7bd 192b f63c 34bb e33d
00000100: fc04 803b 75e5 1cbd 3d1d 383b c54a 1ebe
00000110: 2a85 5ebd aeee 2ebd 9016 0cbe c39a aa3a
00000120: de7c 693c bdd3 3cbd 8715 0e3e f4d9 27bd
00000130: 36f8 fabd c4af bfbc 09a2 9f3d 22c7 203d
00000140: 0650 04be 11da dabd 32d5 68bd 1279 64bc
00000150: ca96 0f3d be19 d4bb 6fe8 96bd 6d27 103e
00000160: 5ef2 3f3d deae 1cbe bc34 edbc 6c94 7bbd
00000170: 9365 1bbe 6aed 90bc ffbd f7bd 8e9d 933d
00000180: e780 ab3c ba33 d43c 4540 e0bd f92b ca3d
00000190: b3c2 19be 3d0c ffbd 6f1f 59bd 6338 0fbe
000001a0: 42e8 e43c 2066 89bd 73c2 d1bd d120 a43d
000001b0: 7620 cfbb 5a01 5c3d 93c3 00be 4f7f a63c
000001c0: 1f37 943d a184 f5bd f5d4 3e3d fb2e 28bc
000001d0: 68a7 7ebd ae5d d93d dcfb 1f3d d899 ddbd
000001e0: 7725 263e 7f60 41bd c2a6 593e 7ec1 47bd
000001f0: d636 293e 9190 b33d 0dff a43b 0415 9bbd
00000200: 9883 95bc 0ed5 c53c ee86 e3bd 8bc3 69bd
00000210: f60c 2dbd bcda efbd ab54 34bd e61b f3bd
00000220: 1efa 9cbd e356 efbc 946a 003e 272b 2e3c
00000230: 368b b3bc 895d 45bc 105f a5bd 375d c43d
00000240: 79f6 98bd 8079 44bc ca90 af3d 2f3f 623d
00000250: 697f b73d 4d40 c1bd a533 c9bd 8502 9cbd
00000260: 3bca 9d3d e71e e83d 764c 463d 8746 ce3d
00000270: bd81 d4bd 26b4 423b 0609 03bd 288c 1b3c
00000280: b7c4 8b3d be82 d83d d908 ebbc 3d3e 313c
00000290: f702 6fbd 0fa2 ec3d 2bc5 7d3c 840d 283d
000002a0: 3e8b 13bd 8ba3 ef3b b70d 8d3d f4f1 1ebd
000002b0: 2c5a 99bd 5bb0 4fbd 4c95 0ebd b603 083b
000002c0: dcf8 383d 91c8 d83d 7f14 5abc 9f31 efbd
000002d0: d497 8d3c c24a 7ab9 f568 a83c 5482 7f3c
000002e0: 18ae 06be d2c2 cc3d 8fce 623d 3b5b 14bd
000002f0: 182b d2bd 6743 e53d e31e 90bd 1720 0f3d
00000300: 8047 a3bd 7de7 93bd 374c 0f3e 29c2 083c
00000310: f226 ba3d 099e a4bc 2d33 26bc 2b3f bfbb
00000320: 514c 84bd b666 1b3d 8942 073d dfe8 edbd
00000330: e6a5 ae3c 4214 3b3d b576 e2bc 2898 00be
00000340: c167 0fbd d5b1 853d 8d42 8f3d 8b3b b5bd
00000350: 0136 6d3d ebd6 883c 4792 cebc 6a54 60bd
00000360: 9ca2 e53d a78f 563c 69ce 64bd a837 00be
00000370: cda9 d0bd 708a 963d 486e a7ba 3e75 a1bd
00000380: e5c1 523d ba99 ec3c d8cf ee3d 4bef 82bd
00000390: 18c1 db3d 0076 8ebc 091b 673d 0b41 d33d
000003a0: 4f26 353d 770c fc3d eae2 a43b 0534 063d
000003b0: b74d 8a3d de1d 0abe 58ff 083e 1fdd b1bd
000003c0: 4826 c8bd 1f8b 793d 0e97 41bd 1ffe 9b3d
000003d0: 05d8 e13c 1e2e f83c 0524 b03a 44fa dcbd
000003e0: e987 11bc 253b 733d 4c44 a63d 769a afbc
000003f0: ecb8 033e 43ec 70bc 3dac 5f3d 7500 2ebc

convs.1.lins.3.weight f4 [128, 64]
0.042244386 0.11752992 -0.11517938 -0.16313529 -0.13986069 -0.06395156 -0.14398232 0.0460847
0.01570758 0.07663519 0.0726396 0.069806255 -0.051075906 -0.08456011 0.10185918 -0.06525899
0.1040485 -0.122022495 -0.038063135 -0.089247875 -0.03534282 -0.09706461 -0.0040366887 -0.11871364
0.13514166 -0.12333656 -0.011017885 0.069201 0.047639042 -0.081914775 -0.050718818 -0.044204216
0.030437168 -0.06509284 0.015881354 -0.10469273 -0.08718794 0.05158348 0.07936018 -0.14122069
0.020529954 0.0638176 0.012398841 0.06099214 0.028535852 0.10485406 -0.04882783 0.047809683
0.011183522 -0.08987562 -0.079669185 0.09245991 0.014369556 -0.09234241 -0.07591509 0.091653995
0.07922731 -0.08918413 -0.049848616 0.050063275 -0.064503156 0.006155916 0.012070773 0.1272155
-0.06708585 0.26919928 -0.117407575 0.009684455 -0.12332793 -0.18911225 -0.019557182 -0.09203914
-0.13541768 0.0771254 0.13585204 0.07370813 0.022620458 -0.03653589 0.042540133 0.058527295
-0.09068707 0.0048886375 -0.14529288 0.109310664 0.019260554 0.039108027 -0.10405519 0.065252
0.12083461 -0.08102593 0.18608049 -0.1395455 -0.113080725 0.17314485 0.002416602 0.1972019
-0.06050026 0.12467381 0.010278699 0.012116076 0.0005800061 -0.112013854 -0.17234313 -0.09715342
0.35267556 0.050688412 -0.07057811 0.015820077 0.085377686 0.2434809 -0.23640436 0.21390302
0.084104985 0.013403362 0.039824 0.095776096 -0.049218986 0.028974673 0.021060115 0.12743379
0.20748493 0.10952283 0.2452605 0.08668721 0.11072485 -0.033326875 -0.082726 0.09530161
-0.07543924 -0.07322967 0.0364463 -0.108169325 -0.005232433 0.11588253 -0.10968063 -0.08781581
0.08171734 -0.11447766 0.0012472817 -0.047730573 0.07965934 -0.038279664 0.036526788 0.10284101
0.03283598 0.0055473954 -0.042953406 -0.10534323 0.07193399 -0.11398553 -0.09943756 0.033854455
-0.001737675 -0.012089628 -0.10444346 -0.07781212 -0.0031130293 -0.06003229 0.021305036 0.11703669
-0.041168366 0.10778333 -0.054778233 0.04782373 -0.058960263 -0.012563514 -0.0071781925 0.076040745
0.021206949 -0.09958219 0.041786797 -0.10021388 -0.09209478 -0.07118525 0.0035343738 0.049581528
0.026213558 0.10376752 0.05413329 -0.090287186 0.074896835 0.06251961 0.03894383 0.055439375
-0.043345027 -0.049638215 -0.08014545 -0.08046626 -0.08896598 0.00540604 0.08712506 -0.10716695
-0.030332958 0.060985398 0.07532727 0.026910158 0.017376345 0.0047889054 0.1417957 -0.031454008
-0.09220137 0.07078368 0.034954023 -0.09239181 -0.08861533 -0.06843472 0.0105762305 -0.11419395
0.099579945 0.07227094 -0.14248691 0.10966985 -0.03119066 0.10269671 0.00012497023 0.08756478
0.054023284 0.1483541 0.018799579 -0.1376565 0.11071403 -0.120758474 0.016190127 0.052274078
-0.09813491 -0.005802924 0.14370564 0.070105776 -0.022474028 0.051178206 0.01014179 -0.11998222
-0.04844263 0.14689536 -0.03028295 -0.10064198 -0.066397995 -0.13520145 -0.007842634 -0.008528888
-0.09044809 0.039752323 -0.04679282 -0.020594873 0.042062704 -0.14870532 0.07530793 -0.0062806522
0.02362643 0.008443836 -0.06793181 0.10751146 -0.14079641 0.0261845 -0.032115873 0.0454614
00000000: 7308 2d3d 87b3 f03d 2be3 ebbd f00c 27be
00000010: a437 0fbe 09f9 82bd 1a70 13be 4fc3 3c3d
00000020: 2fad 803c e9f2 9c3d 12c4 943d 95f6 8e3d
00000030: f834 51bd da2d adbd 8c9b d03d 81a6 85bd
00000040: 6117 d53d eee6 f9bd 17e8 1bbd 97c7 b6bd
00000050: a2c3 10bd cfc9 c6bd 3346 84bb 2320 f3bd
00000060: 9362 0a3e e197 fcbd 5c84 34bc 41b9 8d3d
00000070: 2821 433d efc2 a7bd 89be 4fbd 7b0f 35bd
00000080: 5e57 f93c 654f 85bd 9d19 823c 2469 d6bd
00000090: 978f b2bd 3349 533d 9787 a23d 289c 10be
000000a0: 6f2e a83c cdb2 823d 8224 4b3c e5d2 793d
000000b0: 05c4 e93c babd d63d b1ff 47bd 16d4 433d
000000c0: 173b 373c b610 b8bd 9929 a3bd 9f5b bd3d
000000d0: 496e 6b3c 041e bdbd 5f79 9bbd 17b5 bb3d
000000e0: ee41 a23d 2ba6 b6bd 102e 4cbd 260f 4d3d
000000f0: 3b1a 84bd 91b7 c93b 7ec4 453c c844 023e
00000100: 4e64 89bd 7dd4 893e 6273 f0bd 8cab 1e3c
00000110: 5b93 fcbd a4a6 41be 6236 a0bc 047f bcbd
00000120: efaa 0abe ecf3 9d3d cc1c 0b3e 4af4 963d
00000130: 8a4e b93c a8a6 15bd 903e 2e3d 51ba 6f3d
00000140: 24ba b9bd dd30 a03b a8c7 14be 45de df3d
00000150: 4fc8 9d3c bd2f 203d e31a d5bd d7a2 853d
00000160: 2378 f73d ecf0 a5bd e28b 3e3e 04e5 0ebe
00000170: de96 e7bd e24c 313e db5f 1e3b 4bef 493e
00000180: 1fcf 77bd fc54 ff3d fd67 283c 8282 463c
00000190: 8d0b 183a 8567 e5bd b87a 30be 5ff8 c6bd
000001a0: e491 b43e a79e 4f3d 428b 90bd 1b99 813c
000001b0: 7fda ae3d 0f53 793e fc13 72be 6509 5b3e
000001c0: 3c3f ac3d c699 5b3c 7e1e 233d 4226 c43d
000001d0: d999 49bd 4b5c ed3c 4386 ac3c 017e 023e
000001e0: ee76 543e 814d e03d 9225 7b3e 1089 b13d
000001f0: b6c3 e23d c381 08bd 406c a9bd 7e2d c33d
00000200: e37f 9abd 70f9 95bd b748 153d e187 ddbd
00000210: d474 abbb d253 ed3d 3da0 e0bd c7d8 b3bd
00000220: 6c5b a73d 4373 eabd d47b a33a 2281 43bd
00000230: 7024 a33d 23cb 1cbd 1d9d 153d 4f9e d23d
00000240: 057f 063d edc6 b53b e9ef 2fbd 31be d7bd
00000250: 2152 933d 3f71 e9bd eba5 cbbd f8aa 0a3d
00000260: b3c2 e3ba 9313 46bc 74e6 d5bd f65b 9fbd
00000270: f703 4cbb 6be4 75bd e687 ae3c efb0 ef3d
00000280: 29a0 28bd 82bd dc3d 245f 60bd d1e2 433d
00000290: 5180 71bd 32d7 4dbc 0b37 ebbb 40bb 9b3d
000002a0: 32ba ad3c bff1 cbbd a228 2b3d ef3c cdbd
000002b0: 309c bcbd 93c9 91bd f4a0 673b 0016 4b3d
000002c0: d1bd d63c 1184 d43d deba 5d3d 7de8 b8bd
000002d0: 8363 993d 480a 803d 9183 1f3d 6614 633d
000002e0: 8e8a 31bd 7151 4bbd 4c23 a4bd 7fcb a4bd
000002f0: cc33 b6bd 2725 b13b a06e b23d 597a dbbd
00000300: d37c f8bc d3cb 793d 2f45 9a3d b172 dc3c
00000310: d658 8e3c 40ec 9c3b e432 113e ebd5 00bd
00000320: 12d4 bcbd 09f7 903d f32b 0f3d eb37 bdbd
00000330: f47b b5bd 8127 8cbd ed47 2d3c 85de e9bd
00000340: 92f0 cb3d c902 943d 17e8 11be 969a e03d
00000350: 8e83 ffbc a752 d23d 710a 0339 2a55 b33d
00000360: 8547 5d3d 23ea 173e 9301 9a3c d3f5 0cbe
00000370: 0abe e23d 3850 f7bd 28a1 843c 581d 563d
00000380: f5fa c8bd 7426 bebb 9227 133e 9e93 8f3d
00000390: 741b b8bc 3da0 513d c029 263c 3db9 f5bd
000003a0: c76b 46bd bd6b 163e f313 f8bc 621d cebd
000003b0: acfb 87bd 4072 0abe 647e 00bc c0bc 0bbc
000003c0: d93c b9bd 55d3 223d d4a9 3fbd 94b6 a8bc
000003d0: f149 2c3d 3546 18be 0b3b 9a3d eecd cdbb
000003e0: 378c c13c 0458 0a3c d51f 8bbd f82e dc3d
000003f0: ef2c 10be e080 d63c ef8b 03bd bc35 3a3d
