Entrenar/runs/30/GNN_global/04-12_16:58:38/weights/best_model.pt (torch, 637090 bytes, 22 tensors)

convs.0.bias f4 [64]
000000 63 4b 6c 3d 38 0e d2 bd 02 ad a8 3e 8f 35 42 bd
       0.057689082 -0.10256618 0.32944494 -0.04741436
000010 b0 d3 8b 3e 76 dd 51 3d ea 1f 46 3d 58 f5 82 bd
       0.27309942 0.051236592 0.04837028 -0.06394452
000020 51 44 06 3e 90 f9 59 be 64 7a 88 3b d7 05 9c 3d
       0.13111998 -0.21286607 0.0041649807 0.07618301
000030 fe d1 be 3d 73 d3 2b 3d 56 9c 45 3d de a0 0a 3b
       0.093173966 0.0419497 0.048244797 0.0021153013
000040 cd 68 0c be 0e de c1 3d 9d ce b3 3e 23 fb f6 3d
       -0.13711853 0.09466182 0.3511857 0.12059619
000050 59 df 99 be dc 89 6d bc 33 1a a6 bd 7f f1 ad 3d
       -0.30053213 -0.0144982 -0.08110466 0.08493327
000060 40 f5 bb 3d 5d 85 6d bd 5d 21 69 be 40 b5 0c 3e
       0.09177637 -0.057988513 -0.22766633 0.13741016
000070 da f7 95 be 26 2b 17 3e 5d 3f 5b 3c 44 4f 37 bd
       -0.29290658 0.14762554 0.013381806 -0.044753328
000080 4c 13 08 3e 4f 33 18 be eb e7 81 3b bb b0 d4 bd
       0.13288611 -0.14863323 0.0039644144 -0.10385271
000090 9f 6b a6 3d f2 28 8b 3c dd 0c 58 3e 43 cd 59 3e
       0.08125996 0.016987298 0.21098657 0.21269707
0000a0 a4 60 e4 bd 1e df 9a be cb 31 88 3d 9e b6 95 3c
       -0.11151245 -0.3024835 0.06650122 0.018275555
0000b0 d6 c3 c2 3d 1e 2f 40 be fc f1 a7 3d 13 de 23 be
       0.09510009 -0.18767974 0.08200452 -0.16002683
0000c0 29 5b 08 3e c4 e5 62 be a4 97 c3 bd 57 95 59 be
       0.13316025 -0.22157961 -0.095504075 -0.21248375
0000d0 84 88 40 3d 5c e6 e8 ba 65 3a 03 3d 26 4d b4 3b
       0.04700519 -0.0017768848 0.03203811 0.005502361
0000e0 2a a8 37 bc 94 5c cf 3b 2b aa 16 be 66 4d aa bc
       -0.011209527 0.006328175 -0.14713351 -0.02078886
0000f0 f9 e5 2d 3e b7 8a 42 3c 11 89 a5 3d 79 f6 4b 3d
       0.16982259 0.0118738925 0.08082784 0.0497956

convs.0.lins.0.weight f4 [64, 2]
000000 73 58 80 bc 3d e0 1b bf e4 a9 25 3f 5e 5c 0a 3f
       -0.015667176 -0.60889035 0.6471236 0.5404719
000010 13 1d c8 be 26 5c 04 be bb 6e 83 3e fb 36 8a 3c
       -0.39084682 -0.12925777 0.25670418 0.01687192
000020 4c fb 6f bb 7c fc 18 be d4 89 11 3f 05 0c 90 be
       -0.003661829 -0.14940065 0.56850934 -0.2813417
000030 91 a4 2c 3f 95 47 8c 3d 1d 3e 88 3e 7a 2b f4 3e
       0.6743861 0.06849591 0.2660989 0.4768942
000040 f4 9f 60 bd f4 40 c1 be d7 91 19 3e 4f e6 f8 3e
       -0.054840043 -0.37744868 0.1499704 0.48613212
000050 3d 39 14 bf d5 7b 27 3d 1f 56 22 bf 78 a8 86 3e
       -0.5789984 0.04088958 -0.6341266 0.26300406
000060 16 ee 92 3e b9 48 bf 3c aa d0 0f 3e 63 f6 9a 3c
       0.2869727 0.023350107 0.14044443 0.018916314
000070 1e bb b0 3e 3d 07 b1 be 6d 87 93 3d 8c 21 92 3e
       0.3451776 -0.34575835 0.07203565 0.2854122
000080 c2 bb 29 3f 5b d8 08 3f e7 67 d0 be f9 8c 06 3f
       0.6630212 0.5345513 -0.4070427 0.5255886
000090 62 7e 42 3c f9 6f 69 bd 8c 22 0c bf be e6 12 be
       0.011870952 -0.05699155 -0.54740214 -0.14345834
0000a0 63 ab e1 3e 0e d8 aa 3e a0 38 ab be 99 c3 63 3e
       0.4407607 0.33367962 -0.3344164 0.22242583
0000b0 95 ac 8c bc 61 48 14 3f f5 39 29 bf 4e 58 38 be
       -0.017172137 0.5792294 -0.6610406 -0.18002436
0000c0 ac 45 31 bf 0c 9c 51 be e3 ad a2 3e 5e 6f 17 3f
       -0.69246936 -0.20469683 0.3177329 0.5915431
0000d0 17 ad 93 3e 72 ca 0d 3f d8 ff 23 3e aa 52 94 3e
       0.28842995 0.5538703 0.16015565 0.28969318
0000e0 37 57 2b 3f c6 43 1d 3f 13 4d 8b be 88 e8 31 3f
       0.66929954 0.6143154 -0.2720724 0.6949544
0000f0 f8 b8 06 3f 3a ec 72 be 37 0f 25 bf b0 fe 53 bf
       0.5262599 -0.23722926 -0.6447634 -0.828105
000100 ce 9e e5 3c 93 5c 13 bf a5 91 d1 3e b7 4e b4 3e
       0.028029826 -0.5756313 0.4093143 0.35216305
000110 91 bc f1 be e5 2a f4 3d 94 31 03 3e d6 00 bb 3e
       -0.47214177 0.11922244 0.12811881 0.36524075
000120 30 bc 9d 3e 66 54 1e bf 56 94 33 3f 68 65 15 3f
       0.30807638 -0.6184753 0.7014822 0.5835786
000130 9e c1 3c 3e 8c b0 16 bf 3b 0f 1f be 32 83 98 bd
       0.18433234 -0.5886314 -0.15533154 -0.074468985
000140 a9 53 9f bd 32 40 83 3e 92 03 ca 3e 2f e9 fc 3e
       -0.07779629 0.25634915 0.3945585 0.49396655
000150 eb 56 24 be 79 0d 87 3e f0 15 ee 3d bf a6 05 bf
       -0.16048782 0.26377466 0.11625278 -0.5220756
000160 48 45 1b bf 0b 76 c0 be 7e 7a a9 3e aa ed 2c bf
       -0.6065259 -0.3759006 0.33101267 -0.67550147
000170 68 06 12 bf a2 42 ab 3e 74 a4 1b 3f 81 60 ca 3e
       -0.57041025 0.33449274 0.6079781 0.39526752
000180 79 a1 b3 be e6 5f 12 bf c1 ba f5 3e 62 96 32 3f
       -0.3508413 -0.5717758 0.47994044 0.69760716
000190 a8 12 c0 3e e5 66 6f 3e 9f 2b 04 3f 44 d0 15 3f
       0.37514234 0.23379095 0.5162906 0.58520913
0001a0 da 84 15 bf bd 26 ca be 09 ae f1 3e a8 03 9a be
       -0.5840584 -0.3948268 0.4720309 -0.30080914
0001b0 22 8a ac be 50 3d d5 3e 6f 6d cd 3e da 73 a1 3e
       -0.33699137 0.4164834 0.40122554 0.315337
0001c0 98 ec d7 be 51 10 cc bc e2 f2 16 3f 0a b1 b2 be
       -0.42172694 -0.024910124 0.5896436 -0.34900695
0001d0 8b d2 92 3e fe 80 a5 3e 22 b3 bb be 2e 26 ee 3e
       0.28676257 0.32324976 -0.36660105 0.46513504
0001e0 38 5e 98 be 9e 5e 23 be 99 d9 9d bd 59 8f 05 bf
       -0.29759383 -0.15954062 -0.07707519 -0.52171856
0001f0 d2 cc 25 bf b2 4c a8 3e d8 8f b1 3d bf 09 38 bf
       -0.64765656 0.32871014 0.08670014 -0.7188987

convs.0.lins.1.weight f4 [64, 2]
000000 f3 4a f9 be ae f0 10 3f 0e 65 ff 3e 56 a1 e0 3e
       -0.48689994 0.5661725 0.49881786 0.4387309
000010 53 92 18 bf 77 02 98 be 69 85 85 bc af e4 1d be
       -0.59598273 -0.2968938 -0.016298966 -0.15419267
000020 d3 00 6f be ab 6c ac bd b2 48 3b 3e 3b 64 50 be
       -0.23340158 -0.08419164 0.1828945 -0.20350735
000030 42 96 f3 bb 79 34 2a be b7 cb 83 3e fb e7 be 3d
       -0.0074336836 -0.16621579 0.2574136 0.093215905
000040 81 a6 eb bd f2 d9 13 bf 1d aa b5 3e 07 9d 47 3e
       -0.115063675 -0.57754433 0.3548135 0.19493495
000050 dd 23 9d be 74 2b 04 3f 84 99 60 be 2e 33 c5 3e
       -0.30691424 0.51628804 -0.21933562 0.3851561
000060 0f f7 b7 3e 96 9d 08 bf c9 e7 e9 3e 27 bb 14 bf
       0.35930678 -0.5336546 0.4568465 -0.5809807
000070 db 6d c7 be df b4 ad bd c2 6c de be 3b 03 0f 3f
       -0.38951 -0.08481764 -0.4344235 0.55864304
000080 fd 1e 25 be e3 7e 9c 3e 5a 8d de be 42 5a e9 3e
       -0.16125102 0.30565557 -0.43467218 0.45576674
000090 19 ca 9d bc b9 d4 f8 be 20 3e 19 3e 7b 19 57 3e
       -0.019261407 -0.48599795 0.14965105 0.21005814
0000a0 4a 5a 22 3f c1 a6 c3 be b9 c7 94 be b7 18 8f 3d
       0.6341902 -0.3821316 -0.29058626 0.06987136
0000b0 2a f2 cd 3e 96 00 88 3e c2 fc 85 3e fb 4f 34 be
       0.4022382 0.26562947 0.261694 -0.17608635
0000c0 6d 3e e5 3e d5 3d 9b 3e ee 56 91 be a2 ce a5 3e
       0.4477419 0.30320612 -0.28386635 0.3238421
0000d0 2d f6 0b 3f 76 40 40 3f 67 29 e1 be 2d 59 d9 be
       0.5467251 0.7509836 -0.439769 -0.42450848
0000e0 57 57 ae be fb 5c 0d 3e aa 09 cb 3e 61 d2 72 be
       -0.3405101 0.13805 0.3965581 -0.23713066
0000f0 60 e0 ab 3e 3e 43 a8 be 21 24 14 3f 00 a9 40 3e
       0.33569622 -0.32863802 0.5786763 0.18814468
000100 2f 68 08 bf 33 b7 ce be 16 65 22 bf 4d 52 99 3e
       -0.5328397 -0.40374145 -0.63435495 0.29945603
000110 b7 12 eb be e1 47 5a be c0 71 0d 3e 60 a9 dc be
       -0.45912716 -0.21316482 0.13812923 -0.43097973
000120 78 a9 1b 3e a4 8c 1d bf 8f 5e 00 bf 99 f9 26 bf
       0.15201366 -0.61542726 -0.50144285 -0.65224606
000130 84 a0 08 bd c8 af 30 be 6b 4b 9b 3d 43 89 fd bd
       -0.033356205 -0.17254555 0.07582744 -0.12379696
000140 6f c9 01 3f 54 d9 1e 3f 52 af 8a 3e 0e 25 35 be
       0.5069799 0.62050366 0.27086884 -0.17689916
000150 59 1b 1d bf 12 d7 f3 3d 0e 2b c3 be 29 37 58 3e
       -0.61369854 0.11906256 -0.38118786 0.21114792
000160 52 8f 03 3f ac 04 12 3e 03 46 69 3f 3c cb 30 3f
       0.51390564 0.14259595 0.91122454 0.6906011
000170 86 02 46 bc dd c8 fd be 05 82 39 3f b6 b5 23 be
       -0.012085563 -0.4956731 0.7246402 -0.15987286
000180 1e 03 81 be 26 83 ef 3e af a8 10 3f c9 4d ae 3e
       -0.2519769 0.46779746 0.5650739 0.3404372
000190 60 f8 75 bd 50 92 2b bf a7 13 ec 3d c5 23 31 3f
       -0.060051322 -0.6702013 0.11527186 0.69195205
0001a0 01 8f 9f 3d 40 e7 9b 3d 6a 70 31 be da 03 09 bf
       0.07790948 0.07612467 -0.17328039 -0.535215
0001b0 25 27 cc 3e b6 61 5d 3e 90 59 f8 3e a4 a5 60 bd
       0.39873615 0.21619305 0.4850583 -0.054845467
0001c0 82 c7 ed 3e 0e e6 a7 3e 29 76 7d 3e 1e 97 df 3e
       0.46441275 0.32792705 0.24752106 0.4366998
0001d0 df 99 19 3f b9 e7 3d 3f 3d 38 0a 3f 11 ec cc 3d
       0.60000414 0.74181706 0.5399206 0.100059636
0001e0 a1 4c 9d be a8 0e 84 3b cc 5f 53 3d 1e 0c c0 bd
       -0.30722526 0.0040300675 0.05160503 -0.09377311
0001f0 44 40 e5 bd 20 44 e5 39 58 d1 1f 3f 83 b7 58 3e
       -0.11193898 0.0004372904 0.6242881 0.21163754

convs.0.lins.2.weight f4 [64, 2]
000000 e5 c4 6b be 08 8b be be 38 ce 27 be 09 f0 12 be
       -0.23024328 -0.37215447 -0.1638726 -0.14349379
000010 d3 fd 36 3f 97 00 0d 3f 1c 7b 21 3f d1 25 2c 3c
       0.71481055 0.55079025 0.63078475 0.010507063
000020 95 eb 76 3e 5b 93 8c 3e 06 24 4a bf f9 f7 4b ba
       0.24113305 0.27456173 -0.7896122 -0.0007780786
000030 8b b7 d4 bd 8e 5c dc be 31 3b d9 be 47 04 1a 3f
       -0.103865705 -0.43039364 -0.42427972 0.60162777
000040 87 8b 38 3f eb 19 dc 3e 39 0a 33 3f 68 7a 65 be
       0.720879 0.42988524 0.69937474 -0.22409976
000050 32 dc 93 3d a3 58 17 3e 9e b1 3e 3d 83 6a 6c be
       0.07219733 0.14779906 0.046556108 -0.23087506
000060 67 aa 1d bf b3 a3 64 3e 5a a7 17 bf 56 68 43 3e
       -0.6158814 0.22328071 -0.59239733 0.1908277
000070 12 4c 32 3f 77 7c 07 be 2f f2 05 bd 58 9c 5d 3e
       0.69647324 -0.13231073 -0.032701667 0.21641672
000080 8a cc b9 be e9 e9 c6 39 e7 01 6b 3f 5f d6 bb be
       -0.36288863 0.0003793978 0.9179978 -0.3668699
000090 a6 94 ee be c6 c4 d4 be e3 80 a9 bd 7d ff e3 be
       -0.46597785 -0.41556376 -0.08276536 -0.4453086
0000a0 1c 58 dc be 9f ed c0 3e fb 8b 71 3e 4c 02 09 bf
       -0.43035972 0.3768129 0.23588555 -0.5351913
0000b0 4c c0 a2 be ca 66 bb be 2e d1 a6 be a6 28 46 be
       -0.31787336 -0.3660186 -0.32581466 -0.19351444
0000c0 61 30 1b bf c0 5f e7 bd 90 79 db be f7 a0 2d bf
       -0.60620695 -0.1129756 -0.42866182 -0.6782374
0000d0 fb ca 8f be 2e 5b 7d 3e 93 81 83 be 9a 74 c5 be
       -0.2808455 0.24741814 -0.25684795 -0.38565522
0000e0 21 4f d5 3e ca c2 98 3e 0f c8 f3 3e 1c 21 25 bf
       0.41661933 0.29836112 0.4761357 -0.64503646
0000f0 ad fd 22 bf 15 84 6d be 55 92 07 3f 19 8c 05 3e
       -0.6366833 -0.23194917 0.5295766 0.13041724
000100 be 62 1f bf 7e e1 b7 3d e3 cb 01 bf 9d d5 17 be
       -0.62260044 0.08978556 -0.5070173 -0.14827581
000110 06 af aa bd 1e af 06 3f 5c 33 52 3e eb 24 59 bd
       -0.08334164 0.5261096 0.20527405 -0.053013723
000120 9b 8f 72 3d 11 af 0a be 87 a0 85 3e 2f d2 79 3e
       0.059218984 -0.13543345 0.26099035 0.24396585
000130 54 d1 f0 3d 80 28 63 be e0 d2 30 3f 06 f0 d7 bd
       0.11758676 -0.22183418 0.6907177 -0.10543828
000140 46 f0 d7 3b df 9b c2 3e 92 9e 00 3f b9 4f 1d 3f
       0.006589922 0.38009545 0.5024196 0.6144977
000150 b5 41 e9 3e 91 3a bc be ec 72 ea 3e ed 65 1f 3f
       0.45557943 -0.36763433 0.45790803 0.622649
000160 b4 ee 1f bf 86 a6 42 be 1e a7 d8 be a2 25 1a 3e
       -0.6247361 -0.19008836 -0.42315 0.15053418
000170 5b 44 b2 3e 78 69 6b be fc b2 1f be 0f 81 98 3e
       0.34817776 -0.22989452 -0.15595621 0.29785964
000180 d0 ca d0 bc c7 e6 4c bf 66 a4 f4 3e 59 ba 6c be
       -0.025487334 -0.8003964 0.47781676 -0.23117961
000190 ba ca 74 be 49 9a 15 3e 55 06 bb 3d 44 8b 50 bf
       -0.23905459 0.14609636 0.09132067 -0.814625
0001a0 46 13 b7 3e 38 30 b8 be a2 92 8f be a0 96 31 3e
       0.35756892 -0.35974288 -0.2804156 0.17342615
0001b0 9c 0c ab be fe 87 89 be ff 6d ad be fb 73 30 be
       -0.33408058 -0.26861566 -0.33872983 -0.17231743
0001c0 7a 30 a0 be 32 92 a6 be 65 69 54 3e d3 a3 0f bf
       -0.31286985 -0.32533413 0.2074333 -0.5610935
0001d0 ab d4 1a be de c4 34 3e 9a 8f b4 3d 23 1f b0 3e
       -0.15120189 0.17653224 0.08816452 0.34398755
0001e0 2f 0f f2 be 00 30 db 3d 46 bd 09 3f 28 ff df 3e
       -0.4727721 0.10702515 0.53804433 0.43749356
0001f0 39 75 40 bf 2c c2 b1 be dc 55 15 bf db 18 e7 be
       -0.7517887 -0.34718454 -0.58334136 -0.4513615

convs.0.lins.3.weight f4 [64, 2]
000000 82 50 bd 3e eb be dc bd 36 18 be 3e c0 b5 b0 be
       0.36975485 -0.10778602 0.37127846 -0.34513664
000010 13 eb b1 3d b8 ba b7 be 95 2c 6b 3e 7a 20 97 be
       0.08687415 -0.35884643 0.22966225 -0.29516965
000020 30 10 63 3d da f6 2d bf 3f 4b 86 bd 46 20 15 3f
       0.05543536 -0.6795479 -0.06557321 0.5825237
000030 f9 64 31 3e a6 f1 8b be bb d4 2d bd 28 55 5a be
       0.17323674 -0.273328 -0.042439204 -0.21321547
000040 6b 4e f9 be ab 3f 3b 3f b6 11 e9 bd de e9 d3 3d
       -0.4869264 0.73144025 -0.11380331 0.10347341
000050 b1 d5 8b be 62 d4 f6 be e4 83 a1 3e ee 76 53 3e
       -0.2731147 -0.4820891 0.31545937 0.20650837
000060 3a ad f5 3d 57 7f 8c be 1a c0 2e 3f 56 bf 7e bd
       0.11995931 -0.27440903 0.68261874 -0.06219419
000070 87 22 00 bf 10 69 93 be be 04 41 3f 56 27 b9 bd
       -0.50052685 -0.28791094 0.7539786 -0.09040706
000080 04 f6 2e be 4d 1c 8c be 43 b7 ff bd df 86 24 bf
       -0.17086035 -0.27365342 -0.12486126 -0.64268297
000090 5f a8 db be 37 9c d6 3e e9 34 3b 3f 60 c0 0d 3f
       -0.42901894 0.41916057 0.7312761 0.55371666
0000a0 8f a7 09 bf c6 55 e0 3e 00 18 c4 be 4d 5a 80 3e
       -0.537713 0.4381544 -0.3829956 0.25068894
0000b0 04 a9 1b 3f 4d 54 e2 3e 58 bb 10 3f 16 4d b3 3e
       0.6080477 0.4420494 0.56535864 0.3501975
0000c0 df d2 4a 3e 11 38 eb 3d 1a 38 dd be 56 31 5c 3e
       0.19807003 0.11485303 -0.43206865 0.21503195
0000d0 3b 58 23 be 45 e4 28 bd c7 93 09 bf b1 27 7c be
       -0.15951626 -0.04123332 -0.53741115 -0.24624516
0000e0 ea b7 13 bf 93 c6 82 be 45 4b ed be 76 05 07 bf
       -0.57702506 -0.25542125 -0.4634649 -0.5274271
0000f0 25 13 89 bd fb 7c e3 3e b6 cd 1c 3f a1 cd c3 3e
       -0.06693105 0.4443129 0.6125139 0.3824282
000100 d4 a0 94 be 19 14 36 bf b4 d6 0c 3e 42 23 d2 3e
       -0.29028952 -0.71124417 0.13753778 0.41042525
000110 0e 08 09 bf 55 73 f4 3d e3 0d 18 3f 1b da 5e 3d
       -0.53527915 0.1193606 0.5939619 0.05440722
000120 0e 87 09 bf d7 7b 2a 3f b0 26 7a 3e 6e d3 ed 3e
       -0.537217 0.66595215 0.2442882 0.4645037
000130 6c 51 ec be 1d 86 e3 3e 9a 9a ed be 4a 20 35 3f
       -0.4615587 0.44438258 -0.46407014 0.70752394
000140 ea 0d 93 be 60 08 c1 3e 7a 74 5d 3d 74 f1 61 3e
       -0.28721553 0.37701702 0.05406616 0.22064763
000150 8e 06 85 bd 32 36 88 3e 26 2b e3 be e0 97 53 bf
       -0.06495391 0.26603848 -0.44368857 -0.8265362
000160 57 df 94 be 6e a0 d2 3e f3 24 01 be d2 ac 4f 3e
       -0.29076645 0.41138023 -0.12611751 0.2028077
000170 5b d0 bd be 26 bd 04 3f 10 a5 ec 3e 75 0e a3 3e
       -0.37073025 0.5185112 0.46219683 0.31846967
000180 02 9f 8c be 11 ab 21 bf 41 cd 97 bd 9d 55 a7 be
       -0.27465063 -0.6315165 -0.07412196 -0.32682505
000190 76 dd fd 3e bb f1 3c bf 93 ed 95 3e be d4 31 3f
       0.49583024 -0.7380635 0.29282817 0.69465244
0001a0 25 c0 7d 3e c2 a9 28 3e 25 e6 43 bf 05 58 35 3f
       0.24780329 0.16471007 -0.7652305 0.7083743
0001b0 00 23 6b be 78 ca 27 bf dd 0d 24 3f f4 f5 90 be
       -0.2296257 -0.6554332 0.64083654 -0.28312647
0001c0 48 f5 cc bb e6 8e 1c 3f bb af df be 08 da df be
       -0.0062548257 0.61155546 -0.4368876 -0.43721032
0001d0 1f d7 5d 3e a0 4f 03 bd 15 67 5c 3d 36 dc 17 bf
       0.21664093 -0.03205836 0.053809244 -0.5932039
0001e0 fe 88 a6 3e 50 15 b0 be 26 73 98 be 9b 03 21 bf
       0.32526392 -0.3439126 -0.2977535 -0.62896127
0001f0 02 c7 f4 3e 60 fc c6 3d dd 99 36 bf 4c 4c 16 3f
       0.4780808 0.097161055 -0.71328527 0.5871017

convs.0.lins.4.weight f4 [64, 2]
000000 34 91 8b 3e 46 37 93 3c fb 87 d8 be 4f 91 4b 3e
       0.2725922 0.017970692 -0.42291245 0.1987965
000010 89 87 38 3f 4f bd 12 3f 40 01 12 bf 27 08 25 3f
       0.7208181 0.5732011 -0.5703316 0.64465564
000020 4f 38 2a 3e 11 68 9b 3e d5 d8 d8 3e 79 3c f9 3e
       0.16623043 0.30352834 0.4235293 0.4867895
000030 0e 35 23 bf 95 3d 13 3f 52 f3 d0 be aa 5a 35 3d
       -0.6375283 0.5751584 -0.4081064 0.044275917
000040 cb c9 e6 be f0 d5 40 bd 96 17 74 bd 5d 3a 12 3b
       -0.4507583 -0.047079027 -0.059592806 0.002231262
000050 6b 1f c9 3c 63 88 43 bd 78 c6 51 3f be e2 a7 3e
       0.024551114 -0.04773749 0.81943464 0.32790178
000060 49 d9 a1 3e f2 41 8d 3e f5 4a e7 3e f1 1b 91 3d
       0.31611088 0.27589375 0.45174375 0.070854075
000070 0c 58 c4 3d 08 02 42 3e 11 31 f6 be e4 5c 42 bf
       0.09587106 0.18946087 -0.4808431 -0.7592299
000080 3b 11 ef bc b1 60 80 be 40 cd 48 3e 37 4b 9c be
       -0.02918302 -0.2507377 0.19609547 -0.30526134
000090 50 9e fd 3d 74 71 cf 3e 66 58 50 be 27 00 ec 3e
       0.12383711 0.40516245 -0.20346221 0.46093866
0000a0 ef 40 01 3f 93 2f fb be cb 6e 03 bf 7f 59 5c bf
       0.50489706 -0.49059734 -0.5134093 -0.8607406
0000b0 56 d1 5d be 04 dd ba be 27 39 64 3c 21 a0 15 be
       -0.21661887 -0.36496747 0.013929642 -0.14611866
0000c0 f2 9e 9c be 3c 7d 02 bf a6 26 42 be 1f 15 1d 3f
       -0.30590016 -0.5097234 -0.18960056 0.61360353
0000d0 2a c2 ce bd 8b 53 0d bf c9 58 ed 3e fa 73 e4 bd
       -0.100956276 -0.552056 0.463568 -0.11154933
0000e0 42 95 a2 3e 76 f5 d4 3e 0e 12 26 3f 2f de 02 bf
       0.317545 0.41593522 0.648713 -0.51120275
0000f0 d6 bc 9a 3e da 76 12 3f d4 0b e8 be a6 f8 3b 3f
       0.30222195 0.57212603 -0.45321524 0.7342628
000100 0b 3b 16 3f a7 4b fc 3d 4a 43 86 3e 36 79 81 be
       0.5868384 0.12319117 0.26223212 -0.2528779
000110 88 c7 f8 be 08 40 33 3d 91 03 42 3e 2e cd ce be
       -0.4858973 0.043762237 0.18946673 -0.40390915
000120 9e e5 7f 3e 8e 6e 05 bf 73 68 07 3f 26 06 22 3f
       0.24989936 -0.5212182 0.5289375 0.6329063
000130 d4 12 fd 3d 23 ba f6 be a6 c2 d0 3e e3 1b 90 3d
       0.12357107 -0.48188886 0.40773505 0.07036569
000140 e6 02 d4 3e 21 ae 39 3e c6 7e e3 3e b4 49 bc be
       0.4140846 0.18132831 0.44432658 -0.3677498
000150 a7 e0 37 bd 4a 6b b7 3d 24 de e7 3d b1 8f 0b 3f
       -0.04489198 0.08956011 0.11321667 0.5451613
000160 45 55 bb be 98 e9 3f bd 78 37 1e 3e 1c 95 37 be
       -0.36588493 -0.04685363 0.15450847 -0.17927974
000170 93 ae 02 3f 92 51 11 bd 72 da 4f bf c0 4d 69 bd
       0.5104763 -0.035478182 -0.81192696 -0.056958914
000180 d3 d1 6f be fa d9 b1 bd 6f 3a 8a be d9 e9 06 bf
       -0.23419885 -0.08684154 -0.26997706 -0.52700573
000190 67 c0 96 be ea be cf ba 70 20 7f be 84 cc fc 3e
       -0.29443666 -0.0015849744 -0.24914718 0.49374783
0001a0 48 a8 24 be c1 4a 06 3f 45 9f 55 3e 8c 3e 29 bf
       -0.16079819 0.52457815 0.20861538 -0.66111064
0001b0 57 ca 26 3e d4 27 31 3f fd e8 15 bf 87 9c b9 be
       0.16288124 0.692014 -0.58558637 -0.36252233
0001c0 fe 0f 3a 3f 90 bb e3 3e 7a 86 ba be d1 58 e5 3e
       0.7268065 0.44479036 -0.36430722 0.44794324
0001d0 69 29 c1 3d 64 49 09 bf 3c 38 a9 3a 5c e5 6c 3e
       0.094317265 -0.5362761 0.0012910436 0.23134369
0001e0 eb d3 f8 bd 53 a0 08 3e 10 f5 02 bf 8d 31 12 3f
       -0.12149795 0.13342409 -0.51155186 0.5710686
0001f0 e4 34 06 3f bc ae 8f 3e a6 29 09 3e 1a 79 8d 3e
       0.52424455 0.28063 0.13394794 0.27631456

convs.1.bias f4 [128]
000000 b9 be a5 3c 95 a0 60 bc a6 a0 31 3c 59 48 e2 bc
       0.020232545 -0.013710161 0.010841524 -0.027622389
000010 70 63 03 bd df 59 2e 3c 17 a1 f2 bc 1b 29 a2 bc
       -0.032077253 0.010641544 -0.02961783 -0.019794991
000020 ff 96 11 3d 04 74 42 3c 90 09 0e bd 47 77 7c bd
       0.03554439 0.011868481 -0.03467709 -0.06163719
000030 65 00 3a bd 5c 1e 6e 3c 78 92 d1 3c 71 f1 fc 3c
       -0.045410533 0.014533605 0.025582537 0.030876847
000040 e8 f2 f1 3c 96 e4 fc 3b 12 32 13 3d 07 68 61 3c
       0.029534772 0.0077176793 0.035936423 0.013757712
000050 9f a6 db bc 67 8a 36 bd 9b 9d aa bc a7 52 24 3d
       -0.02681285 -0.044565585 -0.020827105 0.040117886
000060 0c e8 83 3c 5b 23 b1 bb 15 49 27 bd 09 a0 c6 bc
       0.01610186 -0.005405826 -0.04084118 -0.024246233
000070 fd 6d 09 3d 0d ea 23 bc 00 14 84 ba 90 7c 0e bd
       0.03355216 -0.0100045325 -0.0010076761 -0.03478676
000080 f8 1e 94 3c b9 9a 37 3d 0b 4a c5 bd 10 78 21 be
       0.018081173 0.04482529 -0.09633263 -0.15768456
000090 d0 c5 f8 bc 59 56 0a bd dc 09 de bc 87 c7 a4 bc
       -0.030367762 -0.033773754 -0.02710431 -0.020114673
0000a0 5d 62 ac bc 5e fc bf 3c f9 9c d0 bc 48 df e8 bc
       -0.021042997 0.023435768 -0.025465475 -0.028426781
0000b0 41 eb ca 3b 72 66 76 bc 51 10 87 3c e8 18 8b 3c
       0.006192595 -0.015039073 0.016487272 0.01697965
0000c0 0e f9 0e bd 2a d0 ee 3c cb c0 1d 3c 9e a1 37 3c
       -0.034905486 0.029151995 0.009628485 0.011207966
0000d0 08 fb f7 bc 80 26 23 bc 54 0f 1a bd f2 a4 18 bd
       -0.030271068 -0.00995791 -0.037612274 -0.03726668
0000e0 74 aa 26 3d 75 b4 6d bc e0 59 16 3c e7 52 39 3d
       0.0406899 -0.014508356 0.009176701 0.045245077
0000f0 d0 fe c1 3c f1 5a 45 bd 03 d7 2a bc a3 36 b0 3c
       0.023681074 -0.04818243 -0.010427239 0.021510428
000100 c1 f1 d5 3c 79 d6 d6 3c 9d 50 bd bc cf 3a f9 3b
       0.026116254 0.026225315 -0.023109728 0.0076058875
000110 15 78 02 bd a9 6c 2e bd 07 7a a0 bc 13 50 d8 3c
       -0.0318528 -0.042584095 -0.019589437 0.02640537
000120 8e e4 63 bc 1b e1 ec bc 60 2c 90 3c 5b 1e 8b bc
       -0.013909472 -0.028915932 0.017599285 -0.016982248
000130 cb 47 13 bd b8 ed 13 3d a8 c6 98 bc 39 bd 20 3b
       -0.03595714 0.03611538 -0.018649414 0.0024526848
000140 17 90 21 bd d3 ed 26 3d cc 38 1f 3d 88 36 df bc
       -0.039444055 0.04075415 0.038872525 -0.027247682
000150 9b ce 2f 3c 1c cf 24 3d c3 e7 8c 3c cb b0 bc bc
       0.010730411 0.040236577 0.017200356 -0.02303352
000160 19 8c b9 3c 09 9c 06 3d 3f 0a 59 3d b2 66 52 ba
       0.022649812 0.03286365 0.052988287 -0.0008026167
000170 65 68 32 bc 21 fb d8 3c aa d7 bd bc fb 2f 9d bc
       -0.010889147 0.026486935 -0.023174126 -0.019187918
000180 e6 59 1d bd f1 33 7b 3c ab 47 23 3c 49 84 4f bc
       -0.038415812 0.015332208 0.009965817 -0.012665817
000190 24 f8 6b 3c be 0d a2 3c f2 02 94 3c 21 1d 94 3c
       0.014402423 0.019781943 0.01806781 0.018080296
0001a0 74 56 f4 bc 57 8b 82 bc 0e ed a3 3c df 25 7d 3d
       -0.02982638 -0.015935583 0.020010497 0.061803695
0001b0 94 41 b5 bb df 1a d6 bc cd a4 1c 3d 17 ec 52 bd
       -0.005531499 -0.02613586 0.038243104 -0.051494684
0001c0 cf 59 56 3b f6 09 0b bd 2f 19 ab bd ed dd 44 bc
       0.0032707339 -0.033945046 -0.08354413 -0.012015802
0001d0 2f 12 7d 3c 35 24 fd 3c 4a e3 58 3b e3 21 f8 3c
       0.01544623 0.030901054 0.003309446 0.030289596
0001e0 26 6e a9 bc e9 5b da bc e1 3b f4 bc 88 91 16 3d
       -0.020682406 -0.026655154 -0.029813709 0.036759883
0001f0 6d 17 ff b7 5a dc 5b bc 0b 8b 0c bd a9 cb d1 bc
       -3.0409277e-05 -0.013419235 -0.03431229 -0.025609808

convs.1.lins.0.weight f4 [128, 64]
000000 f7 bb c9 bd 4d 59 dc 3b dd 3a 72 3d 4c 03 42 3c
       -0.098503046 0.0067245127 0.059138168 0.011841606
000010 30 0e ff 3b ea 5e f7 bc bc ce 81 bc 23 c0 ce 3d
       0.0077836737 -0.030196626 -0.015845649 0.10095241
000020 cf e5 f1 bd c4 2d 92 bc 14 ec a1 3d 24 cb 3e 3d
       -0.11811411 -0.017844088 0.079063565 0.04658045
000030 eb 67 4c 3d 95 3a b0 3d d2 89 9a bd 06 8c 2c bd
       0.04990379 0.08604924 -0.075458184 -0.042125724
000040 8f 90 0f bd 16 51 d8 3d ea 92 22 be c4 26 b5 bd
       -0.03504997 0.10562341 -0.15876356 -0.088452846
000050 ff 13 31 bb 55 71 dd bd 85 bb 0c 3d a0 30 99 bd
       -0.0027019975 -0.10812632 0.03435852 -0.074799776
000060 68 ab 44 3d 12 4d e4 bd 66 2b c1 3d 3e 0a a0 bd
       0.04801503 -0.111475125 0.09432106 -0.078144535
000070 bb 40 fd 3c 2f 4e bb 3d 4c d2 a7 bd b3 c3 f3 3d
       0.030914655 0.09145772 -0.08194408 0.11902561
000080 84 1b b9 3d 97 af 11 3e 9d 22 ae bc dc ba 7a bd
       0.09038451 0.14227138 -0.02125674 -0.06121336
000090 be e0 0e be 62 72 36 bd 23 a8 16 be 1b 91 53 be
       -0.1395292 -0.044542678 -0.14712577 -0.20660822
0000a0 b9 57 9b 3c 6b bf 0b bd f0 1d 91 bc 1b a3 5f bd
       0.018962728 -0.034118097 -0.01771447 -0.05459891
0000b0 2c 15 e6 bd be 83 df bc 7f 39 3b be 3b 4a 9c 3d
       -0.11234507 -0.0272845 -0.18283652 0.07631346
0000c0 aa 4c 7c bc 31 49 e6 bd a6 92 97 3d 57 50 d2 bd
       -0.0153991375 -0.11244429 0.07401018 -0.1026923
0000d0 d2 ea 9a 3d dd fc 26 bd d5 4d bb bd f8 5a c3 bd
       0.0756432 -0.040768493 -0.09145705 -0.09538835
0000e0 f0 75 94 bc dd 9d 56 bc 83 15 09 bc e6 c0 b0 bd
       -0.018122643 -0.013099161 -0.008366945 -0.086305425
0000f0 aa 21 ef 3d fb e4 ce 3c bb 6e fb 3c 45 87 2d be
       0.11676343 0.02525567 0.030692449 -0.16946132
000100 e2 95 51 3d 23 a9 39 3e e9 7c e2 bc 2a c2 98 3d
       0.05116833 0.18130927 -0.027647452 0.07458909
000110 bd 32 2f bd 2d 24 c3 3d ae f3 61 3e c6 f3 26 3e
       -0.042772997 0.09528384 0.22065613 0.1630393
000120 e0 97 15 be e6 8e 09 be 1a 19 2d be ce b0 7e 3d
       -0.14608717 -0.13433418 -0.16904107 0.062180333
000130 a5 b6 b9 bd 8a 4f ee bd 09 7d 32 3d 8b 32 ea bd
       -0.0906804 -0.116362646 0.043576274 -0.114354216
000140 bc 48 f6 3d 26 f6 00 be f9 68 2b 3e ad 1a 1c bd
       0.12025592 -0.12593898 0.16739263 -0.038111378
000150 bc 01 a7 be b9 33 40 3d 51 f4 e9 3d 14 9f fb bc
       -0.3261851 0.046924327 0.11423553 -0.030715503
000160 2d 1c ae bd 65 49 9d 3c eb 60 bc bd 4d a4 4c bd
       -0.08501468 0.019200036 -0.09198173 -0.049961377
000170 9d c1 8b bd 24 90 1b 3e dc 90 a2 bd a1 79 b7 3d
       -0.06824038 0.15191704 -0.07937786 0.08958746
000180 4e 92 36 3d c5 83 3c bd b0 93 5b be 93 03 b6 bc
       0.04457312 -0.046024103 -0.21443057 -0.022218501
000190 58 b4 9d 3d f1 1c df 3d 43 3b 63 bd d2 6f b3 bd
       0.077004135 0.10894192 -0.05547644 -0.087615624
0001a0 70 ae 2a 3e 20 6b 23 be 6c e9 12 3e 52 ee b0 3d
       0.16668105 -0.15958834 0.14346856 0.08639206
0001b0 ed a7 c6 bd 55 1b 30 bd ab e2 44 3d 6b 3c 8c 3c
       -0.09699998 -0.042994816 0.04806773 0.017118653
0001c0 9d f3 e7 3d cf 96 44 be 89 33 2a be 6d d5 2a 3c
       0.113257624 -0.19198154 -0.16621222 0.010426861
0001d0 14 fb ce 3d 68 14 01 3d be 40 b2 3c d4 34 a2 3d
       0.10106483 0.0315136 0.021759387 0.079202324
0001e0 fd d4 1b bd 1e 82 7a bc a7 7e b2 be eb 91 ba 3d
       -0.03804492 -0.015289811 -0.34862253 0.09109863
0001f0 11 0d 08 be ca 6b fc bd cc 90 0e be f0 62 1b be
       -0.13286234 -0.12325247 -0.13922423 -0.1517446
000200 cd 5a 12 bd c6 75 55 bc c2 92 ba bd 53 de b6 bd
       -0.035731126 -0.013028568 -0.09110023 -0.08929124
000210 dd 1f 0a be 34 7d 00 be 51 55 29 3e 6b 9c b6 3c
       -0.13488717 -0.12547761 0.16536452 0.022291383
000220 fc f7 ba bd ca 9d fb 3c ff 4e 2e be 6f d8 9f 3d
       -0.091293305 0.030714888 -0.17022322 0.07804953
000230 bd 35 fb 3b eb 8d ed bd fe ae 54 bd 82 b2 08 bd
       0.007666318 -0.11599334 -0.051924698 -0.033373363
000240 f1 ad aa 3d 27 7f 62 bd ce e8 4b 3d 58 bc 15 3e
       0.08333958 -0.055297043 0.049782567 0.14622629
000250 da e3 90 bd cc 99 c4 3d 18 c3 bf 3d 40 1c c8 bd
       -0.07074709 0.09599647 0.09363383 -0.09771013
000260 55 47 f7 bd 75 8b 62 3c 58 38 cf 3d 35 08 10 bd
       -0.120741524 0.013827194 0.101181686 -0.035164077
000270 e0 5f 5c 3e 8a f8 24 3c dc 56 4f be bb cf cf 3d
       0.21520948 0.010069022 -0.20247978 0.10147043
000280 90 e6 50 bc 81 4a d1 3d 88 36 0f be 6e 00 9a bc
       -0.012750283 0.102192886 -0.13985646 -0.018799033
000290 19 76 a4 3d ce 72 0e 3e fa 40 ae 3c de 99 a4 bd
       0.08030338 0.13910982 0.021271218 -0.0803716
0002a0 da 50 f7 39 3e 48 1e 3c c0 db 6a bd f1 e1 ab 3d
       0.0004717175 0.009660779 -0.057338476 0.08392704
0002b0 2c 12 02 be 2c 2b e0 bc 17 3d 26 bd 5b 7d ae bc
       -0.12702245 -0.027364336 -0.040585604 -0.021300009
0002c0 3b 41 b2 bd a5 d5 82 3d 5c 17 5f bd 76 c7 f8 3d
       -0.08703848 0.06388406 -0.054465637 0.12147419
0002d0 5d 3d 9b 3d 94 9b 96 bb 88 fa 28 bd e8 80 8e 3a
       0.075800635 -0.004596183 -0.04125455 0.0010872157
0002e0 a8 ee ab 3d b7 48 d4 3d d4 c6 89 bd 4a 70 1f 3e
       0.083951294 0.10365432 -0.067273766 0.15570179
0002f0 13 a6 b7 bd 5c 83 af bd 01 bd a6 bd 25 e7 65 bd
       -0.08967223 -0.08569977 -0.081415184 -0.05612864
000300 9e 55 62 3d 8a 93 93 3d 60 fe 81 3d 86 2f f5 3d
       0.055257432 0.07205875 0.06347346 0.11971955
000310 18 60 64 3d ab ce 16 3e 2e 5a 3c bd 5a fe e6 bd
       0.055755705 0.14727275 -0.04598444 -0.112789825
000320 2f 3f 5d bd 36 60 ed bd 60 ec ee 3b f6 96 ff 3d
       -0.054015335 -0.115906164 0.0072913617 0.124799654
000330 93 3e b7 3d bc 91 20 bc 74 63 58 3d 11 90 2f bd
       0.08947482 -0.009800371 0.05282922 -0.042862
000340 9a bb d7 bd 4a ad e9 3c bf d4 04 be 65 76 b6 bd
       -0.10533829 0.028525013 -0.12971781 -0.08909301
000350 65 e6 2e bd 54 98 c1 3d 67 fa 2b bd a2 30 33 3b
       -0.04270019 0.094528824 -0.04198685 0.002734222
000360 0f 19 7f bd fc 26 a2 3d 78 a0 7f 3d 62 40 5d 3d
       -0.062279757 0.07917592 0.062408894 0.05401648
000370 6f fe 04 be e1 9d f0 bd b5 c6 56 bc 0c fa 83 bd
       -0.12987684 -0.11748863 -0.013108899 -0.06444177
000380 70 10 d8 bb 86 92 08 be c2 af cb 3d 98 21 02 3e
       -0.0065937564 -0.13337144 0.099456325 0.12708127
000390 8c 5a c5 3d d2 ef d8 3d 0e 0e 95 3d 3a cf f2 bd
       0.09636411 0.10592617 0.07278071 -0.118559316
0003a0 56 eb 02 3d 84 8b 98 3d 5e e0 25 3d e7 72 f3 bd
       0.031962715 0.074484855 0.040497176 -0.1188715
0003b0 76 05 39 bd c8 d2 c7 bc 84 d4 43 3c f4 75 c3 3d
       -0.045171224 -0.0243925 0.011952523 0.09543982
0003c0 ad 59 8a 3d 94 42 82 bc e0 4c de 3d 8b 4b 0f be
       0.067553855 -0.015900888 0.108545065 -0.13993661
0003d0 15 69 d8 3d 8a 4b 57 3d f1 ca ef bc 46 8a bd bc
       0.10566918 0.052562274 -0.029271575 -0.023137223
0003e0 84 ac 87 3d fa 04 56 bd 5c d8 c4 3d cd fc 84 bd
       0.066247016 -0.05225084 0.0961158 -0.064935304
0003f0 75 8d bd 3d 29 84 d2 bc 5d be 89 3b df 9c e1 3d
       0.092554964 -0.025697784 0.0042036013 0.11016249

convs.1.lins.1.weight f4 [128, 64]
000000 02 3d 0d 3d 52 34 e9 bd 71 1e 9d 3b ab 1b 86 3d
       0.03448201 -0.113869324 0.0047948887 0.06548246
000010 86 64 42 bd 06 78 b5 3c b1 fb 84 bc 1f d1 06 be
       -0.047459148 0.022151958 -0.016233297 -0.13165711
000020 5c 01 cd bd 01 31 33 3c f3 17 b4 bd 69 6d 00 3e
       -0.10010025 0.010936976 -0.087936305 0.12541737
000030 f2 42 64 3d 3f 23 1c 3e b0 eb 24 bd 51 0f b7 3d
       0.055727907 0.1524782 -0.04026383 0.08938468
000040 29 e0 dd bd 2d 04 a7 3d c8 87 61 3d d0 94 3a 3b
       -0.10833771 0.08155093 0.05506113 0.0028470047
000050 d5 87 9d bd 61 20 af bc eb 7c 9a bc 09 13 14 3e
       -0.076919235 -0.021377744 -0.018858394 0.14460386
000060 34 6b 18 3d 4e fd 11 bd ba 95 08 bd 98 fa 3a 3c
       0.037211612 -0.03564196 -0.033345915 0.011412285
000070 4a f3 37 3d 84 a7 20 3e 6a 13 d1 3d ba 48 dd 3d
       0.044909753 0.15688902 0.10208781 0.10804887
000080 35 c6 f4 bc 74 17 c2 3c c4 06 e1 3d f4 ff dd 3d
       -0.029879669 0.023692824 0.109876186 0.10839835
000090 45 c3 2a 3d 5e f5 01 3e 1a d5 6a bd 13 f1 00 be
       0.04169013 0.12691256 -0.057332136 -0.12591963
0000a0 6f e3 ae bb 65 30 9e 3d fc e6 c0 3d d8 95 c4 bd
       -0.005337171 0.07724074 0.09419057 -0.09598893
0000b0 25 52 f4 3d 0c 95 f2 bd 8f 13 45 3e 5c a5 05 bd
       0.1192973 -0.11844835 0.19245742 -0.032628402
0000c0 c5 9c 12 3e fe 30 84 3d ca 3c 97 3d 69 1f 3c ba
       0.14317615 0.06454657 0.073846415 -0.00071763113
0000d0 b8 be a4 bd a9 1f 01 be 51 d6 81 bd 2b 24 e8 bb
       -0.08044189 -0.12609734 -0.06339706 -0.0070843897
0000e0 98 d2 ab bd 95 b8 6f 3d d8 c9 ed bd de 4a 38 bd
       -0.08389777 0.05852564 -0.11610764 -0.044993274
0000f0 41 00 da 3b c7 d8 be bc 47 1c 6a 3c 9a c6 d3 bd
       0.0066528623 -0.023296727 0.014288968 -0.103406146
000100 f5 2b 27 be 0b d8 01 be 72 a5 ba bd d6 a9 8f bc
       -0.16325362 -0.1268007 -0.091135874 -0.017537039
000110 7d 87 01 be e5 fc 4b bd 7e 6b e1 bc 68 5c 72 3e
       -0.12649341 -0.049801726 -0.027517077 0.23668063
000120 b5 dd 11 3e 17 e9 86 bd 82 e0 21 be 7d 44 32 bc
       0.14244731 -0.06587427 -0.15808299 -0.010880587
000130 d2 d6 11 be 7b 6d 62 be 51 ec f7 3b e5 a7 e4 bc
       -0.14242104 -0.22112076 0.007566013 -0.02791209
000140 d2 a8 a8 3c 6d d2 ce bd 67 e2 20 3b bb dd 48 bd
       0.020588312 -0.10098729 0.0024549009 -0.049039584
000150 13 60 46 bd 90 e7 3a 3c 15 bb b4 bd ac 80 69 be
       -0.048431467 0.011407748 -0.088247456 -0.2280299
000160 6d 59 f4 bd 69 0c c1 bc d1 9c 41 be a2 e5 d9 bd
       -0.11931119 -0.023565488 -0.18907477 -0.10639502
000170 5a c2 ad bd 20 76 0a 3c ba f7 a8 3c a6 3d 59 3c
       -0.08484335 0.008451015 0.020625938 0.013259327
000180 95 7d 8f 3a 58 b7 b1 bc 3d c1 2b bc 73 bd d9 bc
       0.001094746 -0.02169387 -0.010483083 -0.026579594
000190 1d 0a 43 3c d1 de 00 3e 74 29 f2 3c 58 a3 fd 3d
       0.011904267 0.12584998 0.029560782 0.12384671
0001a0 a8 30 13 3e e1 28 a4 bd 56 16 db bc 8d 0d ae 3d
       0.1437403 -0.080156095 -0.026744049 0.08498678
0001b0 73 66 e6 3c 0e 3d c1 bd fb ca 28 3e 33 d2 14 be
       0.028125023 -0.094354734 0.16483681 -0.1453331
0001c0 a5 32 4a be d1 d6 ab bc 82 d5 84 3e 79 cf 20 3e
       -0.19745882 -0.020976456 0.25944144 0.15704145
0001d0 c9 96 45 bd 8f db bb 3b 7d 88 da bc 08 e3 33 be
       -0.048239503 0.0057329605 -0.02667641 -0.17567074
0001e0 ca e5 34 bd d1 67 cc bd 5d 3f f3 bd 75 a9 89 bd
       -0.044164456 -0.09980739 -0.1187732 -0.067217745
0001f0 da 56 7e 3d 9e a1 29 be 28 86 41 be bf 2e db 3a
       0.062094547 -0.16565558 -0.18898833 0.0016722305
000200 4f ca 11 bd 90 86 35 bd 2b 2a 0d bc 11 18 3e 3d
       -0.035593327 -0.044317782 -0.008616011 0.04640967
000210 c8 d7 a7 3d fb a2 84 3d 28 39 d5 3c df e1 26 3e
       0.08195454 0.064763986 0.02602823 0.162971
000220 37 6a 35 3c a7 ca 2c bd 4d e1 0d bd 4d a3 1b 3e
       0.011072687 -0.04218545 -0.03463869 0.15199013
000230 bb c2 86 bd 81 4d 35 3c 7f 53 d8 bc 48 1d bb 3c
       -0.06580111 0.011065842 -0.026407002 0.02284111
000240 d3 b8 01 3c 3d 93 b6 3d 42 ca 9d 3c ce 7a 9b bb
       0.007917601 0.08914802 0.019261483 -0.004744864
000250 e0 86 1a 3d e5 7e de bc 86 74 b5 3d ec f8 1f 3c
       0.037726283 -0.027160117 0.08860116 0.009763937
000260 18 86 0c 3d a8 a3 e1 3d d9 37 37 bd 0e 49 f3 3d
       0.03430757 0.11017543 -0.044730995 0.118791685
000270 f1 4a db 3a 10 cf dd bd 0c 2b 09 3e 64 40 3d 3c
       0.0016730708 -0.1083051 0.13395327 0.011550996
000280 b2 3f a7 bd 86 55 6e bd 35 22 29 3d 4c f5 3e be
       -0.08166446 -0.05818703 0.041292388 -0.18648261
000290 88 3d 5b 3b b9 08 36 3d 20 da de bd ab 38 67 3d
       0.0033453424 0.044441912 -0.10881448 0.056450527
0002a0 1b 03 bd 3d 70 9c ad 3d 66 68 fc 3d af 5a 23 3c
       0.09229108 0.08477104 0.123246 0.009970351
0002b0 36 65 58 bc 18 8d 9e bd 72 9b 9a bc aa bd 01 bb
       -0.013207724 -0.07741755 -0.01887295 -0.0019796886
0002c0 87 ec a5 3d 20 43 26 3d 1d 8b 55 3c a1 71 8f bb
       0.08101755 0.04059136 0.0130336555 -0.0043775593
0002d0 80 43 86 3d 79 ff 66 3d 51 25 71 3e dc d4 c3 3d
       0.06555843 0.05639598 0.23549391 0.09562084
0002e0 d3 19 45 bd 50 c7 cb bc 61 f6 ac 3c ab 21 a3 3d
       -0.04812033 -0.024875313 0.021113576 0.07965406
0002f0 26 39 b3 bd 6e d2 09 3e 17 3d 0f 3e 5e 90 01 3e
       -0.087511346 0.13459179 0.13988148 0.12652728
000300 12 1a d4 3b c7 1c 48 3d 9c 98 5d bd bf e3 1f bd
       0.0064728344 0.04885557 -0.054100618 -0.039035555
000310 4c af e8 bb 3c 46 ec 3c 55 c3 b1 3c eb 46 9a bd
       -0.007100975 0.028842084 0.021699587 -0.07533058
000320 71 48 f9 bc e1 79 0c be c7 ac e2 3c 02 39 32 3d
       -0.03043005 -0.13718368 0.027670277 0.043511398
000330 d4 86 94 bc c4 e1 f3 bd a6 d2 77 bd d9 8e e9 bb
       -0.018130697 -0.11908296 -0.060503624 -0.0071276245
000340 23 c4 30 3d 01 4e 36 3d c8 ba b6 bd 91 cc 0b 3d
       0.0431558 0.044507984 -0.089223444 0.034130637
000350 94 6c 6e bc 37 e3 b1 bd 11 11 e3 bd 76 a3 ed bb
       -0.014552254 -0.08685916 -0.110872395 -0.007252152
000360 3f 54 13 3d c5 41 48 bc 00 5c 05 bd 8d 00 5b 3d
       0.035969015 -0.012222712 -0.03255844 0.053467322
000370 68 39 03 be a6 2a d2 bc f3 e5 cb 3b 8b 96 bc 3d
       -0.12814867 -0.025655102 0.0062224804 0.09208401
000380 1b 10 f3 3b bf 0a 2c bc ac 90 c8 bc 47 81 64 3d
       0.0074176914 -0.010500609 -0.024483047 0.05578735
000390 e6 fe 1e 3d 09 43 a7 bd f0 31 a6 3d df 51 13 bb
       0.03881731 -0.08167083 0.081149936 -0.002247922
0003a0 ce 16 c0 bd d8 aa 2f bd 34 04 c0 3c 8f 28 05 bd
       -0.0937935 -0.04288754 0.023439504 -0.032509383
0003b0 90 3e a9 bc fd 4d 91 bd 1d 79 b8 bd c2 b7 40 3d
       -0.020659715 -0.07094953 -0.090074755 0.047050245
0003c0 ae db 55 3d 35 a6 bd bd 6d ad 11 b9 82 83 2d 3d
       0.052211456 -0.09260217 -0.00013892884 0.042361744
0003d0 ed e0 ff bc 4c ab 21 bd d3 5d ad bd d5 d0 b5 bc
       -0.031235183 -0.039470002 -0.08465161 -0.022194305
0003e0 41 43 9b bd d1 e6 92 3d b6 0a 93 3d 9c c7 c5 3c
       -0.07581187 0.07172931 0.07179777 0.024143033
0003f0 d4 29 43 bd c3 91 78 bd 6e bd d6 bc e6 92 de 3c
       -0.047647312 -0.060685884 -0.026213374 0.027169656

convs.1.lins.2.weight f4 [128, 64]
000000 40 7b f3 bb 56 d2 6a bd 7d 66 b3 bb 5b a1 41 3d
       -0.007430464 -0.0573295 -0.005474864 0.04727302
000010 7f 90 d0 bc 2c bc e1 bd 3a 70 05 bd 6b 46 92 bd
       -0.025459526 -0.11022219 -0.03257773 -0.071423374
000020 bf 6c 48 3d 11 b7 fd bd 11 ea 9d bc ff f4 05 3d
       0.048931833 -0.12388433 -0.01927665 0.03270435
000030 3b 41 22 bd 38 2d b5 3c f6 cc 05 3e da cc 86 3d
       -0.03961299 0.022116289 0.13066468 0.06582041
000040 d4 6a ed 3a 29 93 03 be 57 63 3b bd 1c e3 03 bd
       0.0018113502 -0.12849106 -0.045749035 -0.03219901
000050 45 96 12 be a9 76 fa 3d 63 49 eb 3c 68 a5 a3 3d
       -0.14315136 0.12229664 0.028721517 0.07990533
000060 72 83 cb bd 1d 1c f7 bd 90 3e ef 3d ee e9 e7 bd
       -0.099371806 -0.12065909 0.11681855 -0.113239154
000070 92 b0 7f 3d c9 82 a0 bb 7d b7 72 3d e1 40 7c bd
       0.06242425 -0.0048984033 0.05925702 -0.06158531
000080 86 d4 89 3d a2 d8 13 3d e7 71 55 bd c1 d1 9d 3d
       0.06729989 0.03609527 -0.05211058 0.07706023
000090 06 b1 bf bc b5 82 52 bd 3b 82 3d 3b 55 f0 c9 3c
       -0.023399841 -0.051394183 0.0028916735 0.024650732
0000a0 06 8a 5a bd 11 07 29 3d 9f 47 76 bd f3 b8 a0 3d
       -0.053354286 0.041266505 -0.060126897 0.07847776
0000b0 94 c7 a6 3c c4 c7 b4 bd c3 5b b7 3d a6 a9 90 bc
       0.020358838 -0.08827165 0.08953049 -0.01765902
0000c0 68 be b6 3d 82 c4 5c bd 2d 57 32 3c 7e f0 c8 bd
       0.08923036 -0.053898342 0.010885042 -0.09811495
0000d0 32 9b 06 3d 63 f8 d8 3c 31 27 08 3e 0b 50 f9 3d
       0.03286285 0.026485628 0.132962 0.1217347
0000e0 e0 53 81 3c 89 82 d3 bd 34 30 cc bd 11 e0 c3 3c
       0.015787065 -0.10327632 -0.099701315 0.023910554
0000f0 64 9a 94 bd 4b c6 de bd dc 31 48 3d 04 ba fd 3c
       -0.0725601 -0.10877665 0.048875675 0.030972488
000100 02 ff 23 3d b8 3f 0b be f3 1f 9a 3d af 32 05 be
       0.040038116 -0.13598526 0.07525625 -0.13007616
000110 a8 08 4a bc 35 69 a9 3d ff 50 2e bd 16 6b 17 3e
       -0.012331165 0.0827202 -0.042557713 0.14786944
000120 b6 77 a6 3d e0 7b fd bd 97 9f 54 3d cf 5a 61 bd
       0.08128302 -0.12377143 0.05191001 -0.055018242
000130 cd 02 bd bd 51 5c 54 bd d9 7a 4c 3c d6 3b 20 be
       -0.0922905 -0.051845852 0.012480461 -0.15647826
000140 85 cd cd bd 73 6e 08 be 87 14 d3 bc df a5 04 bd
       -0.10048965 -0.13323383 -0.025766624 -0.03238475
000150 3b 65 1b be 5f 4d 2f be c9 5b 16 3c 25 ed 14 3e
       -0.15175335 -0.17119358 0.009177157 0.14543588
000160 5a 88 01 3d 17 a4 64 bd b5 89 55 be 53 b0 a0 bd
       0.031624176 -0.05582055 -0.20853312 -0.07846131
000170 48 b7 44 bd ae 8f 9c bd 1c 5f 84 bb 35 10 a5 3d
       -0.048026353 -0.07644592 -0.0040396582 0.08059732
000180 2e ba a3 bc de 65 52 bd f3 3b ec bd 28 c1 d9 3d
       -0.019986238 -0.05136668 -0.11534872 0.10632545
000190 7a 2d 9b bd 1d 1f 4d bd 37 68 2e 3d 7f 41 b0 bd
       -0.07577033 -0.0500785 0.042579856 -0.086062424
0001a0 38 c7 98 bc be 0a 96 36 7d cf 4c bd b6 bd 64 3d
       -0.018649682 4.471599e-06 -0.050002564 0.055844985
0001b0 28 f0 35 bc 07 fe 40 3d e9 56 47 bd 98 f5 1c bc
       -0.011104621 0.04711726 -0.04866687 -0.0095800385
0001c0 fc e6 cb 3d 11 56 36 be 20 8d 2e 3d 71 ce f1 3c
       0.09956166 -0.17806269 0.042615056 0.029517384
0001d0 39 47 16 3c 14 41 18 3d 94 ed 27 3c 02 99 d1 bd
       0.009172254 0.03717144 0.010249514 -0.10234262
0001e0 11 01 1e 3e b4 5d f7 bd 0c 57 b0 bd cb 4a 7b bd
       0.15430094 -0.12078419 -0.08610353 -0.061350625
0001f0 ea 70 c1 3d f2 03 07 3d 5f 5e b0 3d 16 d2 57 bc
       0.09445365 0.032962747 0.0861175 -0.013172647
000200 d1 be f9 bc a6 ae 47 bb 75 70 c0 bd f5 31 b9 3c
       -0.030486496 -0.0030469089 -0.093964495 0.02260683
000210 c7 3f d8 bc 65 e6 e0 bd 6d e3 bb 3a ef 4e ef bd
       -0.026397599 -0.10981444 0.0014334746 -0.11684977
000220 f4 40 06 bd 11 23 5a bd 61 2b 00 3e a7 aa 7d 3d
       -0.032776788 -0.0532561 0.12516548 0.061930325
000230 91 cc be bc b4 a2 10 bd 11 fc 19 bd bb 61 06 3e
       -0.023290904 -0.035311416 -0.037593905 0.13123219
000240 ed e2 9b bb 0e f2 4c 39 52 e9 ba 3d 2c f5 83 3d
       -0.0047572763 0.00019545128 0.091265336 0.06443247
000250 cf 55 13 3d 08 70 a1 bd a7 8c 88 bd 46 a6 0a be
       0.035970505 -0.078826964 -0.06667452 -0.13539991
000260 84 a6 68 3d d4 15 0a 3e 8b 86 a7 3d e6 e0 f4 3d
       0.056799427 0.1348489 0.08179959 0.119569585
000270 b5 af 86 bd ca 9f 57 bc dc f1 7a bd 79 93 6d bd
       -0.06576482 -0.013160655 -0.06126581 -0.05800197
000280 22 14 e2 3d b1 ae 2c 3e 88 ee a1 bc 38 2d f1 bc
       0.11038996 0.16863514 -0.01976706 -0.029440507
000290 01 30 25 bd c8 82 22 3e 75 89 28 3d 1d 6d d2 3c
       -0.040328983 0.15870202 0.041146714 0.025686795
0002a0 7c 07 35 bd 7f 67 57 bc 0f 94 b1 3d 0b 88 b8 3c
       -0.04419659 -0.013147234 0.08670818 0.022525808
0002b0 d2 a8 b4 bd 8b 78 45 be 94 d3 2c bd eb 27 8d bd
       -0.088212624 -0.19284265 -0.042193964 -0.068923794
0002c0 5d 68 32 3d f0 8d b4 3d 82 87 01 3b 29 fa 91 bd
       0.04355656 0.08816135 0.0019764607 -0.071277924
0002d0 0c 66 21 3d b5 e6 55 3d ba a0 3f 3d 55 e0 ab 3b
       0.03940396 0.052221972 0.04678414 0.0052452483
0002e0 18 f0 25 be 88 e2 0d 3e 9b fa 8f 3d c0 e4 ac bc
       -0.1620487 0.13855946 0.07030221 -0.02110517
0002f0 28 22 bf bd a3 c8 03 3e 8c 9b 5b bd bd 47 ee bb
       -0.09332687 0.12869506 -0.053615138 -0.0072717355
000300 6f 27 cb bd b4 88 6f bd f8 0b 95 3d 4a 66 18 3d
       -0.09919631 -0.05847998 0.072776735 0.037206925
000310 d5 c4 fe 3c 84 42 26 bc ca ca 96 bc d7 d7 55 bd
       0.031099716 -0.0101476945 -0.018407244 -0.052207794
000320 45 67 96 bd b4 54 8d 3d a8 2e 3a 3c 41 f8 ac bd
       -0.07343916 0.069009215 0.011363663 -0.08445788
000330 19 64 e5 ba 81 42 2a 3d ad a4 ae bc 3f bc 94 bd
       -0.0017501145 0.04156733 -0.021318758 -0.072624676
000340 55 d6 61 bd 10 a5 b5 3d 4a b7 8f bb 18 f4 a0 bd
       -0.055136044 0.08869374 -0.0043858634 -0.07859057
000350 15 0a a4 3d fa d6 da 3b 99 81 14 bb 64 ce 62 bd
       0.080097355 0.0066784592 -0.0022660254 -0.05537261
000360 18 f4 c0 3d 16 39 0e 3d 92 66 0a bc a1 d4 09 be
       0.09421557 0.03472241 -0.008447306 -0.13460018
000370 de 16 02 be eb 79 b8 3d 89 ce 22 ba 18 c7 5e bd
       -0.12704036 0.09007629 -0.00062105857 -0.05438909
000380 de 94 1a 3d 7b c2 2f 3d 17 b8 cb 3d 4e db 0c bd
       0.037739627 0.04291008 0.09947222 -0.034388833
000390 d5 0b d7 3d dc ef 11 bd 09 4c 73 3c 6f 3c a1 3d
       0.10500304 -0.03562914 0.014849671 0.07872855
0003a0 57 1e 96 3d 6f 71 f1 3d 34 3e 4d bc a6 98 07 3d
       0.073300056 0.11789214 -0.012527037 0.03310456
0003b0 57 f4 3a 3d e2 98 8e bd 62 82 01 3e 31 d8 b7 bd
       0.045643177 -0.06962754 0.12647393 -0.08976782
0003c0 47 5f 14 be eb 00 da 3d 5b d6 72 bd 82 29 af 3d
       -0.1448947 0.10644706 -0.059286457 0.08552839
0003d0 af e6 af b9 28 9e 30 3d 9c 0b 0c bd 52 28 55 bd
       -0.00033550474 0.04311958 -0.03419076 -0.052040406
0003e0 19 2c 27 3d e6 e9 27 3d 8b ab f0 3d 36 bb 22 bd
       0.04081354 0.040994547 0.11751469 -0.03972932
0003f0 57 63 dd 3d bc 6f bb bc ff 4c 6a 3c ae 49 3b bd
       0.10809963 -0.022880428 0.014300584 -0.045724563
