Entrenar/runs/30/FCNN_local/04-12_16:05:30/weights/best_model.pt (torch, 145058 bytes, 23 tensors)

convs.0.bias f4 [128]
000000 f5 49 24 3c 71 51 25 bc 4b 30 02 3c 8a 1e c2 3b
       0.010027398 -0.010090218 0.007946084 0.0059240507
000010 dd b7 20 bb 43 a6 4f bc 61 da ff bb 23 32 8b bc
       -0.0024523654 -0.012673917 -0.007808015 -0.01699168
000020 6d 8f f0 3b ed 49 20 bc 4c 60 ee bb de 6a 28 bc
       0.0073413164 -0.00978325 -0.007274663 -0.010279385
000030 a9 1a a5 bc 03 f4 67 3b 03 23 3f bc cc a2 32 bb
       -0.020154314 0.0035393245 -0.011666062 -0.002725768
000040 6a cc 50 bc f2 51 e9 3a 90 ed b0 bb 2a c3 31 bc
       -0.012744049 0.0017800911 -0.0053994134 -0.010849753
000050 c8 49 b3 bc 47 e0 ee 3b 7a 90 b0 bb af 26 af bc
       -0.021885768 0.0072899195 -0.0053883167 -0.02138075
000060 d3 05 c6 bb 0c fb 35 bb c8 1a cc bb 9e 21 9b ba
       -0.006043175 -0.0027768044 -0.0062287785 -0.001183558
000070 98 af 56 3a 8c 93 2a 3a af e1 13 bc f4 93 77 3a
       0.00081896177 0.00065069715 -0.009025975 0.0009444349
000080 f2 d2 1b bb 2b 58 7c bc f2 a9 09 ba 16 ae 14 bb
       -0.0023776856 -0.01540188 -0.0005251459 -0.002268677
000090 e5 91 82 bc e5 47 44 bc 97 dc f7 3a 9f 2d bb bb
       -0.015938709 -0.011980032 0.0018910345 -0.0057122256
0000a0 af b0 31 3c a0 3a 1f bb 68 58 89 3b 48 b8 d4 3b
       0.010845347 -0.0024296418 0.004191447 0.0064916946
0000b0 93 46 1e bc 3b 8f 92 bb 2a ee 0f 3b 6a c9 9a bc
       -0.009660381 -0.004472641 0.0021962025 -0.01889487
0000c0 40 f8 73 bc 88 69 09 3c 87 be 4b bc 43 5f d6 bb
       -0.01489073 0.008386977 -0.012435562 -0.006542118
0000d0 35 ae 10 b9 82 07 82 bc 91 22 ae 3b 83 55 cf 3b
       -0.00013797807 -0.01587272 0.005314179 0.0063273325
0000e0 a6 12 8a ba 41 fa 51 3c 7d 04 bd bc 91 6e e9 bb
       -0.0010534122 0.012816013 -0.02307343 -0.0071237762
0000f0 7c 9f b0 3b 20 99 c9 bb 5f 0f f0 3b 74 e8 e2 bc
       0.005390106 -0.006152287 0.007326051 -0.027698733
000100 57 58 b5 bb 51 3b 4e bc 76 22 6f 3b e8 5f 50 bc
       -0.0055342126 -0.012587384 0.0036489046 -0.012718178
000110 23 e7 91 bc b5 55 25 bc 0c fd c5 b9 6c e1 44 bb
       -0.01781041 -0.010091235 -0.00037763303 -0.0030041588
000120 19 f0 de bb 50 8c 6a bc 21 e7 9f bc 12 41 1f 3c
       -0.006803524 -0.01431568 -0.01951939 0.009720104
000130 38 a4 5d b8 7a a4 52 bb e4 4b 53 bc fb 38 4c bc
       -5.2843447e-05 -0.0032141493 -0.012896512 -0.012464757
000140 72 5a c5 bb 1f c0 de bb 0b 57 5f 3a 8b a6 dc bb
       -0.006022745 -0.006797805 0.00085197453 -0.0067337207
000150 50 a4 84 39 36 c4 9b bc bb fd 36 bb 48 72 7a 3c
       0.00025299424 -0.01901446 -0.0027922231 0.015286036
000160 a1 88 04 bc 1d 06 e9 3b 24 12 01 bc c3 2c 3e bc
       -0.0080892155 0.0071113245 -0.00787786 -0.011607352
000170 08 9c fe 3b 06 59 af bb 66 12 5f bc 2e 56 27 3c
       0.007770065 -0.0053511886 -0.013615226 0.010213418
000180 ec 82 0a 3c 54 47 4c bc b2 12 80 3b b1 f1 1d ba
       0.008454066 -0.012468178 0.0039084787 -0.00060250895
000190 e8 e5 4b bb c1 3e 8f 38 d3 24 c3 bb eb fc cc bc
       -0.0031112377 6.83046e-05 -0.0059553175 -0.025022944
0001a0 67 9f fb bb ec e4 ec bb b2 c7 90 bc 79 8a c5 bb
       -0.0076789143 -0.007229438 -0.017673347 -0.00602847
0001b0 24 08 52 bc fc 95 38 bc d8 b7 60 bc 21 fa 0f bc
       -0.012819324 -0.011266228 -0.013715707 -0.008787663
0001c0 01 12 82 3b 9e 58 3f bb 76 15 14 bc b2 3b c2 bb
       0.0039694314 -0.0029197107 -0.00903832 -0.0059275264
0001d0 34 ef 55 bc e4 70 67 3b 2e 17 f8 3b b5 b6 10 3c
       -0.013057519 0.003531509 0.0075711226 0.008832623
0001e0 85 fc 18 3c 1f eb e2 bb 4b 7b 30 3b 17 7a b3 bb
       0.009337549 -0.0069250013 0.0026928957 -0.0054772007
0001f0 72 7e 90 bc 81 2a e7 bb 31 e8 27 bc 32 fd 7b bc
       -0.017638419 -0.0070546274 -0.01024823 -0.015380191

convs.0.lins.0.weight f4 [128, 2]
000000 dc 61 e0 3e 84 66 d7 be 7c f8 a5 3e 41 77 b0 3e
       0.4382466 -0.420704 0.3241614 0.34465984
000010 bf 8b 0a 3f fb 5f f2 be 6c ab fa 3e 13 b3 bc be
       0.54119486 -0.47338852 0.4895891 -0.36855373
000020 ec 57 5e 3e 53 60 4e 3f f9 ba 87 bd 5f fb d9 3c
       0.21713227 0.8061573 -0.06627459 0.02660912
000030 32 11 10 be f3 9c 25 bf 12 9a bc 3e a7 96 2c bf
       -0.1406906 -0.6469261 0.36836296 -0.6741738
000040 cc f6 c6 3e ca 75 0e 3f 6e 99 2f 3f a2 20 48 be
       0.38860166 0.5564848 0.6859349 -0.19543698
000050 dc bc 05 bf e1 9a 4d 3e 1e c5 da 3e 1f 3f 27 bf
       -0.522413 0.20078613 0.42728513 -0.6533069
000060 a5 1b 62 be e0 3e de be bf fe ad bd da 11 c1 be
       -0.22080858 -0.43407345 -0.084958546 -0.37708932
000070 e0 e4 98 be 83 4c 4c be 5c 17 1a bf a6 e4 17 3f
       -0.29862118 -0.19951062 -0.60191894 0.59333265
000080 ee 46 1d 3f 23 f9 2b be dd 2c a8 bc d0 a9 90 be
       0.61436355 -0.16794257 -0.020529205 -0.28254557
000090 e9 51 12 bf b8 10 36 bf c3 e8 be 3e 36 db a2 be
       -0.57156235 -0.7111926 0.37286958 -0.3180787
0000a0 46 c9 e2 be fe ae a9 bd 29 6f 75 be 0b 55 5b be
       -0.44294184 -0.0828533 -0.23968185 -0.2141916
0000b0 0d 82 d1 3d 50 6f 03 be 7c ba 6e be eb a5 bc be
       0.10229883 -0.12835431 -0.23313326 -0.36845335
0000c0 3c d9 08 bf fe 8c 0d 3f c1 3f 85 be 0c 6a 60 3e
       -0.53456473 0.5529326 -0.26025203 0.21915454
0000d0 a3 c7 93 be 6d 45 fc 3d 96 5a 2f 3f 53 58 ad 3e
       -0.28863248 0.123179294 0.684976 0.3385645
0000e0 1d 22 07 bf 8b cd 93 3e d4 f4 35 3f 8e 84 3e 3e
       -0.5278643 0.28867754 0.71076703 0.18605253
0000f0 3d fe c8 3e 7f 3c 41 3f 4f dc f3 bd 51 01 4b 3e
       0.39256468 0.75482935 -0.11907255 0.19824721
000100 01 c2 e1 be 2b 42 4f bd 21 5d 0b 3f 02 4b 9f 3e
       -0.44093326 -0.050600212 0.5443898 0.31111914
000110 f1 6a cb be 1a 8b 1f bf 36 e2 e7 be ed bd 41 bf
       -0.39730027 -0.6232163 -0.45289773 -0.7568043
000120 85 9a 18 bf 6a b1 e4 bd 26 c1 00 3f da 88 0e 3e
       -0.5961078 -0.111666515 0.5029472 0.13919392
000130 1d 14 d4 be b5 68 25 bf 18 82 c9 3e b4 ad f5 be
       -0.41421595 -0.64612895 0.39357066 -0.47984087
000140 ec 6b f2 bc 7f a2 d8 3e 33 86 90 be e9 d0 cc bd
       -0.029592477 0.42311475 -0.28227386 -0.10000784
000150 07 24 05 bd 0c d2 b9 bd 9b 9d b2 be 0a e3 2b bf
       -0.03250506 -0.090732664 -0.34885868 -0.6714331
000160 e2 43 09 bf 12 4d b0 be fe 48 3d 3f 0c c2 92 be
       -0.53619206 -0.344338 0.739395 -0.2866367
000170 7e d6 c8 be d1 ab 26 3e 63 38 08 3e fa 82 00 3f
       -0.39226145 0.1627648 0.1330276 0.50199854
000180 9c 04 0a 3f 1a 3a d4 3e ec 2e 29 bf dd f4 bd 3d
       0.53913283 0.41450578 -0.6608722 0.092752196
000190 8f 5c df 3e c0 c4 00 be 0f 3f c1 be 3d 16 25 3f
       0.43625304 -0.12575054 -0.37743422 0.6448706
0001a0 f1 19 9f be 2c ec d7 be 74 e0 1a bf 37 df 06 bc
       -0.3107448 -0.42172372 -0.6049874 -0.0082319295
0001b0 36 50 c0 3e 48 95 20 3e ad 6a 96 3d 69 48 17 bf
       0.37561196 0.15681946 0.073445655 -0.59094864
0001c0 7a cd 08 bf b5 06 93 3d 2f 69 2a 3f 17 b9 c6 3e
       -0.5343853 0.07179014 0.6656675 0.38813087
0001d0 c7 ec ee be 73 2b ac bd 91 11 f2 be 7f 18 a6 be
       -0.46665022 -0.08406725 -0.47279027 -0.32440564
0001e0 80 39 2a 3d 04 65 05 3f 4c 0e fb 3e 5e c0 26 bf
       0.041558743 0.5210726 0.49034345 -0.6513728
0001f0 b7 7d 03 3f fd 56 f5 be 87 23 78 3e 72 3e 2f 3f
       0.513637 -0.4791793 0.24232303 0.6845466
000200 1e f0 07 3d ad 7a 2e 3f e5 8e 1a bf 07 f3 7d be
       0.033187978 0.6815594 -0.6037429 -0.24799739
000210 60 d5 ca 3e 59 83 3f be db 69 82 bd 7b 76 83 be
       0.39615917 -0.18702449 -0.063678466 -0.2567633
000220 8e e2 06 3f 30 a2 8f 3e d9 ed 9e 3e 89 98 cd be
       0.52689445 0.28053427 0.31040838 -0.40155438
000230 78 ce fd be a8 0d a3 3d 54 b8 88 3e 66 2b 99 be
       -0.49571586 0.07961589 0.2670313 -0.29915923
000240 6f ca 87 be ee 00 df 3e e3 a1 d3 3d a8 35 34 3d
       -0.26521632 0.43555397 0.10333612 0.043996483
000250 bd 29 11 be ba d5 2d bf 40 f8 22 bf 88 b2 93 be
       -0.14176078 -0.67904246 -0.6366005 -0.28847146
000260 56 26 9d be 16 b3 86 3e 19 15 6b be 32 83 83 be
       -0.3069331 0.26308507 -0.22957267 -0.25686032
000270 3f b8 2c 3f 5c 93 40 3e 13 41 02 3f 04 da c1 be
       0.6746864 0.18806213 0.50880545 -0.37861645
000280 4f fa 68 be 63 fa 81 3e fc d8 af be 5a b3 03 bf
       -0.22751735 0.25386342 -0.34345233 -0.51445544
000290 58 81 de bb d0 22 45 be 79 66 01 bf 3c eb d1 3e
       -0.0067903213 -0.19251561 -0.50546986 0.40999782
0002a0 06 77 21 3f e1 54 06 3e 8f 4b 07 be b1 96 2a bf
       0.6307224 0.13118316 -0.13212417 -0.66636187
0002b0 e7 9f 94 be 93 bd 49 3e 6d 2c bc 3e 61 fe e8 bc
       -0.29028246 0.19701223 0.36752644 -0.02844161
0002c0 ab c2 80 be 10 ab cf 3e ea eb 0d bf a9 f0 b9 3e
       -0.2514852 0.40560198 -0.554381 0.36316422
0002d0 08 b2 83 be 9f b7 d4 3d d5 9b 26 be a2 0c 0b 3e
       -0.25721765 0.103865854 -0.16270383 0.13579038
0002e0 f7 33 09 be 87 1a 01 3f cd be cc 3c 9a 1a 21 3f
       -0.1339873 0.504311 0.024993325 0.62931216
0002f0 20 ed 41 3f bc 4b 87 be 79 52 fb be 9d dc 13 3f
       0.7575245 -0.26424968 -0.4908636 0.57758504
000300 ae e1 13 3f b3 5a 08 bf 8d 26 79 bd 89 d0 2a bf
       0.57766235 -0.53263396 -0.06082778 -0.6672445
000310 09 13 07 bf d0 6c cf 3d c0 21 53 3e 66 61 43 3e
       -0.5276342 0.10128176 0.20618343 0.19080123
000320 86 58 ed bc 2d 0d 35 3f d1 86 07 3e 62 d2 de be
       -0.028972875 0.7072323 0.13235022 -0.43519884
000330 9e af 31 bd 73 94 68 3e c9 dc 91 3e 81 87 04 bf
       -0.043380372 0.22712879 0.28488758 -0.5176926
000340 d1 9d b0 3e 2b 28 a3 be f7 ec 09 bf 1d f7 af be
       0.34495404 -0.31866583 -0.53877205 -0.3436822
000350 c2 df 25 3f 52 4f 1a 3f 7b 7d 20 3f c0 dc ec 3e
       0.6479455 0.60277283 0.6269147 0.4626217
000360 f5 04 1e 3f 5e 31 ac 3c 0a d2 b6 be a1 95 8d 3e
       0.61726314 0.021019634 -0.35707122 0.2765322
000370 6f ea 9e be 05 47 fe be ac 28 74 be 8c df 26 3e
       -0.31038234 -0.4966356 -0.2384364 0.16296214
000380 e6 6a be 3e 2a 59 42 be 20 8e ce be b2 99 ab 3d
       0.37190932 -0.18979326 -0.40342808 0.083789244
000390 ff 4c a9 be 08 7b 04 bf 58 76 de 3e cd 39 e0 bd
       -0.33066556 -0.5175023 0.43449664 -0.109485246
0003a0 fd b3 22 3f d5 44 2c 3f 60 f3 72 3e 41 e7 62 3e
       0.6355589 0.6729253 0.23725653 0.22158529
0003b0 69 37 5c 3e 2a 29 0f 3c d0 5b d9 3c e1 ba 92 3c
       0.21505512 0.008737842 0.026533037 0.017911376
0003c0 ae 2c 37 3e 7c 29 4e 3f 13 0b e5 bd 85 39 8b be
       0.17888138 0.8053205 -0.11183753 -0.2719232
0003d0 e2 5c 11 be d4 a2 b6 be 20 cc b4 3d 46 68 1c 3f
       -0.14195588 -0.35671103 0.08827996 0.6109661
0003e0 03 6b 19 3f 25 bc a1 3e 13 4e fe be 14 d3 a5 be
       0.5992891 0.31588855 -0.4966894 -0.32387602
0003f0 f4 13 27 be 72 aa 0c be 11 bf 36 3d a0 3c 1c bf
       -0.16316205 -0.13736895 0.04461581 -0.61030006

convs.1.bias f4 [128]
000000 d7 37 57 3c 48 3c fe bb 01 be 5c 3c e2 10 ca bc
       0.013135872 -0.007758651 0.013473035 -0.024666253
000010 25 ae 53 bc 34 22 0a bc 52 6a 11 bc 95 69 49 3c
       -0.012919937 -0.008431006 -0.008875446 0.012293239
000020 b6 fd 88 3c 5d 79 d1 3a d0 02 5f bc 86 e5 7c bc
       0.016722541 0.0015981604 -0.01361151 -0.015435582
000030 47 86 24 3c 30 92 fc 3c 92 62 7e ba ef ac 11 bd
       0.01004178 0.030831426 -0.0009704019 -0.035565313
000040 02 b0 39 3c bc 6b 20 bc c0 d2 9a 3b 03 f6 43 3c
       0.011333467 -0.009791311 0.0047248304 0.011960509
000050 57 9f b4 bb b0 7e 0f bc 03 59 d0 bc c8 0f 11 bc
       -0.005512159 -0.008758232 -0.02543307 -0.00885386
000060 47 d6 24 bc ad 04 de 3a 35 e2 d3 3b 07 c5 a0 bc
       -0.010060853 0.0016938649 0.006466175 -0.0196252
000070 6a aa 6d bc e5 6c 02 3c ba c0 1e bb c7 f7 bd 3c
       -0.014505962 0.007960533 -0.002422376 0.023189439
000080 54 ff b6 bb da 7a 57 3c 08 b1 92 bc 5a 4a de 3b
       -0.0055846367 0.013151849 -0.01790668 0.0067837657
000090 1e d2 3b 3c 41 f2 38 bc 6f 48 6c bc e3 b3 84 3b
       0.01146367 -0.011288227 -0.014421566 0.0040497645
0000a0 ce 62 2e bc 1c 8c 8a bb c0 5b 7e bc dd 73 0c 3c
       -0.010643674 -0.004228128 -0.015524805 0.008572546
0000b0 c9 d0 07 3c a2 e0 80 bc 54 71 59 3a a0 cd b7 3c
       0.008289524 -0.015732113 0.000829478 0.022436917
0000c0 f5 fe 39 bd 9b 6d 16 bc 96 55 95 bc ba df c0 bb
       -0.04540916 -0.009181405 -0.018229287 -0.0058860453
0000d0 42 00 37 3c 4d 27 00 bd 8b 60 82 3c 99 c3 d9 3b
       0.011169495 -0.03128748 0.015915176 0.0066456315
0000e0 a4 0c 08 bc ac e4 d5 3b 77 9e 0b 3b 71 58 91 bb
       -0.008303795 0.006527504 0.002130417 -0.004435592
0000f0 93 b0 3c bc ce d8 1e 3c 83 3e dc 3b 2d 53 ad 3c
       -0.011516708 0.009695245 0.006721319 0.021157825
000100 c7 25 6d 3c 14 b4 2e bc c1 cc 03 bc de 66 9f 3c
       0.014474339 -0.010663051 -0.008044423 0.01945823
000110 5c 06 f9 bb e8 36 6b bb f6 91 15 bc 2e e4 43 bb
       -0.007599635 -0.003589088 -0.009129038 -0.0029890644
000120 41 4e a8 3c 58 56 32 3b 30 72 d6 bc d3 40 04 bc
       0.020545127 0.002721211 -0.026177496 -0.008072096
000130 5b 38 24 3c d1 7e 88 bc d7 a0 52 3c e1 28 17 bc
       0.010023202 -0.016662033 0.01285573 -0.009226055
000140 70 5a 69 bb e5 c3 07 3b 14 d0 ae bc 15 15 4d 3b
       -0.0035606883 0.0020716127 -0.021339454 0.0031293083
000150 94 19 74 3c 88 42 10 bb da 53 56 ba 18 40 51 3c
       0.014898676 -0.0022012312 -0.0008175947 0.012771629
000160 1d 1b 8b b9 ea c7 dd bb 04 83 df bb 88 73 eb 3b
       -0.00026532347 -0.0067682164 -0.006821038 0.0071854033
000170 21 f5 54 bc ff c6 de 3b c2 f2 af bc 99 31 69 bc
       -0.012997896 0.0067986245 -0.02147806 -0.014233016
000180 87 72 89 bc 08 e9 32 bc 95 fe 50 bc 00 92 4b 3c
       -0.016778244 -0.010919817 -0.01275601 0.012424946
000190 65 c2 0d 3c ae ec 5a bc b7 c4 a4 3c 01 19 10 bc
       0.008652304 -0.013362093 0.020113332 -0.008795024
0001a0 a3 29 b6 bc 7a 8c 33 3b 0f 01 b4 bb 1b 58 f5 bb
       -0.02223665 0.0027396963 -0.0054932903 -0.0074873096
0001b0 4f e2 75 bc fb 96 53 3c 94 42 44 3c b4 ae 8b bc
       -0.015007569 0.0129144145 0.011978764 -0.017051078
0001c0 ff 2a 07 bc 6e 42 56 3c 5f e1 4e bb ef c2 97 3c
       -0.008249997 0.0130773615 -0.0031567437 0.018525569
0001d0 ba ed 53 3c 01 d3 47 3c e1 d4 2d bc d9 57 14 3c
       0.012935096 0.012196303 -0.010609836 0.009054148
0001e0 13 d6 d9 3b e8 05 67 3c 77 6e 39 ba 29 bb b5 bb
       0.006647834 0.014100529 -0.00070736505 -0.005545993
0001f0 bc e0 4c bd b5 05 f4 ba 75 a2 47 bc b3 03 94 bb
       -0.05001901 -0.0018617423 -0.012184729 -0.0045170425

convs.1.lins.0.weight f4 [128, 128]
000000 40 bc ba bd 48 65 48 bc 67 8b 99 bd 45 1c 4a bd
       -0.09117937 -0.012231179 -0.07497292 -0.049343366
000010 db 09 15 bd af cc e7 3b 39 ab 60 bc 9c 9e 78 3d
       -0.036386352 0.0070739607 -0.013712698 0.060698137
000020 f5 6d ac 3c 41 6e d2 bd aa 17 a9 bd 67 79 c8 bd
       0.021048525 -0.102749355 -0.08256467 -0.09788781
000030 1b fd 92 3d 95 42 b7 bc 23 10 81 bd e5 f3 8c bd
       0.07177182 -0.022370616 -0.06301906 -0.06882457
000040 f0 19 2b bc 4c 20 5e 3c 30 02 23 3d d0 a6 7a 3d
       -0.010443196 0.013557505 0.039797008 0.06119424
000050 1f 01 8a 3d ea 0d 96 bd 46 26 3c bc cf 9a 81 bd
       0.06738495 -0.07326873 -0.0114837345 -0.063283555
000060 ff f2 30 bd 1d 71 63 bb ef 47 59 3d e4 75 db bd
       -0.04320049 -0.0034704872 0.053047117 -0.10715845
000070 c5 12 66 bd ce 90 99 bd fc 5b 3b 3c 01 f8 b1 bc
       -0.056170244 -0.074983224 0.011435505 -0.021724703
000080 8d 21 56 3d 04 95 1b be 62 cd d5 3c 31 55 89 3d
       0.05227809 -0.15193564 0.02609891 0.06705702
000090 a1 c7 36 3d c8 5b 0d be 34 49 8c bd dc a0 5c bc
       0.044623975 -0.13804543 -0.068499 -0.013466086
0000a0 17 81 03 3c 20 17 23 3d a3 8e 45 3d e6 84 0a bc
       0.008026383 0.039816976 0.048231732 -0.008454537
0000b0 6a e3 31 bd 13 bd 08 3d 46 75 80 bd ef 18 94 bd
       -0.04342977 0.03338344 -0.06272368 -0.07231318
0000c0 c7 f1 39 bd cd 58 98 bb 49 47 bd 3c 8b 63 3a bd
       -0.045396592 -0.0046492578 0.02310528 -0.045505088
0000d0 09 16 e3 3a 0b be dc 3c 1c d3 a4 bd 6c 18 ea bc
       0.0017325293 0.026946088 -0.080480784 -0.028576098
0000e0 c5 09 81 3d 3a e3 f5 bc 5f 38 bb bc 26 d4 98 bd
       0.063006915 -0.030015577 -0.022854028 -0.07462339
0000f0 b5 fa 44 bd ce f9 5a 3d e0 a6 2b 3d 08 c4 52 bd
       -0.048090655 0.05346089 0.04190719 -0.05145648
000100 2d 41 ab 3d b1 fc cc bc b8 97 ed bc be e6 38 bd
       0.08362041 -0.025022836 -0.02900301 -0.045141928
000110 d6 77 a0 bd 45 88 02 bd 7b 3a 0e 3d 97 8b c8 bd
       -0.07835357 -0.031868238 0.03472374 -0.0979225
000120 24 88 ed bc 2a a1 56 be 34 f8 b0 bd 00 42 de bd
       -0.028995581 -0.20959917 -0.08641091 -0.10852432
000130 1b 96 cb bc 6b a8 0c 3c 2a 8e 45 bd eb 40 7d 3c
       -0.02485185 0.008585076 -0.04823128 0.015457372
000140 22 fa 40 bd 52 30 8b bd f2 f1 11 bd 65 7b 97 bd
       -0.047113545 -0.06796326 -0.035631128 -0.073965825
000150 6b 02 86 bd 45 82 67 3c cd a0 0a 3b 0d 0c dc bd
       -0.0654343 0.01413018 0.0021152974 -0.10744486
000160 b6 f9 81 3d 13 a0 80 3d 91 79 fc bc c6 f5 aa bd
       0.06346457 0.06280532 -0.030819686 -0.08347659
000170 0f 5c 88 3b 59 ae 5e 3d ec c5 26 bd dd 4b 54 bd
       0.004161365 0.05436549 -0.040716097 -0.05183016
000180 28 05 62 bb 39 eb 63 bd 90 a3 0d bd aa 7f e4 bd
       -0.0034487937 -0.055644248 -0.034579813 -0.111571625
000190 ee 0e 22 3d 5f cd 10 3d 3c 1f ad 3d 71 11 db bb
       0.03956502 0.035352107 0.08453223 -0.006685429
0001a0 3c f2 89 3c 07 f1 3c 3d 2a d6 e8 bd ed 35 4f 3c
       0.01683914 0.0461283 -0.113689736 0.012647134
0001b0 c3 23 5b 3d 3f 3f 3f bd f7 0f 80 3d ea e4 4a bd
       0.053500902 -0.046691176 0.06253045 -0.049534716
0001c0 82 c7 72 bd 80 6e a4 3d b8 a6 0b 3d 58 c3 1b bd
       -0.059272297 0.08028889 0.034094542 -0.03802809
0001d0 59 11 0c be 33 fd 96 bd c3 8c 50 3c 81 c9 b1 bd
       -0.13678493 -0.07372513 0.012728873 -0.08681012
0001e0 2d 91 26 bd a6 7f 78 3d 56 79 fd 3c 5c 29 3c bd
       -0.040665794 0.06066861 0.030941647 -0.04593788
0001f0 b2 d5 a9 bd ae 50 47 bd 7d 07 38 3d aa 07 44 3d
       -0.08292712 -0.048660927 0.044929016 0.04785887
000200 18 a2 c7 bc 65 88 04 bc e8 7a 92 bd 91 ec ef bc
       -0.024369285 -0.00808916 -0.07152349 -0.029287608
000210 d2 f1 26 3d 7d ae b8 bd 8d 21 8f 3b 1a e5 9a 3d
       0.04075796 -0.09017656 0.0043680132 0.07563229
000220 57 92 f9 3c c0 88 41 3d fc 84 34 bd 5f 1f 63 bc
       0.030465288 0.047249556 -0.044072136 -0.01386246
000230 cc f6 92 bd ae b9 67 bd ec 69 07 3b 65 0a 2c 3c
       -0.07175979 -0.056573562 0.00206625 0.010500525
000240 d5 7a 67 3d 6c 6d 74 bd ea 0e 85 3c 7d 7d 1d bd
       0.056513626 -0.059674665 0.016242463 -0.038449753
000250 cf f9 ab bd c4 f9 46 bd 22 a1 89 bd ed ad 26 3c
       -0.083972566 -0.04857804 -0.06720187 0.010173303
000260 fb cd 28 bb 49 96 27 3d e4 61 fc 3c 1f b5 5b 3c
       -0.002575754 0.040914807 0.030808397 0.013409882
000270 51 8d 8f 3c 4c a3 b5 3c 33 d0 ae bd c7 06 55 bd
       0.01752344 0.022172593 -0.085358046 -0.052008417
000280 89 25 ad bd de bc 3e bd 03 df 0c 3c 17 d9 9e 3d
       -0.08454425 -0.046566837 0.008598092 0.0775625
000290 a1 d2 27 3d e3 db fc bc 6b 88 0a 3c a2 36 64 3d
       0.040972356 -0.030866569 0.008455376 0.055716164
0002a0 8d a4 58 3b bb b7 ab bd fe f6 18 bb 1f f7 db 3c
       0.0033057064 -0.08384653 -0.0023340578 0.026851235
0002b0 4e bb 9f bb cd 60 99 3d 8b c4 72 3d 74 3b 3d bd
       -0.0048746234 0.074891664 0.05926947 -0.046199277
0002c0 1a a6 98 3d 18 48 c2 bd f6 9f 40 bd 1f 14 6c 3c
       0.07453556 -0.09486407 -0.04702755 0.014409094
0002d0 74 cb df bb 66 06 80 3d 59 e6 31 3d a9 9e f4 bc
       -0.0068296734 0.062512204 0.043432567 -0.029860811
0002e0 65 0f 89 3d fc b6 92 bd d2 d3 24 bb 1b 0d 12 3c
       0.066923894 -0.07163808 -0.0025150669 0.008914257
0002f0 c5 8f 72 3d 31 a9 c2 3d a3 1e 15 3d 40 5f 11 bd
       0.05921914 0.09504927 0.03640617 -0.035491228
000300 1a 04 86 3d ba a6 25 3d 84 f9 3b bc 40 26 5d 3d
       0.06543751 0.040442206 -0.011473063 0.053991556
000310 54 ff 92 3c d2 04 5a bc 4b 05 3a 3c 20 b0 cb bb
       0.017944016 -0.013306813 0.011353801 -0.006216064
000320 98 ae 2d bd 60 a2 c6 3c 6e 19 29 bc 82 85 a2 bd
       -0.042402834 0.024247348 -0.010321004 -0.07935621
000330 8d b2 9d bd 90 20 b0 3c 9d c2 f6 bc 5d 70 5f 3c
       -0.077000715 0.021499902 -0.030122096 0.013637629
000340 95 fb 7e 3d c1 82 5d 3d a7 a0 17 3d b5 c1 13 3d
       0.062251646 0.054079775 0.037018444 0.036073405
000350 e1 1c 5e 3d a3 e9 8d bd a2 98 90 3d 60 c2 9f bd
       0.05422676 -0.06929328 0.070603624 -0.07800746
000360 e2 43 9e bd 2d 23 59 bd a4 ad 94 3d 2c 70 0f 3d
       -0.07727791 -0.053012062 0.07259682 0.035019085
000370 41 66 35 3c 95 86 39 3d e6 8f a5 bd 0e 76 cf bd
       0.0110717425 0.045294363 -0.08084087 -0.10129939
000380 49 24 a4 3c bf 83 14 bd 55 3e e8 3c 7d 12 90 bd
       0.020036833 -0.036258455 0.028350035 -0.07034776
000390 4c b2 99 3d 89 13 ab bd 1d 33 29 3d cd cc 25 3d
       0.075047106 -0.083533354 0.04130851 0.040478516
0003a0 18 d1 52 bd a2 2b 71 3d 52 d9 56 3d 9b f2 27 bd
       -0.05146894 0.058879502 0.052453347 -0.04100285
0003b0 2d 44 bb bc 65 e4 55 3d 59 ad ea bc 80 c6 25 bc
       -0.022859657 0.052219767 -0.028647112 -0.010118127
0003c0 cb d3 f0 3c 4a bf 01 3d 40 f3 5a bd 87 3e 77 3d
       0.029397866 0.031676568 -0.053454638 0.060362365
0003d0 e6 13 ee 3c b1 40 a3 3c bc 7c 51 bd d1 56 df 3c
       0.029062223 0.019928308 -0.051144347 0.027263077
0003e0 1f 61 b7 bc ac dd 78 3d f3 9a 13 3d d9 6f 6e 3d
       -0.022385178 0.060758278 0.036036443 0.058212135
0003f0 74 89 08 bc e9 dc 1f 3d 4b 93 59 3d bb 29 73 3c
       -0.008333553 0.039029036 0.053118985 0.014841492

convs.2.bias f4 [128]
000000 14 16 a2 bc 2f 2d cb bc 8e 0d b7 3c 83 b9 3e bc
       -0.019785918 -0.024801819 0.02234533 -0.011640909
000010 30 f2 a3 bc a6 0e 82 bc 05 6e fe bb ee bf 9b bc
       -0.020012945 -0.015876126 -0.00776458 -0.019012418
000020 32 e6 61 3c bc 18 0c bd 7d 08 b6 bc 3c 20 94 3b
       0.013787793 -0.034203276 -0.022220844 0.004520444
000030 45 59 62 3c 8c 60 30 3c e2 e1 ba 3c bb 04 c7 bc
       0.013815229 0.010765206 0.022812787 -0.024294248
000040 b9 60 94 3c 37 9c 5f bc ea 37 c7 bc c5 f9 ae 3c
       0.018112527 -0.013648084 -0.024318654 0.021359334
000050 03 b3 c0 bb 7c 74 32 bd fb c4 8b 3c 81 58 80 bc
       -0.005880715 -0.04356812 0.017061701 -0.015667202
000060 c5 69 6b bc d2 5b de bb 8e 8e 61 bc b0 dc 06 bc
       -0.014368479 -0.006785848 -0.013766898 -0.008231327
000070 2c b4 2c bc 6a c5 a9 bc cd eb e9 3c f5 c7 43 bc
       -0.010541003 -0.020724017 0.028554821 -0.011949529
000080 95 75 6f 3c 12 8a 96 bc ec 3a 68 bc ac 81 a6 bc
       0.014615436 -0.018376384 -0.014174204 -0.020325504
000090 21 b9 f5 bb 60 53 c4 bb 3d 1d 45 bc eb 3e fd bc
       -0.0074988757 -0.0059913844 -0.012030897 -0.03091379
0000a0 c6 d0 24 bd 42 8e 81 3c 9b c2 af 3c 4e c0 96 3c
       -0.040238164 0.015814904 0.0214551 0.018402245
0000b0 be 09 49 3c f2 cd 72 bc 41 ce 1c bc ce 9c 83 bc
       0.012270389 -0.014819609 -0.009570659 -0.016065981
0000c0 27 03 97 3c 1a 31 8a bc 2a bc d1 3c 63 e5 4e bb
       0.01843412 -0.016869117 0.025602419 -0.003156983
0000d0 f8 b8 24 bc 97 ed 94 3c 94 fa 92 3c b4 c0 24 bc
       -0.010053866 0.018179698 0.01794175 -0.01005571
0000e0 0d 21 39 bc 8e 32 09 3c 4d 83 50 3c 29 2d b7 3b
       -0.011299384 0.00837387 0.012726617 0.0055901003
0000f0 52 73 ad 3c c1 cf a3 bc 91 73 ff bb c1 48 15 bc
       0.021173153 -0.019996526 -0.007795759 -0.009111584
000100 69 df 64 bc 59 bb b7 bb 14 07 95 3c 0d 5c 5d bc
       -0.013969281 -0.0056070504 0.018191852 -0.013510716
000110 0b 6c f2 3c 08 32 2d bd ce 6b ba 3c 76 d2 a9 3c
       0.029592535 -0.04228404 0.022756483 0.020730238
000120 f3 f1 cd 3c 12 5a b9 bc e2 f2 b0 bc a8 b5 d9 3b
       0.025139784 -0.022625957 -0.02160019 0.0066439696
000130 e4 d3 9c 3c 90 09 74 3b 61 88 de 3c af 9b 0d 3d
       0.019144006 0.0037237145 0.02716464 0.0345723
000140 03 bc 0e bc dc 01 a2 3c 3f ef 5d bc 0f 15 3b 3c
       -0.008711818 0.019776277 -0.01354581 0.011418595
000150 3e d8 9e 3c 54 5e 50 bc 66 ce 93 bc 4e c9 81 3c
       0.019390222 -0.012717802 -0.018042754 0.01584306
000160 f2 ca 4f 3c 71 e3 31 bc 4a ec 9c bc 30 79 63 3c
       0.012682663 -0.010857449 -0.01915564 0.013883874
000170 61 a1 80 3c da fb 79 bc 9f 4e 5e 3c e3 76 a4 3c
       0.015701951 -0.0152578 0.013568549 0.02007622
000180 39 4b ba 3c af b4 e1 bb 4a 5b ba bc c0 d8 36 bb
       0.022740947 -0.0068879942 -0.022748608 -0.002790019
000190 df 19 6e bc 5b 10 9c 3c ca 49 2a 38 6d 4c b9 3b
       -0.014532535 0.019050768 4.059988e-05 0.0056548626
0001a0 03 1d aa bb 11 d7 9d bc e5 c5 3e bc fb 71 a7 3c
       -0.0051914467 -0.01926759 -0.011643861 0.020440092
0001b0 16 b6 06 3d 59 42 99 bc b5 dd 75 bc 44 cb 4e bc
       0.032888494 -0.018708395 -0.015006472 -0.0126217045
0001c0 83 0d 66 3c 29 c4 df 3c 66 c4 6f bc 0d 62 26 3d
       0.014041307 0.027315216 -0.014634227 0.040620852
0001d0 be d8 2b bc ff 3c 4d bc 92 fc 84 bc 95 86 d0 bc
       -0.010488687 -0.01252675 -0.016233716 -0.025454799
0001e0 84 d7 22 bc df f1 8d bc ab b3 00 bc 34 e6 64 bc
       -0.009939078 -0.017327247 -0.007855336 -0.0139709
0001f0 ee 1f 6a 3c 9f 52 49 bc 1d e8 8c bc 1c c6 7b bb
       0.014289839 -0.012287765 -0.017200524 -0.0038417643

convs.2.lins.0.weight f4 [128, 128]
000000 f5 0c 14 bd 49 b8 75 3c ab 84 2e 3d 1a 9b 9f bd
       -0.03614517 0.01499755 0.04260699 -0.07793255
000010 53 07 25 bd 25 42 47 bc aa 75 27 3c 8c 4c 44 bc
       -0.040290188 -0.012161766 0.010220924 -0.011981141
000020 1c cc fe bb c4 00 34 3d a2 f6 a7 bd 44 83 e4 bb
       -0.0077757966 0.043946043 -0.08201338 -0.006973656
000030 67 0f e1 ba 3d 99 53 bc f7 4c 9a b9 cd f0 44 3d
       -0.0017170728 -0.012914953 -0.00029430512 0.048081208
000040 7b 4f 66 3d f1 d7 65 3d 6f d0 82 3d 8a f8 7e bd
       0.056228142 0.05611414 0.06387412 -0.062248744
000050 25 aa 1e bb 68 c4 7a 3d 1d d7 70 bd 5c 76 93 3d
       -0.00242103 0.061222464 -0.058798898 0.0720031
000060 49 45 f1 bc d1 c8 58 bc 81 25 de bc 1e ae eb 3d
       -0.029451983 -0.013231472 -0.027117493 0.115078196
000070 2c c9 aa bb 55 b3 ed bd 64 c8 8b 3d 66 ff 8e bd
       -0.00521197 -0.116064705 0.06825331 -0.06982307
000080 ab f7 28 3d 4a d0 89 bd 56 35 c9 bd 54 8c e8 bd
       0.04125182 -0.06729181 -0.09824626 -0.113548905
000090 3b a7 8a 3d 46 ec 89 3d 63 24 f2 3c 60 88 7a 3d
       0.06770178 0.06734519 0.029558366 0.061165214
0000a0 cd ae e8 3c 0a f7 dd bd 16 d4 9f 3b 97 ad 38 3d
       0.028403664 -0.108381346 0.0048775775 0.045087423
0000b0 ae c8 80 3d cc c3 77 3d 3d 6b 32 bd 16 dc 92 3d
       0.062882766 0.06048946 -0.0435593 0.07170884
0000c0 de 1d 9c 3d bc 22 d3 3d 2d be d8 bc 86 2a e9 bb
       0.07622884 0.103093594 -0.02645787 -0.007115665
0000d0 b7 be e7 3c e3 3d 83 3d 41 3e a3 bc 85 99 4e 3c
       0.028289182 0.06408288 -0.019927146 0.012609844
0000e0 1f 8a e0 bc b3 0c b9 bd 7f 4c d0 bd 79 41 21 bc
       -0.027409611 -0.09035625 -0.101708405 -0.00984227
0000f0 7d 1a b8 3c 1c 40 7a 3b 7b 84 b7 bd ef 71 52 bd
       0.022473568 0.0038185185 -0.089608155 -0.051378187
000100 ff bb 9c bd 85 84 c2 bd 29 f3 c7 bd 29 77 85 bd
       -0.07653045 -0.09497932 -0.09763176 -0.065168686
000110 ed 40 8c 3c ce 0e fc bc a3 2f 8c bb 47 7d bc bc
       0.017120803 -0.030768778 -0.0042781397 -0.023008956
000120 5d 68 05 3c 40 e1 e9 bc ca 6c 47 bd 3f 30 86 3d
       0.008142558 -0.02854979 -0.048687734 0.06552171
000130 95 d9 56 3d 11 be 02 3d 94 62 88 bc 48 de 8e 3d
       0.052453596 0.031919543 -0.016648568 0.069759905
000140 86 bc 82 3d 1e e4 46 bc 0d 8d cf 3d c9 27 1d 3c
       0.06383614 -0.012139348 0.10134325 0.009592005
000150 92 d3 5a 3c ac 40 a8 bd 3a 1b af bd 3c c1 c8 3c
       0.013356106 -0.0821546 -0.08550115 0.024506204
000160 84 2a 80 bd 9e 5a a7 bd dd d7 0f 3d c9 82 0b 3c
       -0.06258109 -0.08171581 0.035117973 0.008515068
000170 39 60 ab 3d b6 19 80 ba 15 3b 40 bc 02 d6 94 bb
       0.083679624 -0.0009773287 -0.011732836 -0.0045421133
000180 58 c0 8b 3c ba f6 7c 3b 81 7f 9d bc e0 d2 83 3d
       0.01705949 0.003859921 -0.019225838 0.064367056
000190 c8 05 94 bd 1b c3 a7 bd 14 92 68 bd 54 b3 b4 bd
       -0.07227665 -0.0819151 -0.056779936 -0.088232666
0001a0 d1 27 3e bd 63 0c 40 bd 58 de 67 bd 3b 35 87 bd
       -0.04642469 -0.046886813 -0.056608528 -0.0660195
0001b0 68 43 06 3d 29 d0 0a bd 3f 1f 9a bd f8 c7 d0 bc
       0.032779127 -0.033889923 -0.07525491 -0.025485978
0001c0 7d 55 5b 3d 83 dc 47 3d b4 e3 3e bd a8 a5 03 bd
       0.053548325 0.04879428 -0.046603873 -0.032140404
0001d0 c8 0c 42 bd 51 49 fb bc b0 17 bd 3c 67 02 7b bd
       -0.04737547 -0.030674608 0.023082584 -0.061281588
0001e0 db 0a 82 3d 79 65 8e bd 98 9e 1c bc 3b 5f bc bc
       0.06349727 -0.06952948 -0.009559296 -0.022994628
0001f0 66 e0 31 3c 3d 5d 1f bc 42 bd d1 3c 4f 64 2a 3d
       0.010856723 -0.00972682 0.02560294 0.041599568
000200 c7 6b a3 3c d4 e2 cf bc 2b 0b 96 bd 14 a8 b3 bc
       0.019948853 -0.025376715 -0.07326349 -0.021930732
000210 aa 48 94 bc 0a 58 13 3d 26 06 fe 3c 8c 61 db bc
       -0.018101055 0.035972632 0.031008791 -0.026779912
000220 c8 9f cd 3b c5 e0 c8 bd 29 ba 1d 3d a6 5e 8e 3d
       0.006275151 -0.098084964 0.038507614 0.069516465
000230 11 16 ad 3d 80 4b 17 bd 8b 67 46 3d a0 06 19 bd
       0.084514745 -0.036937237 0.04843859 -0.037359834
000240 1a a6 a7 bc 3e 38 23 3d d3 05 36 3d 8e 99 91 3d
       -0.020464946 0.03984856 0.04443915 0.07109366
000250 80 f7 1e bd 53 0f cc 3b bb 27 0b bd c0 99 c7 bc
       -0.038810253 0.0062274127 -0.033973437 -0.024365306
000260 9c 51 83 3d 00 54 3b 3d 4c 41 9a 3a ab 0b a7 bc
       0.0641205 0.045734406 0.0011768728 -0.020391306
000270 89 e1 e5 bc 24 77 33 3c 52 73 d0 bb 00 b0 a4 bd
       -0.028061645 0.010953698 -0.0063614035 -0.08041382
000280 18 0d 26 b9 ab 03 9b 3c 10 77 95 bc 83 7d bc bc
       -0.00015835871 0.018922647 -0.01824525 -0.023009067
000290 3a aa 40 bc 45 40 3d bd cf f0 a9 bc a5 81 f7 bc
       -0.011759335 -0.04620387 -0.02074471 -0.030213187
0002a0 4d 88 9a bd 7a f8 bf 3c af a8 98 bd 37 ed 19 bc
       -0.075455286 0.023433913 -0.07454049 -0.009394935
0002b0 a0 71 07 3b ac ac 52 3b 8e 00 9a bd 84 42 ee 3c
       0.002066709 0.0032146377 -0.07519637 0.029084451
0002c0 a8 dc 0b 3e c7 c3 60 3e 13 53 b2 3d ac 33 dc bd
       0.13658392 0.21949683 0.087072514 -0.10752043
0002d0 b3 32 0c 3d 1b 1e ff 3c 72 df 5e bd 5c d4 1f bd
       0.034228038 0.031142285 -0.054412313 -0.03902088
0002e0 26 fa 33 3d 85 df ec 3c 0d 9d 03 3d dd fd 09 3d
       0.043939732 0.028915176 0.032132197 0.03368937
0002f0 b0 0c 8b bd f8 9e 01 bd 04 51 79 3d 1d 6b c1 bc
       -0.06789529 -0.031645745 0.06086828 -0.023610646
000300 9f 4b a4 bd c4 dd 7b 3d d3 bf c5 bc a3 a8 34 bd
       -0.08022236 0.06149079 -0.02413932 -0.044106137
000310 74 8c a1 3c 9d 4e a4 bd 74 e2 bb bb 80 37 16 3c
       0.019720294 -0.08022807 -0.0057337824 0.009168506
000320 38 c6 92 bd 83 96 21 bd 14 a3 1d bd cd 56 98 bd
       -0.071667135 -0.03945018 -0.0384856 -0.07438431
000330 ce 66 87 3c 07 bc 22 bd 0a 9b bf bd 63 0c aa bd
       0.016528513 -0.039730098 -0.09355743 -0.08303144
000340 3b 86 04 3c b8 74 23 3d 57 ca 04 bd 6d 80 b6 3d
       0.008088644 0.039906234 -0.03241953 0.08911214
000350 5c 68 f7 bb 83 a9 f8 3b 3b 5e 10 3d ff 69 56 bd
       -0.0075502824 0.0075885667 0.035246115 -0.05234718
000360 65 18 96 bc 47 49 72 bd b4 c0 74 bd 05 b9 36 bd
       -0.01832218 -0.059151914 -0.05975409 -0.044610042
000370 f3 b8 cb 3c 8c 3d 14 bd 7c a3 d4 39 7c 1c a7 3d
       0.024868464 -0.03619151 0.00040557596 0.0815973
000380 d5 07 ec 3c a6 bd f5 3c da 56 9c bc f7 a1 0e 3d
       0.028812328 0.029997658 -0.019084383 0.03482243
000390 67 8e 02 3d 8d ce 51 bd 9d f7 76 bd 3d 3a 34 bd
       0.031874087 -0.051222373 -0.060294736 -0.044000853
0003a0 88 88 35 bd 54 30 cc 3c 92 30 bf b9 42 ad bf 39
       -0.04431966 0.024925388 -0.00036466547 0.00036559446
0003b0 14 95 8e bc 7a 8a 2d 3d 8a dc ad 3c ea c9 33 3c
       -0.01740507 0.04236839 0.021223325 0.010973433
0003c0 20 53 18 bd 0f fd 2d 3c ee 61 89 bd d0 7f e0 bc
       -0.03718865 0.010619416 -0.06708132 -0.027404696
0003d0 62 70 7b 3c cb 27 96 bd 8d 2a df bc 34 0d 83 bc
       0.015346618 -0.07331809 -0.02724197 -0.015997507
0003e0 69 08 50 3d 04 cd 2c bd 0e 5b 00 3d 31 bc fd 3c
       0.05078927 -0.042187706 0.031336837 0.030973526
0003f0 fc 0a c7 bc 32 d9 74 bc 6d c2 dc 3c 9b 7f ba bc
       -0.02429723 -0.0149443615 0.026948178 -0.022765925

convs.3.lins.0.weight f4 [1, 128]
000000 43 9e 26 bd 81 98 2d bc be ac d2 3e 10 f4 fd 3b
       -0.040678274 -0.010595442 0.41147417 0.007750042
000010 63 4c 92 be 9c 9a 2b bd 7c 9c 89 be 1c a3 02 bd
       -0.28573903 -0.041895494 -0.268772 -0.031893834
000020 d1 32 c0 3e c0 2a 70 be 6d 38 87 be 70 b0 3e be
       0.3753877 -0.23453808 -0.26410237 -0.18621993
000030 79 79 bd 3e c3 68 b7 3e 29 c7 d2 3e df a2 2d 3b
       0.3700674 0.35822114 0.41167572 0.0026494784
000040 bb 33 cc 3e 7d c3 ae bd e4 e9 0d be ba f4 d7 3e
       0.39883217 -0.0853338 -0.13858753 0.421789
000050 a0 1d 1a bd a5 4c 68 be c6 74 c5 3e fd d9 13 be
       -0.03762591 -0.22685488 0.38565654 -0.14438625
000060 a3 96 b5 bd 75 d5 8d be 7b fe c6 bd 40 6e 84 be
       -0.08866622 -0.27701917 -0.09716507 -0.25865364
000070 d8 23 18 3c 6c 46 a3 3c 37 5b de 3e f0 2c 80 be
       0.00928589 0.01993104 0.43428966 -0.25034285
000080 2e 17 c4 3e 1b a5 f6 bc e1 97 8a be 37 c8 8d bc
       0.38298935 -0.030108025 -0.27069 -0.017307384
000090 f3 b5 9d be c7 19 65 be 3d 1b b6 bd d0 1b 77 be
       -0.3080288 -0.22373115 -0.08891914 -0.24131703
0000a0 46 ca 12 bc dc 87 c7 3e 5e d0 0f 3f b5 95 c5 3e
       -0.008959359 0.3897084 0.5617732 0.3859078
0000b0 6f 62 bd 3e 89 6d 8f bb dd ab a6 be a5 52 9f 3c
       0.3698916 -0.0043770713 -0.32552996 0.019448588
0000c0 22 55 74 be b2 dc 82 be 51 0d 25 3f cf 42 35 be
       -0.238606 -0.25559002 0.64473444 -0.17701267
0000d0 e6 2e 59 be 25 da ca 3e 02 8b cd 3e ec 40 a4 be
       -0.21209297 0.39619556 0.40145117 -0.3208078
0000e0 77 bb 13 be bd 43 13 bd b1 8e b9 3e cc e3 ac 3e
       -0.14426981 -0.035953272 0.36241677 0.33767545
0000f0 2f fb 14 3f 0b 77 56 3a 6a 66 a8 be 5e 21 82 be
       0.58195776 0.0008181191 -0.32890636 -0.25416082
000100 c8 ab 57 bd 30 ae a0 be 02 81 b1 bc 41 eb 50 be
       -0.052654058 -0.31382895 -0.021667961 -0.20402242
000110 ce c5 fa 3e ce 05 6b be 8e b7 d5 3e f7 71 d6 3e
       0.48979038 -0.22951433 0.41741604 0.41883823
000120 33 0d 21 3f a9 d8 28 be 45 d9 fd bc 65 6d c0 3e
       0.62910765 -0.164889 -0.030987391 0.3758346
000130 c4 d8 ed 3e 70 e6 3c be 7e 40 e4 3e 25 e3 f0 3e
       0.46454442 -0.1844728 0.44580454 0.47048298
000140 99 9a 94 be 11 34 c8 3e ff b1 c0 bd 6f 82 be 3e
       -0.290242 0.39102224 -0.0940895 0.37208888
000150 97 4a cd 3e f7 c1 fe bd 70 04 d8 bc 02 20 be 3e
       0.4009597 -0.124393396 -0.026369303 0.37133795
000160 92 b5 b8 3e e2 f4 9d bd ab ce cb bd 8a 2b c2 3e
       0.36076027 -0.07712723 -0.09951528 0.37923843
000170 e6 f8 c4 3e a5 4b 23 be fd c2 be 3e 2f 34 d5 3e
       0.38471144 -0.15946825 0.3725814 0.41641375
000180 dd 23 d6 3e b3 5e 31 be e5 16 5f bd f1 f5 b8 bd
       0.41824237 -0.17321281 -0.054465193 -0.090312846
000190 1e 3d 8e bd f0 ad ca 3e e2 93 2e be 6a 34 aa 3e
       -0.06945251 0.3958583 -0.170486 0.33243114
0001a0 8b 58 7d be 3d 38 dd bc 44 ca b0 be 72 ec d3 3e
       -0.24740808 -0.027004356 -0.34529316 0.4139133
0001b0 e6 c9 f3 3e d9 90 61 bd 4d bf 7e be a0 ea b7 bd
       0.47614974 -0.055069778 -0.24877663 -0.08980298
0001c0 e3 21 bb 3e 90 88 00 3f 53 8a 47 be 8b 6a fc 3e
       0.3654929 0.5020838 -0.1948636 0.49300036
0001d0 71 bb cf bd e2 44 ad bd 38 f8 4b bd c6 47 c4 bc
       -0.101431735 -0.08460404 -0.049797267 -0.023960005
0001e0 9a 39 9f bd c9 68 95 be 6c d5 84 be 9b 24 3c 3d
       -0.077746585 -0.29181507 -0.25944078 0.045933347
0001f0 7d c1 c2 3e 80 bf ff bc ab 94 87 be dc 29 07 3b
       0.38038245 -0.031219244 -0.26480612 0.0020624315

batchnorm.0.module.weight f4 [30]
000000 9b 5d 64 3f de 56 69 3f 00 00 80 3f 00 00 80 3f
       0.8920533 0.91148174 1.0 1.0
000010 00 00 80 3f 00 00 80 3f 00 00 80 3f 00 00 80 3f
       1.0 1.0 1.0 1.0
000020 00 00 80 3f 00 00 80 3f 00 00 80 3f 00 00 80 3f
       1.0 1.0 1.0 1.0
000030 13 3f 76 3f 00 00 80 3f 00 00 80 3f 00 00 80 3f
       0.96189994 1.0 1.0 1.0
000040 00 00 80 3f 00 00 80 3f 00 00 80 3f 00 00 80 3f
       1.0 1.0 1.0 1.0
000050 00 00 80 3f 7d c6 86 3f ba 27 42 3f 00 00 80 3f
       1.0 1.0529324 0.7584187 1.0
000060 00 00 80 3f 00 00 80 3f fb 87 7e 3f 00 00 80 3f
       1.0 1.0 0.9942624 1.0
000070 00 00 80 3f 00 00 80 3f
       1.0 1.0

batchnorm.0.module.bias f4 [30]
000000 2f 57 09 3d 1c 9d 8e 3d 00 00 00 00 00 00 00 00
       0.03353041 0.0696356 0.0 0.0
000010 00 00 00 00 00 00 00 00 00 00 00 00 00 00 00 00
       0.0 0.0 0.0 0.0
000020 00 00 00 00 00 00 00 00 00 00 00 00 00 00 00 00
       0.0 0.0 0.0 0.0
000030 12 09 14 3d 00 00 00 00 00 00 00 00 00 00 00 00
       0.036141463 0.0 0.0 0.0
000040 00 00 00 00 00 00 00 00 00 00 00 00 00 00 00 00
       0.0 0.0 0.0 0.0
000050 00 00 00 00 ca 28 93 bd 3a 16 f4 3d 00 00 00 00
       0.0 -0.07185514 0.11918302 0.0
000060 00 00 00 00 00 00 00 00 06 50 0e 3c 00 00 00 00
       0.0 0.0 0.008686071 0.0
000070 00 00 00 00 00 00 00 00
       0.0 0.0

batchnorm.0.module.running_mean f4 [30]
000000 d5 fb a2 bb 29 f9 b0 bb 66 7a 8c bb 4f d8 bb bb
       -0.0049738684 -0.005400796 -0.004287052 -0.005732573
000010 d5 fb a2 bb d5 fb a2 bb 3f b7 70 bb 4c 23 8f bb
       -0.0049738684 -0.0049738684 -0.0036730317 -0.0043682214
000020 d5 fb a2 bb b6 e6 85 bb d5 fb a2 bb cb e6 67 bb
       -0.0049738684 -0.004086341 -0.0049738684 -0.0035385366
000030 d5 fb a2 bb 4f cd 80 bb 38 78 cf bb 7d 5c bb bb
       -0.0049738684 -0.0039307247 -0.00633147 -0.0057178126
000040 5a 50 8c bb 3e 2b 98 bb ab b4 96 bb 77 72 bd bb
       -0.0042820396 -0.0046438267 -0.004599174 -0.0057814675
000050 1d c2 d5 bb d5 fb a2 bb 4a 68 d7 bb 33 b2 b6 bb
       -0.0065233842 -0.0049738684 -0.0065737115 -0.005575442
000060 d5 fb a2 bb 3d c8 c0 bb d5 fb a2 bb d5 fb a2 bb
       -0.0049738684 -0.0058832453 -0.0049738684 -0.0049738684
000070 3c 06 b9 bb d4 b1 85 bb
       -0.005646495 -0.0040800367

batchnorm.0.module.running_var f4 [30]
000000 1f bb a5 38 aa d9 b0 3e 68 cf af 3e 95 48 aa 3e
       7.902667e-05 0.34541065 0.34337926 0.332585
000010 1f bb a5 38 1f bb a5 38 30 9c aa 3e 97 86 a9 3e
       7.902667e-05 7.902667e-05 0.33322287 0.33110496
000020 1f bb a5 38 18 ac b6 3e 1f bb a5 38 93 ea a6 3e
       7.902667e-05 0.35678172 7.902667e-05 0.3260084
000030 1f bb a5 38 0b c0 a8 3e b9 c6 ae 3e de 61 b0 3e
       7.902667e-05 0.32959017 0.34135988 0.34449667
000040 63 8b 9f 3e 0e 28 a7 3e 13 b3 ab 3e b9 87 a9 3e
       0.3116103 0.32647747 0.3353506 0.3311136
000050 13 9a a7 3e 1f bb a5 38 89 a7 a3 3e f0 5a b4 3e
       0.32734737 7.902667e-05 0.31963757 0.3522563
000060 1f bb a5 38 b0 2e a7 3e 1f bb a5 38 1f bb a5 38
       7.902667e-05 0.32652807 7.902667e-05 7.902667e-05
000070 cf 5b a8 3e 51 ca ae 3e
       0.32882544 0.3413873

batchnorm.1.module.weight f4 [30]
000000 db 37 32 3f ff 68 80 3f 00 00 80 3f 00 00 80 3f
       0.6961648 1.0032042 1.0 1.0
000010 00 00 80 3f 00 00 80 3f 00 00 80 3f 00 00 80 3f
       1.0 1.0 1.0 1.0
000020 00 00 80 3f 00 00 80 3f 00 00 80 3f 00 00 80 3f
       1.0 1.0 1.0 1.0
000030 6a 24 36 3f 00 00 80 3f 00 00 80 3f 00 00 80 3f
       0.71149313 1.0 1.0 1.0
000040 00 00 80 3f 00 00 80 3f 00 00 80 3f 00 00 80 3f
       1.0 1.0 1.0 1.0
000050 00 00 80 3f d3 4d 59 3f 05 14 59 3f 00 00 80 3f
       1.0 0.84884375 0.8479617 1.0
000060 00 00 80 3f 00 00 80 3f 11 a8 59 3f 00 00 80 3f
       1.0 1.0 0.85022074 1.0
000070 00 00 80 3f 00 00 80 3f
       1.0 1.0

batchnorm.1.module.bias f4 [30]
000000 fb b0 95 be 01 8f 36 3c 00 00 00 00 00 00 00 00
       -0.29236588 0.011142493 0.0 0.0
000010 00 00 00 00 00 00 00 00 00 00 00 00 00 00 00 00
       0.0 0.0 0.0 0.0
000020 00 00 00 00 00 00 00 00 00 00 00 00 00 00 00 00
       0.0 0.0 0.0 0.0
000030 58 6c 83 3e 00 00 00 00 00 00 00 00 00 00 00 00
       0.25668597 0.0 0.0 0.0
000040 00 00 00 00 00 00 00 00 00 00 00 00 00 00 00 00
       0.0 0.0 0.0 0.0
000050 00 00 00 00 44 ff 44 3e 5e 8b 9f 3d 00 00 00 00
       0.0 0.19238001 0.07790254 0.0
000060 00 00 00 00 00 00 00 00 f8 d6 2c be 00 00 00 00
       0.0 0.0 -0.16878879 0.0
000070 00 00 00 00 00 00 00 00
       0.0 0.0

batchnorm.1.module.running_mean f4 [30]
000000 b0 4c 2f bf 36 d5 83 bf ba 4e 82 bf 56 5b 81 bf
       -0.6847639 -1.0299442 -1.0180275 -1.0105999
000010 56 21 3b bf 56 21 3b bf 75 cb 81 bf eb ca 7f bf
       -0.7309774 -0.7309774 -1.0140215 -0.99919003
000020 56 21 3b bf 93 50 82 bf 56 21 3b bf 67 b0 81 bf
       -0.7309774 -1.0180839 -0.7309774 -1.0131959
000030 75 0d 3d bf 0a 24 85 bf a4 68 83 bf a7 82 81 bf
       -0.7384866 -1.0401623 -1.0266309 -1.0117997
000040 21 14 82 bf bb da 81 bf 50 1c 82 bf f5 31 83 bf
       -1.0162393 -1.0144876 -1.016489 -1.0249621
000050 85 00 83 bf f3 06 33 bf 69 03 73 bf 41 0f 82 bf
       -1.0234534 -0.6993248 -0.9492708 -1.0160905
000060 56 21 3b bf 42 ff 81 bf 70 32 3c bf 56 21 3b bf
       -0.7309774 -1.0156024 -0.7351446 -0.7309774
000070 c8 bb 81 bf 13 91 81 bf
       -1.0135431 -1.0122398

batchnorm.1.module.running_var f4 [30]
000000 ea e4 ea 3f ae 64 20 40 fa 35 27 40 2a f6 26 40
       1.8351109 2.506145 2.6126695 2.6087747
000010 65 b9 07 40 65 b9 07 40 21 ca 23 40 18 a4 29 40
       2.1206906 2.1206906 2.559212 2.6506405
000020 65 b9 07 40 e1 f7 22 40 65 b9 07 40 c8 72 26 40
       2.1206906 2.5463793 2.1206906 2.6007557
000030 73 6c 08 40 b2 7f 26 40 c7 8a 25 40 01 c3 28 40
       2.1316192 2.601544 2.5865953 2.636902
000040 d1 30 21 40 4a 46 27 40 c2 8a 26 40 89 fa 28 40
       2.5186045 2.613665 2.602219 2.6402915
000050 c5 06 27 40 fc 34 00 40 2a f5 03 40 48 04 26 40
       2.6097882 2.003234 2.0618386 2.5940113
000060 65 b9 07 40 26 9e 27 40 34 c2 08 40 65 b9 07 40
       2.1206906 2.6190276 2.1368532 2.1206906
000070 3f 04 26 40 fb 25 28 40
       2.5940092 2.6273181

batchnorm.2.module.weight f4 [30]
000000 85 5a b8 3f f3 d3 cd 3f 00 00 80 3f 00 00 80 3f
       1.4402624 1.6080307 1.0 1.0
000010 00 00 80 3f 00 00 80 3f 00 00 80 3f 00 00 80 3f
       1.0 1.0 1.0 1.0
000020 00 00 80 3f 00 00 80 3f 00 00 80 3f 00 00 80 3f
       1.0 1.0 1.0 1.0
000030 25 6b 72 3f 00 00 80 3f 00 00 80 3f 00 00 80 3f
       0.9469474 1.0 1.0 1.0
000040 00 00 80 3f 00 00 80 3f 00 00 80 3f 00 00 80 3f
       1.0 1.0 1.0 1.0
000050 00 00 80 3f 09 9d 8c 3f 72 82 4b 3f 00 00 80 3f
       1.0 1.0985423 0.7949592 1.0
000060 00 00 80 3f 00 00 80 3f c9 7d ae 3f 00 00 80 3f
       1.0 1.0 1.3632137 1.0
000070 00 00 80 3f 00 00 80 3f
       1.0 1.0

batchnorm.2.module.bias f4 [30]
000000 f3 fd e2 3e 68 5b 1b 3f 00 00 00 00 00 00 00 00
       0.44334373 0.6068635 0.0 0.0
000010 00 00 00 00 00 00 00 00 00 00 00 00 00 00 00 00
       0.0 0.0 0.0 0.0
000020 00 00 00 00 00 00 00 00 00 00 00 00 00 00 00 00
       0.0 0.0 0.0 0.0
000030 92 9e 5b bd 00 00 00 00 00 00 00 00 00 00 00 00
       -0.05361802 0.0 0.0 0.0
000040 00 00 00 00 00 00 00 00 00 00 00 00 00 00 00 00
       0.0 0.0 0.0 0.0
000050 00 00 00 00 c8 76 c5 3d b7 f8 4b be 00 00 00 00
       0.0 0.09641796 -0.19919096 0.0
000060 00 00 00 00 00 00 00 00 68 96 bb 3e 00 00 00 00
       0.0 0.0 0.36638188 0.0
000070 00 00 00 00 00 00 00 00
       0.0 0.0

batchnorm.2.module.running_mean f4 [30]
000000 c8 93 17 bc c9 6d fb bd 92 be ed bd 62 c1 ee bd
       -0.009251542 -0.12276799 -0.11608614 -0.116579786
000010 32 89 30 bd 32 89 30 bd 8b df ee bd 23 9c e7 bd
       -0.04309959 -0.04309959 -0.11663731 -0.113090776
000020 32 89 30 bd 02 99 ee bd 32 89 30 bd ae b8 ef bd
       -0.04309959 -0.11650278 -0.04309959 -0.11705147
000030 a1 8a 77 bd 4b 35 f2 bd e9 45 f5 bd 60 c1 f0 bd
       -0.06043494 -0.11826571 -0.11976225 -0.11755633
000040 b3 44 f1 bd 81 06 ef bd 6b 62 ec bd 9c cd ed bd
       -0.117806815 -0.116711624 -0.11542209 -0.116114825
000050 b2 ef f1 bd e2 65 64 bd c2 48 f1 bd 0c 9d ed bd
       -0.118132964 -0.055761226 -0.117814556 -0.1160222
000060 32 89 30 bd 20 43 f1 bd 4a eb bd bc 32 89 30 bd
       -0.04309959 -0.11780381 -0.023183484 -0.04309959
000070 73 9b ea bd 88 c2 f3 bd
       -0.11455431 -0.11902338

batchnorm.2.module.running_var f4 [30]
000000 bf b3 ec 3d d0 4a d4 3e a2 d0 c4 3e 9f a2 c2 3e
       0.11557721 0.41463327 0.38440424 0.38014695
000010 97 1c 46 3f 97 1c 46 3f 45 30 c9 3e c3 7e bd 3e
       0.77387375 0.77387375 0.3929464 0.37010774
000020 97 1c 46 3f 0f e9 ca 3e 97 1c 46 3f 73 d9 c2 3e
       0.77387375 0.39630935 0.77387375 0.38056526
000030 55 5f 4d 3f ba 26 cd 3e 81 ad c8 3e 21 d4 be 3e
       0.8022359 0.4006861 0.39194873 0.37271217
000040 bd cb cc 3e dd 67 c3 3e 60 94 c6 3e 69 42 c6 3e
       0.3999919 0.3816518 0.38785076 0.38722542
000050 23 31 c6 3e e0 b9 69 3f f9 92 c4 3e 4d b5 c6 3e
       0.38709363 0.9129925 0.3839338 0.38810197
000060 97 1c 46 3f 8d 02 c2 3e 5c 94 ac 3e 97 1c 46 3f
       0.77387375 0.3789257 0.3370694 0.77387375
000070 ff 67 c7 3e bb 21 bf 3e
       0.3894653 0.37330422

batchnorm.3.module.weight f4 [30]
000000 00 00 80 3f 00 00 80 3f 00 00 80 3f 00 00 80 3f
       1.0 1.0 1.0 1.0
000010 00 00 80 3f 00 00 80 3f 00 00 80 3f 00 00 80 3f
       1.0 1.0 1.0 1.0
000020 00 00 80 3f 00 00 80 3f 00 00 80 3f 00 00 80 3f
       1.0 1.0 1.0 1.0
000030 00 00 80 3f 00 00 80 3f 00 00 80 3f 00 00 80 3f
       1.0 1.0 1.0 1.0
000040 00 00 80 3f 00 00 80 3f 00 00 80 3f 00 00 80 3f
       1.0 1.0 1.0 1.0
000050 00 00 80 3f 00 00 80 3f 00 00 80 3f 00 00 80 3f
       1.0 1.0 1.0 1.0
000060 00 00 80 3f 00 00 80 3f 00 00 80 3f 00 00 80 3f
       1.0 1.0 1.0 1.0
000070 00 00 80 3f 00 00 80 3f
       1.0 1.0

batchnorm.3.module.bias f4 [30]
000000 00 00 00 00 00 00 00 00 00 00 00 00 00 00 00 00
       0.0 0.0 0.0 0.0
000010 00 00 00 00 00 00 00 00 00 00 00 00 00 00 00 00
       0.0 0.0 0.0 0.0
000020 00 00 00 00 00 00 00 00 00 00 00 00 00 00 00 00
       0.0 0.0 0.0 0.0
000030 00 00 00 00 00 00 00 00 00 00 00 00 00 00 00 00
       0.0 0.0 0.0 0.0
000040 00 00 00 00 00 00 00 00 00 00 00 00 00 00 00 00
       0.0 0.0 0.0 0.0
000050 00 00 00 00 00 00 00 00 00 00 00 00 00 00 00 00
       0.0 0.0 0.0 0.0
000060 00 00 00 00 00 00 00 00 00 00 00 00 00 00 00 00
       0.0 0.0 0.0 0.0
000070 00 00 00 00 00 00 00 00
       0.0 0.0

batchnorm.3.module.running_mean f4 [30]
000000 00 00 00 00 00 00 00 00 00 00 00 00 00 00 00 00
       0.0 0.0 0.0 0.0
000010 00 00 00 00 00 00 00 00 00 00 00 00 00 00 00 00
       0.0 0.0 0.0 0.0
000020 00 00 00 00 00 00 00 00 00 00 00 00 00 00 00 00
       0.0 0.0 0.0 0.0
000030 00 00 00 00 00 00 00 00 00 00 00 00 00 00 00 00
       0.0 0.0 0.0 0.0
000040 00 00 00 00 00 00 00 00 00 00 00 00 00 00 00 00
       0.0 0.0 0.0 0.0
000050 00 00 00 00 00 00 00 00 00 00 00 00 00 00 00 00
       0.0 0.0 0.0 0.0
000060 00 00 00 00 00 00 00 00 00 00 00 00 00 00 00 00
       0.0 0.0 0.0 0.0
000070 00 00 00 00 00 00 00 00
       0.0 0.0

batchnorm.3.module.running_var f4 [30]
000000 00 00 80 3f 00 00 80 3f 00 00 80 3f 00 00 80 3f
       1.0 1.0 1.0 1.0
000010 00 00 80 3f 00 00 80 3f 00 00 80 3f 00 00 80 3f
       1.0 1.0 1.0 1.0
000020 00 00 80 3f 00 00 80 3f 00 00 80 3f 00 00 80 3f
       1.0 1.0 1.0 1.0
000030 00 00 80 3f 00 00 80 3f 00 00 80 3f 00 00 80 3f
       1.0 1.0 1.0 1.0
000040 00 00 80 3f 00 00 80 3f 00 00 80 3f 00 00 80 3f
       1.0 1.0 1.0 1.0
000050 00 00 80 3f 00 00 80 3f 00 00 80 3f 00 00 80 3f
       1.0 1.0 1.0 1.0
000060 00 00 80 3f 00 00 80 3f 00 00 80 3f 00 00 80 3f
       1.0 1.0 1.0 1.0
000070 00 00 80 3f 00 00 80 3f
       1.0 1.0
