Entrenar/runs/30/FCNN_global/04-12_17:03:41/weights/best_model.pt (torch, 150626 bytes, 14 tensors)

linears.0.weight f4 [64, 60]
0	0x3dca2403	0.0987015
1	0x3ddb7353	0.10715356
2	0x3d6d56f6	0.05794426
3	0x3d7e2a53	0.062052082
4	0x3d233e37	0.039854255
5	0x3d858c39	0.06520886
6	0xbd8e2d4e	-0.06942235
7	0xbd8c46df	-0.06849455
8	0x3de9137d	0.1138067
9	0xbdc1f7d5	-0.09471098
10	0x3de5cfcb	0.11221274
11	0x3cc5efba	0.024162162
12	0x3e685672	0.22689226
13	0xbb5602d0	-0.0032655485
14	0x3e37695b	0.17911284
15	0x3de4433f	0.11145639
16	0x3dcbd1a1	0.09952093
17	0x3c9c51f4	0.019082047
18	0xbd87c31b	-0.0662901
19	0xbe0477be	-0.12936303
20	0xbd73a22f	-0.059480842
21	0xbc780d2d	-0.01513986
22	0xbd8004b8	-0.062509
23	0x3d8c9594	0.06864467
24	0xbdd0b4c0	-0.10190725
25	0xbd73c73c	-0.059516177
26	0x3d277374	0.04088159
27	0xbe45e105	-0.1932412
28	0x3e09aa6f	0.13443922
29	0xbe1fc18f	-0.1560118
30	0x3dd02e97	0.10165136
31	0xbda9a02a	-0.08282502
32	0x3e4005f4	0.18752271
33	0x3dff4d84	0.12465957
34	0xbd832014	-0.06402603
35	0x3db9c8e0	0.09071517
36	0xbbdb2176	-0.0066873385
37	0x3df7293d	0.120684125
38	0x3dbb0240	0.091312885
39	0xbd8bfd71	-0.068354495
40	0x3d891521	0.06693483
41	0x3dc5b657	0.09653919
42	0x3d5e8bbb	0.054332476
43	0x3dec0eed	0.11526284
44	0x3d29d89d	0.041466344
45	0xbde3f3d3	-0.1113049
46	0x3db2aefd	0.087247826
47	0xbdbd9b28	-0.09258109
48	0x3d8644f6	0.06556122
49	0xbda12687	-0.07868677
50	0xbe414dc8	-0.18877327
51	0x3cd306f3	0.02576015
52	0xbdcacc2a	-0.099022225
53	0x3dd8f269	0.10593111
54	0x3d184ef8	0.037184685
55	0x3d5b0853	0.053474735
56	0x3dd67df6	0.10473244
57	0xbd8f0759	-0.06983823
58	0x3df54f47	0.119780116
59	0xbd0efa72	-0.034906812
60	0x3c052dbe	0.008128582
61	0xbdb475ee	-0.08811556
62	0x3dd16810	0.102249265
63	0xbd965699	-0.07340736
64	0x3e216d3a	0.15764323
65	0xbdb58b26	-0.08864431
66	0x3e031cee	0.12804005
67	0x3b247a0b	0.0025097157
68	0xbd9daf5f	-0.07699465
69	0xbd9db1cf	-0.0769993
70	0x3dedcf0c	0.11611757
71	0x3d303866	0.043022536
72	0x3e156b89	0.14591803
73	0xbd9ac613	-0.07557311
74	0xbe7dbf6c	-0.24780053
75	0xbe1e9b15	-0.15488847
76	0xbdb1db28	-0.08684379
77	0x3d562e85	0.05229046
78	0x3ca8286d	0.020527089
79	0x3df11f50	0.117735505
80	0xbd888a67	-0.06667023
81	0xbdb43ddc	-0.08800861
82	0x3e085282	0.13312724
83	0xbe424d52	-0.18974808
84	0x3da077d0	0.078353524
85	0xbcfaf70c	-0.03063538
86	0x3dd84993	0.10560908
87	0x3bf7e9f2	0.0075657303
88	0xbbb56c2c	-0.0055365767
89	0x3d3abe30	0.045591533
90	0x3d550179	0.052003358
91	0xbc533e8f	-0.012893333
92	0x3d2df02a	0.042465366
93	0x3d41e27e	0.04733514
94	0xbdbc0c98	-0.091820896
95	0xbc37ed09	-0.011225947
96	0x3e146fd8	0.1449579
97	0x3db30b05	0.08742336
98	0xbe135851	-0.14389159
99	0xbe706c24	-0.23478752
100	0xbdc61c11	-0.09673322
101	0xbcc6f87a	-0.024288405
102	0xbc8b97fc	-0.017040245
103	0xbdbfebce	-0.09371148
104	0x3d11e184	0.03561546
105	0xbdf98acc	-0.121846765
106	0xbda4d109	-0.08047683
107	0xbd928357	-0.07153957
108	0xbde766fb	-0.11298939
109	0xbda859cd	-0.08220253
110	0x3e761e6a	0.2403504
111	0xbc438340	-0.011933148
112	0x3d22f3c2	0.039783247
113	0xbdf69902	-0.12040903
114	0xbdada5ed	-0.084789135
115	0xbd3002e3	-0.042971503
116	0x3cc12a15	0.023579637
117	0xbd8226a0	-0.063550234
118	0xbe0aeee3	-0.1356769
119	0xbde1b3ef	-0.11020648
120	0x39bb92cc	0.00035776792
121	0xbd44c3d4	-0.04803832
122	0x3d905f27	0.07049399
123	0xbcff52a8	-0.031167343
124	0xbe8a3113	-0.26990566
125	0xbd868407	-0.06568151
126	0xbe27682d	-0.16348334
127	0xbe1bb977	-0.15207468
128	0x3dddb013	0.10824599
129	0xbcd1e462	-0.025621597
130	0x3de37c34	0.11107674
131	0x3d24c30c	0.040225074
132	0xbe6aee5b	-0.22942488
133	0xbdb2fd82	-0.08739759
134	0xbda2fd6c	-0.07958493
135	0x3dbd6727	0.092481904
136	0xbddb7790	-0.10716164
137	0xbe036d07	-0.1283456
138	0x3d76fa79	0.060297463
139	0xbc3eb2fd	-0.011639354
140	0x3d4ddee5	0.050261397
141	0xbdd8fad8	-0.1059472
142	0x3e0128d1	0.12613226
143	0xbdf48405	-0.11939243
144	0xbcb69dc8	-0.022292033
145	0x3cdce59f	0.02696496
146	0x3da209bc	0.07912013
147	0x3e3b3da2	0.1828523
148	0x3dd339b1	0.10313738
149	0xbdb5e0b9	-0.08880753
150	0x3d5ab5ae	0.05339592
151	0xbe0ee7fa	-0.1395568
152	0xbd147793	-0.036246847
153	0xbdcae03b	-0.0990605
154	0x3e3cc273	0.18433551
155	0xbb9d4c78	-0.0048003756
156	0x3cff3d15	0.031157056
157	0xbda45d89	-0.08025653
158	0x3d84fb06	0.064931914
159	0xbe013b22	-0.12620214
160	0x3e200df0	0.15630317
161	0x3ccbaf7c	0.02486395
162	0x3c880c28	0.016607359
163	0xbde8fffc	-0.1137695
164	0xbb850146	-0.0040589897
165	0xbcc481dc	-0.023987703
166	0x3cb8d70a	0.022563476
167	0x3cc3061e	0.023806628
168	0x3cebc96a	0.028782565
169	0xbd9248ad	-0.07142768
170	0xbdf6966b	-0.12040409
171	0xbe0f4881	-0.13992502
172	0x3d93a0d8	0.07208413
173	0xbd071fc3	-0.032989275
174	0xbd96db87	-0.0736609
175	0xbd3514b0	-0.044209182
176	0xbe07c515	-0.13258775
177	0xbcc4a336	-0.024003606
178	0x3d43a4be	0.047764532
179	0xbdf5a5cb	-0.11994513
180	0x3cf59fd2	0.029983435
181	0x3d8895aa	0.06669171
182	0x3d92b603	0.07163622
183	0xbe0777e0	-0.13229322
184	0x3c912a3e	0.017720338
185	0x3e166fcb	0.14691083
186	0x3daf9b61	0.08574558
187	0x3d6cbad9	0.05779538
188	0xbd0c064d	-0.034185696
189	0x3c624847	0.013811178
190	0xbcbad389	-0.022805946
191	0xbd1d9493	-0.03847177
192	0x3dcda7ab	0.10041746
193	0x3d2e0ea5	0.042494435
194	0xbcc68543	-0.024233466
195	0x3db78074	0.08960047
196	0x3af6ebbc	0.0018838565
197	0xbbfc95e9	-0.0077083004
198	0x3d4b47d6	0.049629055
199	0x3e158a4d	0.14603539
200	0xbdf0239f	-0.11725544
201	0xbd4324da	-0.047642566
202	0x3e0691f4	0.13141614
203	0x3ca508c4	0.020145781
204	0xbbd26808	-0.006421093
205	0xbd9f67da	-0.0778348
206	0xbe4e9cbc	-0.20176977
207	0xbe25685f	-0.16153096
208	0xbde23f58	-0.11047238
209	0x3e0a915b	0.13532011
210	0x3dd7ab94	0.10530773
211	0x3e005ca7	0.12535344
212	0xbd48d181	-0.049027923
213	0x3b9cf319	0.0047897217
214	0xbd270b1d	-0.040782083
215	0x3e930f39	0.2872255
216	0x3d8d8fe8	0.069122136
217	0xbd30a923	-0.04313005
218	0x3e0d8bd2	0.13822868
219	0xbd842a34	-0.06453362
220	0xbd42f97f	-0.04760122
221	0x3deb7e5b	0.1149871
222	0xbd70713e	-0.058701746
223	0xbcd4029a	-0.025880147
224	0xbdb4d66f	-0.088299625
225	0xbd6aa030	-0.057281673
226	0x3d8d2198	0.06891173
227	0x3dc7d793	0.097579144
228	0xbdb85b35	-0.09001771
229	0xbe0278a8	-0.12741339
230	0x3cd70b76	0.026250582
231	0x3e3e6377	0.1859263
232	0x3d7de032	0.061981387
233	0x3dde7d79	0.10863776
234	0x3d8a8249	0.06763131
235	0x3d05d53c	0.03267406
236	0x3df6a19f	0.120425455
237	0x3d456b50	0.048198044
238	0xbd93bd6a	-0.07213862
239	0xbe2f6d0d	-0.17131443
240	0x3d587791	0.052848402
241	0xbd81cf4f	-0.06338369
242	0xbd61ce55	-0.055128414
243	0xbe487e59	-0.19579448
244	0xbd873541	-0.06601954
245	0x3b7a227d	0.003816753
246	0xbdaf2360	-0.08551669
247	0x3d64f947	0.055901792
248	0xbd1d27a6	-0.03836789
249	0x3da3390d	0.07969866
250	0xbd29a412	-0.041416235
251	0xbdc1f3b6	-0.09470312
252	0x3d96799a	0.073474124
253	0xbe1235ed	-0.14278384
254	0xbb9ad217	-0.0047247517
255	0x3d19b526	0.037526272

linears.0.bias f4 [64]
0	0xbddf1373	-0.108923815
1	0x3d49bbf6	0.04925152
2	0x3d4354c2	0.047688253
3	0xbc4be331	-0.012444303
4	0x3d6cd6d1	0.057822052
5	0x3d914472	0.07093133
6	0xbe4083c4	-0.18800265
7	0x3ba7e668	0.005123902
8	0xbb5c632f	-0.0033628454
9	0xbdb3129d	-0.087437846
10	0x3db6874e	0.08912526
11	0x3dc36ec5	0.09542612
12	0xbd1c5e59	-0.038175914
13	0x3dc513d1	0.0962292
14	0xbdd9425f	-0.106083624
15	0x3d57806a	0.0526127
16	0xbc887c1c	-0.016660742
17	0xbdb30229	-0.087406464
18	0x3d488e54	0.04896386
19	0x3db3bd32	0.087763205
20	0x3ceca57d	0.028887505
21	0x3dbc7c18	0.092033565
22	0x3d0462aa	0.032320656
23	0x3d8d23ab	0.06891569
24	0x3d258f2c	0.040419742
25	0x3bda62a0	0.006664589
26	0xbb54d8fa	-0.003247796
27	0x3d27b054	0.040939644
28	0xbd8983fc	-0.06714627
29	0x388da233	6.753616e-05
30	0xbdd3debe	-0.10345219
31	0xbd86f28f	-0.06589233
32	0xbdfdbccb	-0.12389525
33	0x3d8d08fe	0.06886481
34	0xbd9ac09a	-0.07556267
35	0x3d1c80a9	0.038208637
36	0x3d7c6884	0.06162311
37	0x3e12f58a	0.14351478
38	0x3e26a8cd	0.1627533
39	0xbd91ff02	-0.07128717
40	0x3ded86bf	0.115979664
41	0xbde1b6e4	-0.11021212
42	0x3cf29da5	0.029616186
43	0x3e106365	0.14100416
44	0x3de3249d	0.11090968
45	0x3a55dacc	0.00081579085
46	0xbd8eb122	-0.06967379
47	0x3d99a943	0.07502987
48	0x3dc21227	0.094761185
49	0xbd5c6655	-0.05380853
50	0xbcfbd64c	-0.030741833
51	0xbdb802be	-0.08984898
52	0x3ceedae0	0.029157102
53	0x3d648ac3	0.055796396
54	0x3db1f27c	0.08688828
55	0xbc90d3ff	-0.017679213
56	0xbd8be94b	-0.068316065
57	0xbd8652ab	-0.065587364
58	0xbd87611e	-0.066103205
59	0xbd486112	-0.0489207
60	0x3d4145ad	0.04718559
61	0xbde21031	-0.110382445
62	0x3c239a4d	0.009985519
63	0xbdf8e93b	-0.1215386

linears.1.weight f4 [128, 64]
0	0xbe1af2fd	-0.15131755
1	0xbdeba0de	-0.11505292
2	0xbdf65f8a	-0.120299414
3	0xbdb92879	-0.09040923
4	0x3d9f8e51	0.077908166
5	0x3e023f6b	0.12719505
6	0x3db3a335	0.08771364
7	0xbd90f148	-0.07077271
8	0x3dbd389c	0.09239313
9	0x3d1b039f	0.03784525
10	0x3e2a05d6	0.16603789
11	0xbc1c0ede	-0.009525029
12	0x3dace6cf	0.08442461
13	0xbda754f0	-0.081704974
14	0xbd16d51d	-0.036824334
15	0x3d85bd30	0.06530225
16	0xbd1ff56a	-0.039052404
17	0x3cec7134	0.028862573
18	0x3d6dbbf5	0.058040578
19	0xbbb14706	-0.005410078
20	0x3d3b0357	0.045657482
21	0xbe51d948	-0.20493042
22	0xbd39459f	-0.04523241
23	0x3e0c76a4	0.13717133
24	0xbe03355c	-0.12813324
25	0xbd0c5937	-0.03426477
26	0xbdd6986c	-0.10478291
27	0x3e4fe864	0.20303494
28	0x3d0fbfe4	0.03509511
29	0x3dfed48d	0.124428846
30	0x3e3899cf	0.18027423
31	0x3dbcf806	0.09226994
32	0x3e642428	0.22279418
33	0xbdd78d77	-0.10525029
34	0x3d6f1d7e	0.058377735
35	0xbe5ef56a	-0.21773306
36	0xbc21eb3b	-0.0098827435
37	0x3d8e91bd	0.06961391
38	0x3d3a562e	0.045492344
39	0xbe7ebbb2	-0.24876288
40	0x3daab201	0.08334733
41	0x3cd6422b	0.026154598
42	0xbdb572c8	-0.088597834
43	0x3e72a72f	0.23696588
44	0x3d41e2dc	0.04733549
45	0xbd51ed2c	-0.051251575
46	0x3d9e99a2	0.07744147
47	0xbe2eec85	-0.17082413
48	0xbc1a78d9	-0.009428226
49	0xbd087dc1	-0.033323053
50	0x3d6f6424	0.05844511
51	0xbd3aa0cd	-0.045563508
52	0xbde4886a	-0.111588314
53	0x3d512190	0.0510574
54	0x3d373f81	0.044738296
55	0x3d1102c9	0.035403047
56	0x3d5119e9	0.0510501
57	0xbdb4c030	-0.08825719
58	0x3dd9d88d	0.10637007
59	0x3d14ea59	0.036356304
60	0xbd753bff	-0.05987167
61	0x3d85e182	0.06537153
62	0x3d45cbe0	0.048290133
63	0x3d712ba2	0.058879502
64	0xbde6cb35	-0.112692274
65	0x3d19c593	0.037541937
66	0x3c3c8878	0.011507146
67	0x3d4bd6d9	0.04976544
68	0xbdab9204	-0.0837746
69	0xbcd2f1c1	-0.025750043
70	0xbdacc184	-0.08435348
71	0x3d541c50	0.051784813
72	0x3d8e31f7	0.06943124
73	0x3e384ca6	0.17997989
74	0xbd01cbbb	-0.031688433
75	0x3ddc619c	0.10760805
76	0x3d92f433	0.071754836
77	0x3ddc175b	0.10746642
78	0x3d6217e4	0.055198565
79	0xbd6fe42c	-0.05856721
80	0xbcc9d92e	-0.024639692
81	0x3db6590a	0.089037016
82	0x3d810092	0.06298937
83	0xbdbc33b5	-0.0918955
84	0xbe23d2df	-0.1599841
85	0xbd1fb22f	-0.03898829
86	0xbbfff4ed	-0.00781118
87	0xbc1f287e	-0.009714244
88	0x3d6941ed	0.056947637
89	0xbd4cc067	-0.049988177
90	0xbd4fbee0	-0.050719142
91	0xbcccbfb7	-0.02499376
92	0x3d8fb2cc	0.07016525
93	0x3e1780e7	0.14795266
94	0xbdc959fd	-0.09831617
95	0xbe9fe8a3	-0.31232175
96	0x3c2cf38a	0.010556111
97	0xbd34a5fd	-0.04410361
98	0xbcb1831e	-0.021668967
99	0xbdcdc22c	-0.10046801
100	0x3d0a5428	0.033771664
101	0x3dfbef69	0.12301523
102	0x3da90632	0.08253135
103	0x3bf3cec3	0.0074404194
104	0xbd4b6163	-0.049653422
105	0xbe1b21f1	-0.15149666
106	0xbcfdef10	-0.030997783
107	0x3e19c287	0.15015613
108	0xbbaa34c0	-0.0051942766
109	0xbd68198e	-0.056664996
110	0x3dae2438	0.08503002
111	0xbd8f95ce	-0.07010995
112	0x3de3299c	0.11091921
113	0xbeaffbad	-0.343717
114	0x3e1185d9	0.14211215
115	0x3ce97f67	0.028503133
116	0x3d58bc06	0.052913688
117	0xbbc0a571	-0.005879097
118	0xbe276919	-0.16348685
119	0x3c45ef92	0.012081044
120	0xbe90473f	-0.28179356
121	0x3dea3aa5	0.11436967
122	0x3d799fdb	0.060943466
123	0x3daccd78	0.084376276
124	0x392940da	0.00016141255
125	0x3df5d57a	0.12003608
126	0xbd364516	-0.04449948
127	0xbcee53ed	-0.029092753
128	0x3e848ace	0.2588715
129	0xbdf5ded5	-0.120053925
130	0x3d3b86f3	0.045782994
131	0x3a52138a	0.0008013776
132	0x3de3fa12	0.111316815
133	0x3d269250	0.04066688
134	0x3de2a7ed	0.110671856
135	0x3aab80e1	0.0013084674
136	0xbca34c6b	-0.0199339
137	0x3d2b02c0	0.04175067
138	0x3d9e5a4f	0.07732069
139	0x3e24edcc	0.16106337
140	0x3d47b1b9	0.048753474
141	0xbd349111	-0.04408366
142	0xbe1da590	-0.15395188
143	0x3cdb50c1	0.026771905
144	0xbd59ea26	-0.053201817
145	0x3d2b9d03	0.041897785
146	0x3d16fc1a	0.036861517
147	0x3cf3f5da	0.029780317
148	0xbe28945d	-0.16462846
149	0x3e19ef34	0.15032655
150	0xbe10edcd	-0.14153214
151	0xbcfa1fa5	-0.030532667
152	0xbd45b6c8	-0.048270017
153	0xbe3e073a	-0.18557444
154	0xbd9c125b	-0.076206885
155	0x3dde5afe	0.10857199
156	0x3c5a9d4b	0.013343166
157	0x3e070202	0.1318436
158	0xbd126507	-0.03574088
159	0xbd941979	-0.07231421
160	0xbd49ed13	-0.049298357
161	0x3d00bc95	0.031429846
162	0x3e319de5	0.17345388
163	0xbc13ac5d	-0.009013263
164	0xbabcadec	-0.0014395094
165	0x3db0100f	0.08596813
166	0x3d21bc46	0.039486192
167	0x3e0552e4	0.13019902
168	0xbdaaba36	-0.08336298
169	0x3d0352cf	0.032061394
170	0xbcee046e	-0.029054847
171	0xbe10642c	-0.14100713
172	0x3e18949b	0.14900438
173	0xbec9fe18	-0.3945167
174	0xbdd87a63	-0.105702184
175	0x3cb6d7ed	0.022319758
176	0xbc10c185	-0.008835201
177	0xbe06742e	-0.13130257
178	0x3c5368ac	0.012903374
179	0x3cd60c20	0.026128829
180	0xbcf02efc	-0.029319279
181	0xbe21ea93	-0.15812139
182	0xbb4d9030	-0.003136646
183	0xbd4e718b	-0.05040125
184	0xbdd90cb8	-0.10598129
185	0xbcb3faaa	-0.021970112
186	0x3d412cc3	0.04716183
187	0x3e323c64	0.1740585
188	0x3e01fbbb	0.12693684
189	0xbc8f07c1	-0.017459752
190	0x3d4fd616	0.050741278
191	0x3a2b319f	0.00065305264
192	0xbc5520e2	-0.013008328
193	0x3dddc5e1	0.10828758
194	0xbdd6d70a	-0.10490234
195	0x3d886285	0.06659416
196	0xbe1bdbc9	-0.1522056
197	0x3d3ba5c5	0.045812387
198	0xbdd065fc	-0.10175702
199	0x3dce4077	0.100708894
200	0x3b9390f3	0.0045033633
201	0xbe962c01	-0.29330447
202	0x3ccc81dd	0.024964267
203	0xbd7e845c	-0.062137946
204	0x3d854c5b	0.06508704
205	0x3da7c153	0.081911705
206	0x3dce51c4	0.10074189
207	0x3e496d3c	0.19670576
208	0xbe855d3f	-0.26047704
209	0xbd931b8b	-0.07182988
210	0x3de31dcf	0.1108967
211	0x3de3be4c	0.111202806
212	0x3d2cee74	0.042219594
213	0x3d007c5a	0.03136859
214	0xbc8dd350	-0.017312676
215	0xbd44b177	-0.048020806
216	0x3e1a150b	0.1504709
217	0xbe417b68	-0.18894732
218	0xbe19fafc	-0.15037149
219	0x3da3930c	0.07987031
220	0x3c5e3ea4	0.013564739
221	0x3dcd5654	0.100262314
222	0xbdc46e34	-0.09591332
223	0xbdc480aa	-0.09594853
224	0xbe64d871	-0.22348191
225	0xbe0a98e8	-0.13534892
226	0xbdaf65e6	-0.085643575
227	0x3cdac9ec	0.026707612
228	0x3c9aed3d	0.018911952
229	0x3df042e8	0.11731511
230	0xbd7fa471	-0.062412683
231	0xbe12164d	-0.1426632
232	0xbd4f6cf0	-0.050641
233	0x3e19438e	0.14967176
234	0x3e42e346	0.1903201
235	0xbb1bf6f4	-0.0023798319
236	0x3cfd05d6	0.030886572
237	0x3e2a4528	0.16627944
238	0x3e820117	0.25391456
239	0x3c1c21b6	0.009529522
240	0xbc862998	-0.016377255
241	0x3b98e540	0.0046660006
242	0x3bf6a392	0.0075268233
243	0x3cbd6610	0.023119956
244	0xbdb6da78	-0.08928388
245	0x3dcb2520	0.099191904
246	0x3c9aa943	0.018879538
247	0xbcc3cc45	-0.023901114
248	0x3dad19b7	0.0845217
249	0xbda76a4b	-0.08174571
250	0x3d951d9d	0.07281039
251	0xbce48bda	-0.027898718
252	0xbe21d8fd	-0.1580543
253	0xbd88603f	-0.066589825
254	0x3df32b8b	0.118735395
255	0xbc8ec6ec	-0.017428838

linears.1.bias f4 [128]
0	0x3d9e143c	0.07718703
1	0xbe396dad	-0.18108244
2	0x3de86cfa	0.11348911
3	0xbe371106	-0.17877588
4	0xbc893240	-0.016747594
5	0xbd3a35c8	-0.045461446
6	0xbdae262d	-0.08503375
7	0xbd877080	-0.066132545
8	0xbe5bfd73	-0.21483402
9	0xbe42cf83	-0.19024472
10	0x3e260db3	0.16216163
11	0x3d755c6b	0.05990259
12	0x3d2a71bb	0.041612368
13	0x3c9bb1d0	0.019005686
14	0xbc783ad8	-0.015150748
15	0xbdaa1fe9	-0.08306868
16	0x3de828f4	0.11335936
17	0x3dd646bf	0.104627125
18	0x3e007c8b	0.1254751
19	0x3e331e60	0.17492056
20	0x3da5e975	0.08101169
21	0xbdc6a121	-0.09698702
22	0x3e2e6a23	0.17032675
23	0x3d5a80be	0.053345434
24	0xbe322261	-0.17395927
25	0x3c8bbf95	0.017059127
26	0x3d497953	0.04918797
27	0xbe2e10b5	-0.1699856
28	0x3e5308cb	0.20608823
29	0x3d48165c	0.04884945
30	0x3d5c31d3	0.053758454
31	0x3e0a0e64	0.13482052
32	0xbe87d128	-0.2652676
33	0xbc69b4db	-0.014264311
34	0xbe57226c	-0.21009225
35	0x3d66d273	0.056353044
36	0xbe0a1c9a	-0.13487473
37	0xbe0019fb	-0.12509911
38	0xbd3cc932	-0.046090312
39	0x3cbe5e38	0.023238286
40	0x3d285e85	0.041105766
41	0xbcdea92d	-0.027180279
42	0xbd9f2d37	-0.07772296
43	0x3e7b5209	0.24543013
44	0x3d25f006	0.040512107
45	0xbdaf4150	-0.08557379
46	0xbe55d220	-0.20880938
47	0xbd062ed4	-0.032759503
48	0xbe7ad705	-0.24496086
49	0xbbc73cd7	-0.0060802507
50	0x3d9514b3	0.07279339
51	0xbe0671cd	-0.13129349
52	0x3d810454	0.06299654
53	0x3d93bf98	0.07214278
54	0xbe177471	-0.14790513
55	0x3da5fb12	0.081045285
56	0x3db31c5c	0.087456435
57	0xbdcae06e	-0.09906088
58	0xbc8f4c75	-0.017492512
59	0xbdc77d6e	-0.09740721
60	0xbe50bb30	-0.20383906
61	0x3dfb26c9	0.12263257
62	0xbcdda14a	-0.027054448
63	0xbd94deb7	-0.07269042
64	0xbdbb6bc9	-0.09151418
65	0xbe14a366	-0.14515457
66	0xbe53fe17	-0.20702396
67	0xbd93ebc9	-0.07222707
68	0x3bdd58d7	0.0067549753
69	0xbd6e0360	-0.058108687
70	0xbd9394bb	-0.072061025
71	0xbdd924cb	-0.10602721
72	0xbe112eca	-0.14178005
73	0xbd489a52	-0.048975296
74	0xbdd6de67	-0.10491639
75	0x3d44e6d7	0.04807171
76	0xbddcf9f4	-0.10789862
77	0xbd9f29c8	-0.07771641
78	0xbc9125cf	-0.017718224
79	0x3e03a960	0.1285758
80	0x3e0ae24a	0.13562885
81	0xbc852c1c	-0.016256385
82	0x3d49995e	0.049218528
83	0x3d06404d	0.032776166
84	0xbe1e7ac3	-0.15476517
85	0x3cfddf40	0.030990243
86	0xbdfc1ea7	-0.12310534
87	0x3d60dcbd	0.054898012
88	0xbd0e0066	-0.03466835
89	0xbdd53313	-0.10410132
90	0xbcc3823f	-0.023865817
91	0x3dc48d87	0.09597307
92	0x3dd85b9d	0.10564349
93	0x3e06e1f5	0.13172133
94	0xbd48bf5b	-0.049010616
95	0xbd710c40	-0.058849573
96	0xbe37f270	-0.17963576
97	0xbdcf8f0e	-0.101347074
98	0xbe517fbd	-0.20458885
99	0xbe1d6041	-0.15368749
100	0x3d432766	0.047644995
101	0xbb3ff235	-0.0029288654
102	0x3ca335cc	0.019923113
103	0x3e262625	0.16225488
104	0xbe322b1b	-0.17399256
105	0xbe5e5d0e	-0.21715185
106	0xbd622ea1	-0.05522025
107	0x3d41b61b	0.04729281
108	0xbaa72840	-0.0012753084
109	0xbdbf1e86	-0.09331994
110	0x3e057a89	0.13035025
111	0xbc7a8036	-0.015289357
112	0xbe597ce6	-0.21239051
113	0xbd8f54eb	-0.06998619
114	0x3da5c4d5	0.08094183
115	0x3e4f31dc	0.20233864
116	0xbdc54966	-0.0963314
117	0x3d91788d	0.07103071
118	0x3e3a1ed8	0.18175828
119	0x3dc0ed42	0.09420253
120	0xbdd445cb	-0.103648745
121	0x3d414d25	0.04719271
122	0x3be61dbd	0.007022588
123	0xbe3119c1	-0.1729498
124	0x3e391737	0.18075262
125	0xbe885476	-0.2662694
126	0x3cf563fa	0.0299549
127	0xbe0eaa15	-0.13932069

linears.2.weight f4 [180, 128]
0	0x3ebfc8d6	0.37457913
1	0x3ebdcb2f	0.3706908
2	0x3ed013bf	0.40640065
3	0x3e843996	0.25825185
4	0x3e9a939e	0.30190748
5	0x3ed95063	0.42444143
6	0x3eeec0a8	0.4663136
7	0x3e4e381e	0.20138595
8	0x3f0713cc	0.5276458
9	0x3ed92ea0	0.42418385
10	0x3e032e21	0.12810566
11	0x3e92a875	0.28644148
12	0x3ea889c8	0.3291762
13	0x3e6ae473	0.22938709
14	0x3dd796c3	0.105268024
15	0x3e8eb4c1	0.2787228
16	0x3ec403e5	0.3828422
17	0x3f1e0b8e	0.6173638
18	0x3eb13d2a	0.34616977
19	0x3d7b608f	0.061371382
20	0x3e2b2e85	0.16716965
21	0x3e624367	0.22096024
22	0x3ec7ebda	0.39047128
23	0x3ef72c0b	0.4827579
24	0x3e1b8df9	0.15190877
25	0x3f0918b7	0.53553337
26	0x3e8a5b02	0.27022558
27	0x3e9cf452	0.30655152
28	0x3e555144	0.20831782
29	0x3f01ba76	0.5067514
30	0x3eb16057	0.34643814
31	0x3e2dfb54	0.16990405
32	0x3eb141ae	0.34620422
33	0x3eafaba8	0.3431065
34	0x3eb3080b	0.34967074
35	0x3ee35005	0.44396988
36	0x3ea7978e	0.32732815
37	0x3edbcd99	0.42930296
38	0x3eaf3331	0.34218743
39	0xbd4a9e24	-0.04946722
40	0x3e83b3df	0.25723168
41	0x3e78ba18	0.24289739
42	0x3ef9a247	0.4875662
43	0x3dc39007	0.095489554
44	0xbdcbd191	-0.09952081
45	0x3edbfd07	0.42966482
46	0x3ecb4c46	0.3970663
47	0x3eef105d	0.46692172
48	0x3c988b7f	0.018621204
49	0x3e887072	0.2664829
50	0x3eaa365a	0.33244592
51	0x3eee51ef	0.46546885
52	0x3e4b53c5	0.19856174
53	0x3ed61dec	0.41819704
54	0x3ea6fb1f	0.32613465
55	0x3e629257	0.22126137
56	0x3eab761d	0.3348855
57	0x3eab86c5	0.33501258
58	0x3ea2e74e	0.31817096
59	0x3ec20ab5	0.37898794
60	0x3f02c9cc	0.5108917
61	0x3ebdf48b	0.37100634
62	0x3ee73216	0.451554
63	0x3e8f05f0	0.27934217
64	0x3e8948bb	0.268133
65	0x3efbac43	0.49154863
66	0x3ec9e8f4	0.39435542
67	0x3ed43fcf	0.41454932
68	0x3ee2abc8	0.44271684
69	0x3e777cd4	0.24168712
70	0x3e490aba	0.19632998
71	0x3ebd772e	0.3700499
72	0x3da12cf5	0.07869903
73	0x3e83fb41	0.2577763
74	0x3ead649f	0.3386583
75	0x3e982d81	0.29722217
76	0x3eb39f61	0.35082534
77	0x3ea12105	0.31470504
78	0x3ec0eaac	0.3767904
79	0x3eda14b3	0.42593917
80	0x3eddd005	0.4332277
81	0x3eac76c6	0.33684367
82	0x3e9601b2	0.29298168
83	0x3ed47738	0.41497207
84	0x3e3b745d	0.18306108
85	0x3e830136	0.2558686
86	0x3edcdf85	0.43139282
87	0x3eed8b16	0.46395177
88	0x3ea03e1b	0.31297383
89	0x3ee83f15	0.45360628
90	0x3eccdc6a	0.40011913
91	0x3e842f0e	0.2581715
92	0x3e631f8f	0.22180007
93	0x3e6eb3eb	0.23310821
94	0x3ee0c540	0.4390049
95	0x3ec96bc7	0.3934004
96	0x3e957259	0.29188803
97	0x3e81633a	0.25271016
98	0x3ea49b84	0.321499
99	0x3daf5aef	0.08562266
100	0x3e7c7b83	0.24656491
101	0x3e776bd1	0.24162222
102	0x3f0520df	0.5200328
103	0x3eb6e5fb	0.35722336
104	0x3edfa49c	0.43680274
105	0x3eeaf06c	0.45886552
106	0x3ead5a0a	0.33857757
107	0x3e8483ea	0.25881892
108	0x3ecf43e3	0.4048148
109	0x3ebd3dce	0.36961216
110	0x3e5061b3	0.2034977
111	0x3ebab71e	0.36467832
112	0x3ec034ea	0.3754037
113	0x3ecfa4fa	0.40555555
114	0x3e1fd7db	0.15609686
115	0x3ecd8dda	0.40147287
116	0x3ed8a22c	0.42311227
117	0x3ed7ee14	0.42173827
118	0x3eb45edd	0.35228625
119	0x3f0597f8	0.5218501
120	0x3ee37895	0.44427934
121	0x3ec26620	0.3796854
122	0x3ef99059	0.4874294
123	0x3e9eea2b	0.3103803
124	0x3ea7e12f	0.3278899
125	0x3ee766bb	0.45195565
126	0x3ea8002d	0.32812634
127	0x3eefc823	0.4683238
128	0x3ec87d44	0.3915807
129	0x3ec4636a	0.38357097
130	0x3ecf059c	0.40433967
131	0x3e7deda9	0.24797691
132	0x3e9999a5	0.30000034
133	0x3edfb12f	0.43689868
134	0x3ef581e1	0.47950652
135	0x3e41aebc	0.18914312
136	0x3f07f5d3	0.53109473
137	0x3edcb383	0.43105707
138	0x3e0ed57a	0.13948622
139	0x3e952765	0.29131618
140	0x3eaab8aa	0.33344012
141	0x3e62470c	0.22097415
142	0x3ddfcc01	0.109275825
143	0x3e99e54d	0.30057755
144	0x3ec6ff93	0.38866863
145	0x3f1b2185	0.6059802
146	0x3eb10c93	0.34579906
147	0x3d64beb6	0.05584594
148	0x3e302a7e	0.1720371
149	0x3e6c2c22	0.2306371
150	0x3ebc6205	0.36793533
151	0x3efc2deb	0.49253783
152	0x3e30803e	0.1723642
153	0x3f07140a	0.5276495
154	0x3e8771dd	0.26454058
155	0x3ea2da64	0.31807244
156	0x3e4d8dd7	0.20073639
157	0x3f0429cd	0.5162628
158	0x3eb49b64	0.35274804
159	0x3e318259	0.1733488
160	0x3eadcf2e	0.33947128
161	0x3eb90bba	0.3614176
162	0x3eae24c5	0.34012428
163	0x3ee3a7a6	0.44463843
164	0x3ea36210	0.31910753
165	0x3ed66b76	0.4187886
166	0x3eb2613d	0.34839812
167	0xbd6ba203	-0.057527553
168	0x3e7d5d8f	0.24742721
169	0x3e7cc47b	0.24684326
170	0x3ef556f8	0.47917914
171	0x3de22bc4	0.11043504
172	0xbdd297c8	-0.10282856
173	0x3ed9dd92	0.42551857
174	0x3ecf72db	0.40517315
175	0x3ef0d349	0.47036198
176	0x3c03e234	0.0080495365
177	0x3e8623b2	0.26199108
178	0x3e9e847b	0.3096045
179	0x3eea639d	0.45779124
180	0x3e512af1	0.20426537
181	0x3ed1e63c	0.40995967
182	0x3ea9ec24	0.33187973
183	0x3e521d24	0.20518929
184	0x3ea94594	0.33060896
185	0x3eae13a4	0.3399936
186	0x3e9ee72a	0.3103574
187	0x3ec33b86	0.3813135
188	0x3f045ebc	0.51707053
189	0x3ec5d2c0	0.38637352
190	0x3ee17516	0.44034642
191	0x3e966284	0.29372036
192	0x3e8e3cdc	0.27780807
193	0x3ef7d8e3	0.4840766
194	0x3ed0081d	0.4063119
195	0x3ed88f55	0.42296854
196	0x3ee15e69	0.44017342
197	0x3e8184f7	0.25296757
198	0x3e3a4efa	0.1819419
199	0x3ec1cd89	0.37852123
200	0x3dac8933	0.08424606
201	0x3e80edb4	0.25181353
202	0x3ebdda1b	0.37080464
203	0x3e97925e	0.29603857
204	0x3eb3f6b6	0.35149163
205	0x3ea5690e	0.32306713
206	0x3eb9c078	0.36279655
207	0x3ed50e82	0.4161263
208	0x3ed429af	0.41438052
209	0x3ea2f827	0.3182995
210	0x3e96fca4	0.29489625
211	0x3ecf6043	0.4050313
212	0x3e2ce679	0.16884793
213	0x3e81cbb7	0.25350735
214	0x3ee88f67	0.45421907
215	0x3ee9f4e5	0.45694652
216	0x3ea2e9de	0.31819052
217	0x3ee4bbfd	0.44674674
218	0x3ec44ae9	0.38338402
219	0x3e7eab97	0.24870144
220	0x3e579629	0.21053375
221	0x3e6419e6	0.22275504
222	0x3eecc7eb	0.46246275
223	0x3ebfde78	0.37474418
224	0x3e8d4ab9	0.2759607
225	0x3e74d56d	0.2390954
226	0x3ea1688b	0.31525072
227	0x3db19e5a	0.08672781
228	0x3e773f5d	0.24145265
229	0x3e70a3a6	0.23499927
230	0x3f082267	0.53177494
231	0x3ea7f313	0.32802638
232	0x3edfe459	0.43728903
233	0x3eeca103	0.46216592
234	0x3eb5fe63	0.35545644
235	0x3e8bbdf6	0.27293366
236	0x3ecce393	0.40017375
237	0x3ebaec4b	0.36508402
238	0x3e42a830	0.19009471
239	0x3eb575b8	0.35441375
240	0x3ec7d0fa	0.39026624
241	0x3eca6f87	0.39538214
242	0x3e2815b3	0.16414528
243	0x3ec50e09	0.3848727
244	0x3ed82f6a	0.42223674
245	0x3edff9ba	0.43745214
246	0x3eb7aade	0.3587255
247	0x3f06cd9e	0.52657497
248	0x3ee48c47	0.44638273
249	0x3eb93662	0.36174303
250	0x3efacff7	0.4898679
251	0x3e985941	0.29755595
252	0x3eaeb0f9	0.34119394
253	0x3ede03a3	0.4336215
254	0x3eb1bcf1	0.34714463
255	0x3ee6e337	0.45095226

linears.2.bias f4 [180]
0	0x3e84d268	0.25941777
1	0x3ea98fc9	0.33117512
2	0x3eafa580	0.34305954
3	0x3ea4c24d	0.3217949
4	0x3ea95572	0.33073002
5	0x3e87a160	0.26490307
6	0x3ea568ef	0.3230662
7	0x3ed74359	0.4204357
8	0x3ea42060	0.3205595
9	0x3ea9ab76	0.33138627
10	0x3ec81075	0.39075056
11	0x3ec5bc61	0.38620284
12	0xbd9f7b39	-0.07787175
13	0xbc06eac3	-0.0082346825
14	0x3c8fc81d	0.017551476
15	0x39243f66	0.00015663877
16	0xbcd3445d	-0.025789434
17	0xbd3c6e6d	-0.046003748
18	0x3d56d92c	0.052453205
19	0xbd827bbc	-0.06371257
20	0xbd095c9c	-0.033535585
21	0xbd541cb5	-0.05178519
22	0x3d6ed0f0	0.058304727
23	0x3a05f6ae	0.00051103055
24	0xbcfe4785	-0.031039963
25	0x3d4b9606	0.04970362
26	0x3d56b278	0.052416295
27	0x3d40db41	0.047084097
28	0xbd92f749	-0.07176072
29	0x3c193e10	0.009353176
30	0xbd29c440	-0.041446924
31	0xbdaa7200	-0.08322525
32	0x3dadf19a	0.084933475
33	0x3d0f7dcf	0.03503209
34	0x3d0374b1	0.032093707
35	0xbd915e2e	-0.070980415
36	0xbc790509	-0.015198954
37	0xbd5d7876	-0.05406996
38	0xbd8aa551	-0.06769813
39	0xbda5d08c	-0.08096418
40	0xbcadce02	-0.021216396
41	0xbc3fc360	-0.011704296
42	0x3d53a589	0.05167154
43	0x3d30c45c	0.043156013
44	0xbd1bccb6	-0.038037024
45	0x3cbd66ff	0.023120401
46	0x3c9b1c22	0.018934313
47	0xbd9427a9	-0.07234127
48	0x3d1f5bf6	0.03890606
49	0x3d5a83a0	0.053348184
50	0xbd36fa96	-0.04467257
51	0x3bf3284a	0.0074205743
52	0x3d38c4f8	0.04510972
53	0xbdaa9e5b	-0.08330985
54	0xbda55e09	-0.080745764
55	0xbdb44e77	-0.088040285
56	0x3cd460c7	0.025925053
57	0xbd07b47d	-0.03313111
58	0x3d190406	0.037357353
59	0x3d0c50e7	0.034256842
60	0xbd71660f	-0.05893522
61	0xbcd1d0b7	-0.025612218
62	0x3bde245b	0.0067792363
63	0x3b4c3ba7	0.0031163485
64	0xbc1d8f94	-0.009616751
65	0x3ca9522d	0.020669067
66	0x3bf66a52	0.0075199986
67	0x3d292935	0.041299064
68	0x3c66605f	0.014061063
69	0x3d685cd4	0.056729153
70	0xbbc65e49	-0.00605372
71	0x3d7362d3	0.059420418
72	0x3e881b13	0.26583156
73	0x3e1fcdc0	0.15605831
74	0x3e8f6b80	0.28011703
75	0x3e41982f	0.1890571
76	0x3e8f29fa	0.27961713
77	0x3ea35820	0.31903172
78	0xbd9a2982	-0.07527448
79	0x3af00a68	0.0018313648
80	0xbcb7fff6	-0.022460919
81	0x3da60dc7	0.081080966
82	0x3c2e88aa	0.0106527
83	0x3b8b18bf	0.0042448933
84	0x3dae3f8f	0.085082166
85	0x3c16587c	0.00917637
86	0x38abb76a	8.188079e-05
87	0xbdada866	-0.08479385
88	0x3d161b55	0.03664716
89	0x3d875614	0.06608215
90	0x3d82fd23	0.06395938
91	0x3db24480	0.087044716
92	0xbca6c2c1	-0.020356538
93	0xbcd987f9	-0.026554095
94	0x3d86dbf0	0.065849185
95	0x3da2e219	0.07953281
96	0x3d53fc3f	0.051754232
97	0xbd3ac4cb	-0.045597833
98	0x3daa7562	0.0832317
99	0x3d227005	0.03965761
100	0x3cd280b2	0.025696132
101	0x3d87f3b6	0.06638281
102	0xbc302cba	-0.010752851
103	0x3c6c2601	0.014413358
104	0xbce2eb46	-0.027700078
105	0xbc10a690	-0.008828774
106	0xbd930c7e	-0.07180117
107	0xbd454501	-0.04816151
108	0xbd84e070	-0.064881206
109	0x3d9b67e0	0.07588172
110	0xbce19a3a	-0.027539361
111	0xbbf2ceed	-0.0074099214
112	0x3d7f1982	0.062280186
113	0x3d425164	0.0474409
114	0xbd809406	-0.06278233
115	0x3c011d87	0.007880575
116	0xbd66bd4d	-0.056332875
117	0xbd10a211	-0.03531081
118	0x3d10808e	0.03527885
119	0x3bcad50f	0.0061899493
120	0x3d9fa6ed	0.077955104
121	0x3d57b058	0.05265841
122	0xbd8aa920	-0.06770539
123	0xbd875e0a	-0.066097334
124	0xbd85407e	-0.065064415
125	0xbcc77302	-0.024346832
126	0x3ea97dfa	0.33103925
127	0x3e9fd330	0.3121581
128	0x3ebbe045	0.36694542
129	0x3ebde2cb	0.37087092
130	0x3eb9f7b0	0.36321783
131	0x3ea4517c	0.32093418
132	0x3e4790c1	0.19488813
133	0x3e9cb9f2	0.30610615
134	0x3e9cfd3d	0.30661955
135	0x3e9e6e7c	0.30943668
136	0x3e9a7f09	0.30175045
137	0x3ea283a9	0.31741074
138	0x3d119bc1	0.03554893
139	0xbcaa5516	-0.020792525
140	0x3c1cab7e	0.009562371
141	0xbdb3bd88	-0.087763846
142	0xbd19ec2a	-0.03757874
143	0xbd03d7c1	-0.03218818
144	0x3d75c3dd	0.060001243
145	0x3c07075b	0.0082415
146	0x3d9a121a	0.07522984
147	0xbd8be9c6	-0.06831698
148	0xbcd9de4e	-0.026595261
149	0xbd932846	-0.07185416
150	0x3da96d35	0.08272783
151	0xbd55700a	-0.052108802
152	0xbd21f316	-0.039538465
153	0x3ca4ece7	0.020132495
154	0x3d5d961b	0.05409823
155	0xbcfbbca1	-0.030729594
156	0x3ec90d96	0.39268178
157	0x3e8f6132	0.28003842
158	0x3e69c5bb	0.22829334
159	0x3e8c03b4	0.27346575
160	0x3e989705	0.2980272
161	0x3ea479cf	0.32124183
162	0xbd0cd43a	-0.034382083
163	0xbc8c9d8c	-0.017164968
164	0x3db3d607	0.08781057
165	0xbccebafc	-0.025235645
166	0x3d9e2187	0.077212386
167	0x3af076f3	0.0018345997
168	0x3d4a8024	0.04943861
169	0xbd910808	-0.0708161
170	0x3cbbac31	0.022909256
171	0xbc132c27	-0.008982695
172	0xbd642c91	-0.055706564
173	0x3d7c6f46	0.061629556
174	0x3d85f238	0.0654034
175	0xbce0d50e	-0.027445342
176	0x3a2e605c	0.0006651932
177	0xbda2688f	-0.07930099
178	0x3ca3c86d	0.019993031
179	0x3da5b513	0.08091178

batchnorm.0.module.weight f4 [64]
0	0x3f7b1ef1	0.9809409
1	0x3f750509	0.9571081
2	0x3f630774	0.8868325
3	0x3f72595b	0.94667596
4	0x3f8c1570	1.0944042
5	0x3f71b711	0.9441996
6	0x3f6d9d8d	0.9281853
7	0x3f7b3af2	0.9813682
8	0x3f6f2851	0.9342089
9	0x3f76f467	0.9646668
10	0x3f709020	0.9396992
11	0x3f8079c4	1.003716
12	0x3f74552d	0.9544247
13	0x3f70dd97	0.9408812
14	0x3f6e2141	0.9301949
15	0x3f77545c	0.966131
16	0x3f8228b7	1.0168675
17	0x3f8d4d43	1.1039203
18	0x3f7d5664	0.98959947
19	0x3f81ac59	1.0130721
20	0x3f825f56	1.0185344
21	0x3f7644f5	0.9619897
22	0x3f731388	0.9495168
23	0x3f81f1d2	1.0151923
24	0x3f817926	1.0115097
25	0x3f728bc8	0.9474454
26	0x3f736f46	0.95091665
27	0x3f829f81	1.0204927
28	0x3f82b50b	1.02115
29	0x3f89d686	1.0768592
30	0x3f6e72fc	0.931442
31	0x3f702def	0.9382009
32	0x3f740aff	0.9532928
33	0x3f71e6a5	0.9449256
34	0x3f879ccb	1.0594724
35	0x3f7af1d8	0.98025274
36	0x3f69b319	0.91288906
37	0x3f68cf53	0.9094135
38	0x3f96bea0	1.1776924
39	0x3f813ecc	1.0097289
40	0x3f7824aa	0.96930945
41	0x3f6ffd0b	0.9374549
42	0x3f810bb2	1.0081694
43	0x3f8138e6	1.0095489
44	0x3f830b6d	1.0237862
45	0x3f9d6703	1.2297062
46	0x3f85daeb	1.0457433
47	0x3f7681e2	0.96291935
48	0x3f83e40e	1.0303972
49	0x3f888e71	1.066847
50	0x3f81556c	1.0104194
51	0x3f822a11	1.0169088
52	0x3f69dcab	0.9135234
53	0x3f832d03	1.0248111
54	0x3f8869bc	1.0657268
55	0x3f80cee7	1.0063142
56	0x3f84ff84	1.0390477
57	0x3f7e1115	0.99244815
58	0x3f804af0	1.0022869
59	0x3f6ba8bb	0.9205434
60	0x3f7e211f	0.9926929
61	0x3f8073d1	1.0035344
62	0x3f60638c	0.87651896
63	0x3f868b05	1.0511175

batchnorm.0.module.bias f4 [64]
0	0x3dd38a04	0.10329059
1	0x3cee5416	0.02909283
2	0x3dbc85f7	0.09205239
3	0x3d455e4c	0.04818563
4	0xbe1d145e	-0.153398
5	0x3d5cdfee	0.053924493
6	0x3db2ef8e	0.08737098
7	0x3d27111b	0.040787797
8	0xbe037efc	-0.1284141
9	0xbd93cfe1	-0.07217384
10	0x3c78bc5c	0.015181627
11	0xbdf84c4e	-0.12123929
12	0xbda95424	-0.08268002
13	0xbdad3f4e	-0.0845934
14	0xbd5fbcf0	-0.054623544
15	0xbe9eabcf	-0.30990455
16	0xbe7b2252	-0.24524811
17	0xbe723633	-0.23653488
18	0xbe0e413a	-0.1389207
19	0xbc5ffc14	-0.01367094
20	0xbe7308fd	-0.23733898
21	0x3c99b188	0.018761411
22	0x3d56a011	0.052398745
23	0xbdddd61a	-0.10831852
24	0x3ac99c36	0.0015381637
25	0x3d910ca0	0.07082486
26	0x3c724b45	0.0147884535
27	0xbdba3c16	-0.09093492
28	0x3e0b2ba4	0.13590866
29	0xbdc8eccf	-0.09810793
30	0xbe926659	-0.2859371
31	0xbe104511	-0.14088847
32	0xbd89c20b	-0.06726464
33	0xbd81361f	-0.06309151
34	0xbdfb8a60	-0.12282252
35	0xbc3e52d5	-0.011616428
36	0xbdcd08e2	-0.1001146
37	0xbd468e6d	-0.04847567
38	0xbee51c11	-0.44747975
39	0xbc5a1786	-0.0133112725
40	0xbdfc34f4	-0.123147875
41	0x3d4ba1d3	0.049714874
42	0xbe9ca55d	-0.30594912
43	0xbe919052	-0.2843042
44	0xbda8cbf3	-0.08242025
45	0xbf018df9	-0.5060726
46	0xbc899694	-0.016795434
47	0xbd43c83a	-0.047798373
48	0xbe6917fa	-0.22763053
49	0xbd6ccfea	-0.05781547
50	0xbd7209a0	-0.05909121
51	0xbe1b6e6d	-0.15178843
52	0x3d0965c5	0.03354432
53	0xbd905bf6	-0.0704879
54	0xbe0f69b0	-0.1400516
55	0xbd30896e	-0.043099813
56	0xbe8f808c	-0.2802776
57	0xbd61da9e	-0.05514013
58	0x3ccdebdd	0.025136882
59	0xbc7e4850	-0.01552017
60	0x3d5a9f0a	0.053374328
61	0xbd2c6da5	-0.042096753
62	0xbe076525	-0.13222177
63	0xbd470288	-0.0485864

batchnorm.0.module.running_mean f4 [64]
0	0xbdfe908f	-0.12429916
1	0x3d68b835	0.0568163
2	0x3c355097	0.011066577
3	0x3d55fd6d	0.05224364
4	0x3d0db3d5	0.03459533
5	0x3d9dcdf4	0.07705298
6	0xbe3beade	-0.18351313
7	0xbd849197	-0.064730816
8	0x3ad565b5	0.0016280921
9	0xbda5e7d8	-0.08100861
10	0x3d658436	0.05603429
11	0x3d8c3d70	0.06847656
12	0xbd271b6b	-0.040797632
13	0x3db722da	0.08942194
14	0xbde45dff	-0.11150741
15	0x3d20c696	0.039251886
16	0xbd3ae5ed	-0.04562943
17	0xbdc20123	-0.09472873
18	0x3d2794cb	0.040913384
19	0x3d0f1cf9	0.03493974
20	0x3cb375b9	0.02190672
21	0x3dc18879	0.09449858
22	0x3d2a823b	0.041628104
23	0x3da5bd04	0.080926925
24	0x3d10a61c	0.035314664
25	0x3d0f816d	0.03503554
26	0x3d3413cb	0.04396419
27	0x3d022b63	0.031779658
28	0xbd142e4b	-0.03617696
29	0xbcd47bff	-0.025938032
30	0xbe0931c0	-0.13397884
31	0xbdf08d15	-0.11745659
32	0xbe184015	-0.14868195
33	0x3d099fdd	0.033599723
34	0xbd819a24	-0.06328228
35	0x3cebf44a	0.02880301
36	0x3d391e8b	0.045195144
37	0x3e15cf1b	0.14629786
38	0x3e21f395	0.15815575
39	0xbd6f21fe	-0.058382027
40	0x3e08020a	0.13282028
41	0xbdbf172b	-0.09330591
42	0x3d8723ea	0.06598647
43	0x3df26ce7	0.11837178
44	0x3e032227	0.12805997
45	0xbbde13b1	-0.0067772497
46	0xbda6a3ae	-0.08136688
47	0x3cf36515	0.029711286
48	0x3dfd71fd	0.12375257
49	0xbd4429bc	-0.047891364
50	0xba20eb4e	-0.0006138579
51	0xbde09a5b	-0.10966941
52	0x3d087f82	0.033324726
53	0x3d1ec04a	0.0387576
54	0x3d87faa1	0.066396005
55	0x3bef6294	0.0073054526
56	0xbdbe1c95	-0.09282795
57	0xbda36f80	-0.07980251
58	0xbd409f31	-0.047026817
59	0xbd686c50	-0.05674392
60	0x3d57a8c8	0.052651197
61	0xbe1204db	-0.14259665
62	0x3be6a3db	0.007038576
63	0xbdb132a3	-0.08652236

batchnorm.0.module.running_var f4 [64]
0	0x3ecaefa3	0.39635953
1	0x3ef8e088	0.48608804
2	0x3ef85f2b	0.48510107
3	0x3eec1792	0.46111733
4	0x3f048e82	0.5177995
5	0x3f0c651f	0.548418
6	0x3ec16a0f	0.3777623
7	0x3f168b76	0.5880655
8	0x3edf0c99	0.435643
9	0x3ed1aa7a	0.40950376
10	0x3edcf817	0.43158028
11	0x3f03fa2c	0.51553607
12	0x3ee6f901	0.4511185
13	0x3eefeb3b	0.46859154
14	0x3ef33c29	0.47506836
15	0x3ec187ee	0.3779902
16	0x3ed3a3b1	0.41335824
17	0x3eb645c5	0.35600105
18	0x3f06ae72	0.5260993
19	0x3ee29592	0.44254738
20	0x3eb73870	0.35785246
21	0x3ef6b139	0.48182085
22	0x3f087c34	0.5331452
23	0x3ed375bf	0.4130077
24	0x3f1df095	0.61695224
25	0x3ecd0f87	0.4005091
26	0x3ec3ab0a	0.3821643
27	0x3eecbc5d	0.4623746
28	0x3eefac8e	0.46811336
29	0x3f08d95e	0.53456676
30	0x3eccc521	0.39994147
31	0x3ef6e75a	0.48223382
32	0x3ee0f76f	0.43938777
33	0x3ebdb65b	0.3705319
34	0x3ee9ad9f	0.45640275
35	0x3eba26a6	0.3635761
36	0x3ee559e7	0.44795153
37	0x3f140324	0.5781729
38	0x3e8f0a51	0.27937558
39	0x3ee37040	0.44421577
40	0x3efccf8c	0.49377096
41	0x3f002947	0.50062984
42	0x3f0583b1	0.5215407
43	0x3efb73b7	0.4911172
44	0x3f08fcb5	0.535106
45	0x3ea08c82	0.313572
46	0x3f139f7f	0.57665247
47	0x3ee75a2e	0.4518599
48	0x3ef99f54	0.4875437
49	0x3f02bf6b	0.5107333
50	0x3ed25eee	0.4108805
51	0x3f01913a	0.50612223
52	0x3ee9db54	0.45675147
53	0x3f0526c6	0.5201229
54	0x3f0222e2	0.50834477
55	0x3eff638b	0.49880633
56	0x3eaf81ec	0.3427881
57	0x3f0e7f59	0.5566307
58	0x3f1b6b95	0.6071103
59	0x3f11167c	0.56674933
60	0x3f059484	0.5217974
61	0x3ed21ecb	0.41039118
62	0x3ef8a6f3	0.48564872
63	0x3ef42d94	0.47691023

batchnorm.1.module.weight f4 [128]
0	0x3fc3ea2d	1.530584
1	0x3fc14637	1.5099553
2	0x3fc73e98	1.5565977
3	0x3fd30a34	1.6487489
4	0x3fc2a64a	1.5206997
5	0x3fca03bd	1.5782391
6	0x3fbff359	1.4996139
7	0x3fc4edc8	1.5385065
8	0x3fc20635	1.5158144
9	0x3fced235	1.61579
10	0x3fc15622	1.5104411
11	0x3fbdd71a	1.4831269
12	0x3fbf9ff7	1.4970692
13	0x3fc77781	1.5583345
14	0x3fd06c67	1.6283082
15	0x3fc49647	1.5358361
16	0x3fc2c770	1.5217113
17	0x3fc75303	1.5572208
18	0x3fc5033e	1.5391614
19	0x3fe8a262	1.8174555
20	0x3fd00919	1.6252776
21	0x3fc0ffda	1.507808
22	0x3fd70181	1.6797334
23	0x3fc5bba3	1.5447887
24	0x3fc6bdd5	1.5526682
25	0x3fbd8950	1.480753
26	0x3fc0bf01	1.505829
27	0x3fc9d292	1.5767386
28	0x3fc1a0bb	1.5127176
29	0x3fc27f0a	1.5195019
30	0x3fc8145f	1.5631217
31	0x3fd3ff38	1.6562262
32	0x3fc27c52	1.519419
33	0x3fc78385	1.5587012
34	0x3fb719c9	1.4304744
35	0x3fc5f73b	1.5466074
36	0x3fc1ce72	1.5141127
37	0x3fbf3de8	1.4940767
38	0x3fc4f4c3	1.5387195
39	0x3fcd1927	1.6023301
40	0x3fc18499	1.511859
41	0x3fd1fa5f	1.6404532
42	0x3fc15fe6	1.5107391
43	0x3fc6d8a0	1.5534859
44	0x3ff18e0a	1.8871472
45	0x3fc94094	1.5722833
46	0x3fd0d067	1.6313599
47	0x3fc26b6d	1.5189034
48	0x3fc84462	1.5645869
49	0x3fc07114	1.5034509
50	0x3fbff5dd	1.4996907
51	0x3fbd3fd9	1.478511
52	0x3fc02c8d	1.5013596
53	0x3fbd75dd	1.4801594
54	0x3fc806b0	1.5627041
55	0x3fdf0178	1.7422323
56	0x3fc7c901	1.5608217
57	0x3fc37630	1.5270443
58	0x3fbd845b	1.4806017
59	0x3fbe086a	1.4846318
60	0x3fc24dde	1.5180013
61	0x3fccfc94	1.6014581
62	0x3fcb0f75	1.5864092
63	0x3fc58edf	1.5434226
64	0x3fbb8277	1.464919
65	0x3fbc034c	1.4688506
66	0x3fb8da1e	1.4441564
67	0x3fbb8cfe	1.4652402
68	0x3fcea726	1.614476
69	0x3fbf6c41	1.4954911
70	0x3fc4d232	1.5376647
71	0x3fc0a2a7	1.5049638
72	0x3fcd22ee	1.6026285
73	0x3fc08c35	1.5042788
74	0x3fbcdca9	1.475484
75	0x3fbc14fb	1.4693903
76	0x3fc69c64	1.5516477
77	0x3fc2dd10	1.5223713
78	0x3fc6e698	1.5539122
79	0x3fc27db6	1.5194614
80	0x3fbf4700	1.4943542
81	0x3fc41383	1.5318455
82	0x3fbf77f6	1.4958484
83	0x3fcdec63	1.6087765
84	0x3fbdf49e	1.4840276
85	0x3fc52a0a	1.5403454
86	0x3fc0cc36	1.506232
87	0x3fbe83c6	1.4883964
88	0x3fc8405d	1.5644642
89	0x3fc6588d	1.5495774
90	0x3fc1132e	1.5083978
91	0x3fc07bcf	1.5037783
92	0x3fc083ab	1.5040182
93	0x3fc447b3	1.5334381
94	0x3fca6968	1.5813417
95	0x3fc4b891	1.5368825
96	0x3fc6bec2	1.5526965
97	0x3fc06574	1.5030961
98	0x3fc83203	1.5640262
99	0x3fdd6787	1.7297219
100	0x3fc4661c	1.5343661
101	0x3fd0109e	1.6255071
102	0x3fbe941e	1.4888952
103	0x3fc708f7	1.5549611
104	0x3fcfacbe	1.6224592
105	0x3fc9ef9f	1.5776252
106	0x3fc03d24	1.5018659
107	0x3fc4203d	1.5322338
108	0x3fc4aa22	1.536442
109	0x3fbcbd1f	1.4745215
110	0x3fc26f9b	1.5190309
111	0x3fc0e1eb	1.5068945
112	0x3fbdc645	1.4826132
113	0x3fbc7614	1.4723535
114	0x3fda36dc	1.7047992
115	0x3fc091ae	1.5044458
116	0x3fd562db	1.6670793
117	0x3fc195bf	1.5123824
118	0x3fbfdff7	1.4990224
119	0x3fc16300	1.5108337
120	0x3fc4d918	1.5378752
121	0x3fc841cf	1.5645083
122	0x3fc314b4	1.5240693
123	0x3fc0b017	1.5053738
124	0x3fc0071c	1.500217
125	0x3fc26e1d	1.5189854
126	0x3fc6074f	1.547098
127	0x3fc28369	1.5196353

batchnorm.1.module.bias f4 [128]
0	0x3f17d62c	0.59311175
1	0x3f18a693	0.5962917
2	0x3f1aa347	0.6040539
3	0x3ec2cf13	0.3804861
4	0x3f18566b	0.59506863
5	0x3f1afb2f	0.60539526
6	0x3f20cec8	0.62815523
7	0x3f174b26	0.5909904
8	0x3f22e6c9	0.636334
9	0x3f148c6b	0.5802676
10	0x3f185c18	0.59515524
11	0x3f266b70	0.65007687
12	0x3f19f301	0.6013642
13	0x3f1c9107	0.61158794
14	0x3f1367ad	0.5758007
15	0x3f1eb79b	0.6199891
16	0x3f321645	0.6956523
17	0x3f1abbd9	0.6044288
18	0x3f1403d9	0.5781837
19	0x3ecc0b61	0.3985243
20	0x3f096b41	0.5367928
21	0x3f1f5fd0	0.62255573
22	0x3ee39617	0.44450447
23	0x3f1c73c2	0.6111413
24	0x3f235437	0.63800377
25	0x3f278357	0.65434784
26	0x3f2b10bc	0.6682241
27	0x3f250c01	0.6447144
28	0x3f2d52b4	0.6770432
29	0x3f1d1c2d	0.6137112
30	0x3f10f9c6	0.56631124
31	0x3ef2499f	0.47321793
32	0x3f243ba5	0.6415351
33	0x3f10afc6	0.5651821
34	0x3f2d1fbb	0.6762654
35	0x3f1b6e5a	0.6071526
36	0x3f25c0df	0.6474742
37	0x3f159753	0.5843403
38	0x3f20947c	0.6272657
39	0x3f1e56c6	0.61851156
40	0x3f2405c3	0.6407129
41	0x3f16636b	0.5874545
42	0x3f16bec8	0.5888486
43	0x3ee4ff8f	0.44726226
44	0x3ece6deb	0.40318236
45	0x3f133db1	0.5751601
46	0x3f1a2899	0.602182
47	0x3f1d2bc2	0.61394894
48	0x3f1ba589	0.6079946
49	0x3f25b424	0.64728
50	0x3f23a785	0.6392749
51	0x3f157c1b	0.58392495
52	0x3f219482	0.6311723
53	0x3f24dbd0	0.6439791
54	0x3f13ca6b	0.5773074
55	0x3eeaa559	0.45829275
56	0x3f020c74	0.5080025
57	0x3f1e538f	0.6184625
58	0x3f1f0ec3	0.621319
59	0x3f1a3d82	0.60250103
60	0x3f1791a5	0.5920661
61	0x3f0cda7c	0.5502088
62	0x3f170c8f	0.5900354
63	0x3f1b63c0	0.6069908
64	0x3f21a1a4	0.6313727
65	0x3f2752f3	0.65360945
66	0x3f20d1ba	0.6282002
67	0x3f206c64	0.6266539
68	0x3f0cea0a	0.55044615
69	0x3f226373	0.63433
70	0x3f2d3a81	0.67667395
71	0x3f14f2f2	0.58183205
72	0x3f0c4d40	0.54805374
73	0x3f1e5697	0.61850876
74	0x3f21a8ee	0.6314839
75	0x3f249774	0.642936
76	0x3f19e43d	0.6011389
77	0x3f1a890a	0.60365355
78	0x3f1833f8	0.594543
79	0x3f11f3dd	0.5701273
80	0x3f29fac1	0.66398245
81	0x3f060e95	0.52366
82	0x3f1d3d88	0.61422014
83	0x3f0fde3a	0.56198466
84	0x3f05cb56	0.5226339
85	0x3f1b7912	0.60731614
86	0x3f17737a	0.5916058
87	0x3f2ac295	0.6670316
88	0x3f1c076c	0.60948825
89	0x3f2191e4	0.63113236
90	0x3f18ca6a	0.5968386
91	0x3f29b4cb	0.66291493
92	0x3f220092	0.6328212
93	0x3f18f5c5	0.59750015
94	0x3f15f2e5	0.5857375
95	0x3f238a5b	0.6388299
96	0x3f17ef4b	0.5934951
97	0x3f1d475a	0.61437
98	0x3f058f2b	0.5217158
99	0x3eed38e1	0.46332458
100	0x3f1160ea	0.56788504
101	0x3f1403c5	0.5781825
102	0x3f1bdb5b	0.60881585
103	0x3f1f4246	0.622105
104	0x3f07da64	0.5306761
105	0x3f10c8f8	0.56556654
106	0x3f166a37	0.5875582
107	0x3f17a2cf	0.592328
108	0x3f1dc81f	0.61633486
109	0x3f2c58f1	0.67323214
110	0x3f12fcd5	0.5741704
111	0x3f24e4ab	0.6441142
112	0x3f1502c1	0.5820733
113	0x3f2049b5	0.6261247
114	0x3f06a559	0.5259605
115	0x3f17d004	0.5930178
116	0x3ef20c1e	0.4727487
117	0x3f2387b1	0.63878924
118	0x3f1e6a02	0.61880505
119	0x3f24454e	0.6416825
120	0x3f188334	0.595752
121	0x3f250b61	0.6447049
122	0x3f1bd02c	0.6086452
123	0x3f14b3c6	0.5808681
124	0x3f0d6012	0.55224717
125	0x3f197de7	0.59957737
126	0x3f06e221	0.52688795
127	0x3f0cc39b	0.5498597

batchnorm.1.module.running_mean f4 [128]
0	0x3e464d64	0.1936546
1	0xbe873883	-0.26410303
2	0x3e60754e	0.21919748
3	0xbe4e7e51	-0.20165373
4	0x3dc2072f	0.094740264
5	0xbe379d71	-0.17931153
6	0xbeb74119	-0.35791853
7	0xbf5794b0	-0.84211254
8	0xbf83c766	-1.0295227
9	0xbf2cfde6	-0.6757492
10	0x3eaf6611	0.34257558
11	0xbea11fdc	-0.3146962
12	0xbd807223	-0.0627177
13	0xbf086fbf	-0.5329551
14	0x3eb2fabf	0.3495693
15	0xbe5d3757	-0.21603142
16	0x3e50d646	0.20394239
17	0x3f15e0fb	0.5854642
18	0xbde91e45	-0.113827266
19	0x3edef218	0.43544078
20	0x3e0a1c12	0.1348727
21	0xbf0dca35	-0.5538667
22	0xbc5db283	-0.01353133
23	0xbdfec507	-0.12439924
24	0xbed724f0	-0.4202037
25	0x3d298ab3	0.04139204
26	0x3e3669c3	0.17813782
27	0xbe2d445f	-0.16920613
28	0x3ec531b4	0.38514483
29	0xbf5a9673	-0.8538582
30	0x3e6243bf	0.22096156
31	0xbf1139d5	-0.5672887
32	0xbf28f4cf	-0.6599855
33	0xbeb7ea46	-0.35920924
34	0xbf6bc2f8	-0.92094374
35	0xbd55c01b	-0.05218516
36	0xbe9c35dc	-0.3050984
37	0xbeb3f6ea	-0.35149318
38	0xbc794ae7	-0.015215612
39	0x3d0da16f	0.034577783
40	0x3ec80b98	0.39071345
41	0xbe7b4dec	-0.24541444
42	0x3dff2a26	0.12459211
43	0x3f4805fd	0.7813414
44	0xbc6f800a	-0.014617929
45	0xbd60cfd5	-0.054885704
46	0xbe18bbff	-0.14915465
47	0x3e2d6e7e	0.1693668
48	0xbf0ed5fb	-0.5579526
49	0xbf085843	-0.53259677
50	0xbe88e8ab	-0.26740012
51	0xbf3d3ff2	-0.739257
52	0xbd2b5111	-0.041825358
53	0xbe9197c8	-0.28436112
54	0xbe2a2d25	-0.16618784
55	0xbd0b06c6	-0.033942007
56	0xbd0fe6f5	-0.035132367
57	0xbf13983a	-0.57654154
58	0xbeb6de21	-0.35716346
59	0xbf09a6c7	-0.5377011
60	0xbf61790c	-0.8807533
61	0x3d45649c	0.04819165
62	0xbe921df1	-0.28538468
63	0xbee03e69	-0.43797615
64	0xbf153361	-0.58281523
65	0xbe8b57cb	-0.27215418
66	0xbed3abd0	-0.4134202
67	0x3d7aadf0	0.061201036
68	0xbe586b90	-0.21134782
69	0xbd2f75fe	-0.042837135
70	0x3d953909	0.07286269
71	0x3d64baca	0.0558422
72	0xbefb1947	-0.49042723
73	0xbf1fcdbd	-0.62423307
74	0xbf4c195b	-0.7972619
75	0xbf390773	-0.7227699
76	0xbeb89205	-0.36048904
77	0x3d7dcf62	0.061965354
78	0xbeb10040	-0.34570503
79	0x3e557c43	0.20848183
80	0x3f4839a8	0.78212976
81	0xbec70a15	-0.3887488
82	0x3eb27cc7	0.34860823
83	0xbe894d5c	-0.26816833
84	0xbf0ff4eb	-0.5623309
85	0x3d49371e	0.04912483
86	0xbf499d13	-0.787553
87	0x3ea15f0d	0.3151783
88	0xbec79eb3	-0.38988265
89	0xbe677117	-0.22601734
90	0xbf2faf4d	-0.6862686
91	0xbd3eaa88	-0.04654935
92	0x3e31e71a	0.17373314
93	0x3d8d5667	0.069012456
94	0xbf03099e	-0.5118655
95	0xbeda21c8	-0.42603898
96	0xbf53cc8a	-0.82733977
97	0xbecdcd0a	-0.40195495
98	0xbf26d897	-0.6517424
99	0xbdba8895	-0.09108082
100	0xbe2be6be	-0.1678724
101	0xbe2ee83f	-0.17080782
102	0xbe0b88a6	-0.13626346
103	0x3c98ad12	0.018637214
104	0xbf459818	-0.771852
105	0xbf5bd91d	-0.85878164
106	0xbe75bff8	-0.23999012
107	0xbf2f4c4d	-0.684758
108	0xbf2b5495	-0.66925937
109	0xbef3f77e	-0.4764976
110	0xbd088cac	-0.03333728
111	0x3d863c49	0.06554467
112	0xbf6c41fc	-0.92288184
113	0xbef70445	-0.48245445
114	0xbe565240	-0.20929813
115	0xbe21d81f	-0.158051
116	0xbecda098	-0.40161586
117	0xbe455a48	-0.19272721
118	0x3cf1bd03	0.029509073
119	0x3d0ea077	0.034821
120	0xbe3f264b	-0.18666951
121	0xbed96195	-0.42457262
122	0xbef15cb4	-0.4714104
123	0xbf38c220	-0.7217121
124	0x3ecc3127	0.3988125
125	0xbf4bfbf8	-0.7968135
126	0xbe018118	-0.12646902
127	0xbe155eb2	-0.14586905

batchnorm.1.module.running_var f4 [128]
0	0x3e800e56	0.25010937
1	0x3e9934c7	0.29923078
2	0x3e7094a9	0.2349421
3	0x3e2ee430	0.17079234
4	0x3e993788	0.2992518
5	0x3e9200e6	0.2851631
6	0x3e51a2b2	0.2047222
7	0x3e780f66	0.24224624
8	0x3ea2ee10	0.31822252
9	0x3e532eab	0.20623271
10	0x3e923665	0.28557125
11	0x3ea90279	0.330097
12	0x3e8b47bb	0.27203164
13	0x3e7b1304	0.24518973
14	0x3e920d63	0.28525838
15	0x3e75ab20	0.2399106
16	0x3ebc3fb2	0.36767346
17	0x3e87a0ce	0.26489872
18	0x3e46d955	0.19418843
19	0x3e8ee6ac	0.27910364
20	0x3ec3770e	0.3817677
21	0x3ea59a93	0.32344493
22	0x3e524939	0.20535745
23	0x3e90cb09	0.28279904
24	0x3e4c8548	0.19972718
25	0x3eb17e7f	0.3466682
26	0x3e93367a	0.287525
27	0x3e28938f	0.16462539
28	0x3e818ff7	0.2530515
29	0x3e89c54d	0.2690834
30	0x3e67f030	0.22650218
31	0x3e4c21af	0.19934724
32	0x3e8dcdd1	0.27696088
33	0x3e4fc00b	0.20288102
34	0x3e8de872	0.27716404
35	0x3e9d6da8	0.30747724
36	0x3e562e43	0.20916085
37	0x3e6a580a	0.22885147
38	0x3e670d2f	0.22563623
39	0x3e952a25	0.29133716
40	0x3e838768	0.25689244
41	0x3e9e0b67	0.30868074
42	0x3e9c4737	0.30523083
43	0x3e3c1acd	0.18369599
44	0x3e292d2a	0.16521135
45	0x3e1e61d8	0.15467012
46	0x3e6548f3	0.22391109
47	0x3ea06a3b	0.31331047
48	0x3e6db2e4	0.23212773
49	0x3e848872	0.2588535
50	0x3eaba6e7	0.33525774
51	0x3e748aa6	0.23881015
52	0x3e984b5c	0.29744995
53	0x3e9e7f0c	0.30956304
54	0x3e9e4d01	0.30918124
55	0x3e255bdc	0.16148323
56	0x3e3363f0	0.17518592
57	0x3e8c2e47	0.27379057
58	0x3e402050	0.18762326
59	0x3e85d794	0.26141036
60	0x3e7175f0	0.23580146
61	0x3e8491e5	0.2589256
62	0x3e60e07c	0.21960634
63	0x3e61365e	0.21993396
64	0x3e90da32	0.2829147
65	0x3e9ebf41	0.3100529
66	0x3eab3eba	0.33446294
67	0x3e741e8a	0.23839775
68	0x3e6e0162	0.23242715
69	0x3e9c0944	0.3047582
70	0x3ea17bad	0.3153967
71	0x3e5701b1	0.20996739
72	0x3e87b4a9	0.2650502
73	0x3e4fcafd	0.20292278
74	0x3ea513e6	0.32241744
75	0x3e6401b2	0.22266272
76	0x3e7044ff	0.2346382
77	0x3e404c96	0.18779215
78	0x3e801a97	0.25020286
79	0x3e69001f	0.22753952
80	0x3ec842cf	0.3911347
81	0x3e388ad6	0.18021712
82	0x3eb4b0b7	0.35291073
83	0x3e681185	0.22662933
84	0x3e93d511	0.28873494
85	0x3e8f365d	0.27971163
86	0x3e8a772b	0.27044043
87	0x3ebd8422	0.37014872
88	0x3e41efef	0.18939184
89	0x3e98eb84	0.29867184
90	0x3ecabbad	0.3959631
91	0x3e81b179	0.25330713
92	0x3ec1b1a7	0.3783085
93	0x3eae1916	0.34003514
94	0x3e687195	0.22699578
95	0x3e85579b	0.260434
96	0x3e84c801	0.2593384
97	0x3ea67b8f	0.32516143
98	0x3e22a972	0.15884951
99	0x3eb8c266	0.36085814
100	0x3e529aae	0.20566818
101	0x3e73740e	0.2377474
102	0x3e5a5dbe	0.21324822
103	0x3e7fc282	0.24976543
104	0x3e49bca0	0.19700861
105	0x3e308252	0.17237213
106	0x3e856573	0.26053962
107	0x3eaa0831	0.33209375
108	0x3e6232b3	0.22089653
109	0x3ec93bf4	0.39303553
110	0x3e5e71f6	0.2172316
111	0x3e88c517	0.26712868
112	0x3e6adcfd	0.22935863
113	0x3e8dc923	0.27692518
114	0x3ebb70aa	0.36609393
115	0x3e54df63	0.2078834
116	0x3e38b503	0.180378
117	0x3e9a962c	0.30192697
118	0x3e7a4519	0.24440421
119	0x3e9da665	0.3079101
120	0x3e7760b6	0.24157986
121	0x3e89c690	0.26909304
122	0x3e82b51e	0.25528806
123	0x3eb3f6f1	0.3514934
124	0x3e53dd59	0.20689906
125	0x3e9e2555	0.30887857
126	0x3e34a023	0.17639212
127	0x3e82c5c1	0.255415
